test-data/models/mobilenetv2_nchw/weights/conv_16_weight.npy (npy, 13904 bytes, 1 tensors)

array f4 [144, 24, 1, 1]
-0.03168943 -0.06127755 0.07156575 -0.02039924 -0.0050038877 -0.030154122 0.050668962 0.19151732
0.011300874 -0.019377531 -0.085106544 0.030541465 0.035543762 -0.073272176 -0.114187814 0.05768927
-0.011824254 -0.030203456 -0.05423749 0.15440345 0.11803228 0.07388549 -0.0027586166 -0.058276355
-0.031407658 0.015332006 -0.008251041 -0.013621652 -0.005037377 0.0003877548 0.0056218766 -0.009253653
-0.011223667 -0.037886158 0.011097015 -0.015833978 -0.036197226 0.011802056 -0.012025971 0.022548465
0.0013282666 0.023651436 0.018157545 -0.019520503 -0.02935877 -0.0010086929 0.0052804635 0.04722575
0.068749 0.047345452 -0.024692873 0.09771863 -0.012704699 0.03542096 0.05595557 0.07582909
-0.034158956 -0.10373033 -0.0016720801 0.023390934 0.028000826 0.045706976 0.014580472 -0.031183394
0.062070634 0.019981997 0.008765544 0.020923955 0.05564302 -0.09853479 -0.058233097 0.033739757
-0.022330768 0.0040036477 0.008935839 -0.03448825 -0.015343555 -0.022189341 -0.042594526 0.050666865
-0.023931006 -0.006100121 -0.047691837 0.07373297 -0.022731824 0.033703852 0.023536349 0.01111089
-0.012010276 0.048829548 -0.0027429338 -0.011499717 0.02342051 0.0037367994 0.012682877 0.03296549
-0.046335053 -0.014846835 -0.010126355 0.0048710024 0.060602978 -0.041132502 -0.017920196 -0.044644937
0.027838456 -0.04808981 -0.043078635 -0.047738746 0.12779957 0.012931629 -0.011127243 0.13792011
0.049768813 0.037883684 -0.03145839 -0.089377366 0.089383505 0.0073729227 0.034455083 0.0068982146
-0.026635746 -0.024156626 -0.05108687 0.050558247 0.018566055 0.02435767 -0.02919455 -0.05264331
-0.009196691 -0.06088528 0.01343078 0.036885124 0.017347826 -0.038502548 0.017642975 0.043431327
0.04958908 -0.031428564 0.021694457 -0.025418071 0.0627285 0.057580397 -0.0178229 0.009361658
-0.03914057 0.066843964 -0.09089478 0.04162688 0.025925346 0.015112997 -0.07628447 -0.07045395
0.033521514 -0.068115555 -0.0062366845 0.017985726 0.036301408 -0.015137201 -0.06456692 0.12521929
-0.113133974 0.099737376 0.043960437 -0.00730336 0.08134506 0.014573743 0.05022266 -0.07456766
-0.017584825 0.04035958 -0.05459328 0.03361186 0.028835548 -0.0015365958 -0.03588111 0.0035404
0.14234327 -0.03199429 0.03633209 0.06411351 0.19128594 0.034959115 -0.021078993 0.24297182
-0.019536115 0.06553206 0.0067178146 -0.023717167 -0.021832181 -0.010536862 -0.00059114053 -0.011853286
0.0009771533 -0.03216298 -0.062172808 -0.021603985 0.022586307 -0.009593993 0.09511866 -0.06872629
0.030063324 0.032025542 -0.0047734655 0.043231715 0.04166563 -0.050214875 0.034247044 -0.055460677
-0.058787163 -0.00012641885 -0.05444572 -0.011722002 0.0034758474 0.0686803 -0.010920653 -0.065605454
0.015407505 0.046793398 -0.12180567 0.06789893 0.05885533 0.027719662 -0.058460046 0.12638243
-0.017700719 -0.030172892 -0.038999453 -0.028299274 0.048737425 0.025006376 -0.07084808 -0.08393119
0.042269383 -0.05181458 0.01354716 -0.00747383 0.007622511 0.0067109633 0.023652 0.044421718
0.14104818 -0.0034843509 -0.0035050402 -0.064225234 -0.11840591 0.06932804 -0.0026182712 -0.023056146
0.022275163 0.08829106 -0.011887348 -0.10049222 -0.016908295 0.03366677 0.056275092 0.061640795
00000000: c7cc 01bd 2bfe 7abd 1091 923d 4f1c a7bc
00000010: a7f7 a3bb c705 f7bc 428a 4f3d 1e1d 443e
00000020: 4d27 393c a1bd 9ebc 574c aebd 1832 fa3c
00000030: 5696 113d b90f 96bd 4ddb e9bd 954b 6c3d
00000040: 84ba 41bc 3d6d f7bc 2128 5ebd f01b 1e3e
00000050: e8ba f13d 4751 973d e8c9 34bb 30b3 6ebd
00000060: 51a5 00bd 1833 7b3c 602f 07bc 592d 5fbc
00000070: 9510 a5bb 914b cb39 b837 b83b a29c 17bc
00000080: 79e3 37bc 842e 1bbd 41d0 353c 42b6 81bc
00000090: 8b43 14bd 695d 413c 9408 45bc 8fb7 b83c
000000a0: 3b19 ae3a a8c0 c13c 22bf 943c 76e9 9fbc
000000b0: ce81 f0bc 1e36 84ba bd07 ad3b ca6f 413d
000000c0: 47cc 8c3d 4eed 413d b548 cabc b520 c83d
000000d0: 5f27 50bc 9215 113d ab31 653d 484c 9b3d
000000e0: 43ea 0bbd 9170 d4bd b329 dbba 589e bf3c
000000f0: fd61 e53c 3d37 3b3d efe2 6e3c 5174 ffbc
00000100: c73d 7e3d 49b1 a33c 5b9d 0f3c b768 ab3c
00000110: efe9 633d 9ccc c9bd d485 6ebd b332 0a3d
00000120: 04ef b6bc 0831 833b a067 123c 8d43 0dbd
00000130: 8963 7bbc 6cc6 b5bc 9977 2ebd 0f88 4f3d
00000140: f50a c4bc 86e3 c7bb 8458 43bd 5001 973d
00000150: 1738 babc 0d0d 0a3d 4dcf c03c 730a 363c
00000160: c0c6 44bc 7e01 483d cbc2 33bb 4f69 3cbc
00000170: 5fdc bf3c 17e5 743b d7cb 4f3c d206 073d
00000180: d3c9 3dbd 2440 73bc 03e9 25bc ee9c 9f3b
00000190: d43a 783d 8e7a 28bd 60cd 92bc 9cdd 36bd
000001a0: 790d e43c d2f9 44bd 3973 30bd b489 43bd
000001b0: e4dd 023e 2fdf 533c 0a4f 36bc ee3a 0d3e
000001c0: 62da 4b3d ec2b 1b3d 83da 00bd 7b0b b7bd
000001d0: b30e b73d 8f98 f13b c620 0d3d 6b0a e23b
000001e0: 3533 dabc 1ee4 c5bc 7740 51bd 2a16 4f3d
000001f0: d717 983c bd89 c73c 6929 efbc 83a0 57bd
00000200: b8ad 16bc d862 79bd c60c 5c3c db14 173d
00000210: 071d 8e3c d9b4 1dbd 0088 903c 0ce5 313d
00000220: eb1d 4b3d 3dbb 00bd 93b8 b13c 8f39 d0bc
00000230: cd77 803d 6cd9 6b3d 5501 92bc a461 193c
00000240: dd51 20bd 7de5 883d 0b27 babd f380 2a3d
00000250: 6461 d43c 819c 773c 083b 9cbd 294a 90bd
00000260: db4d 093d 2b80 8bbd 1a5d ccbb cd56 933c
00000270: c9b0 143d 0602 78bc a93b 84bd 7c39 003e
00000280: c9b2 e7bd 1c43 cc3d dc0f 343d 0651 efbb
00000290: 3d98 a63d b5c6 6e3c 47b6 4d3d eeb6 98bd
000002a0: 0d0e 90bc 1650 253d 349d 5fbd 97ac 093d
000002b0: 8738 ec3c 9967 c9ba 12f8 12bd 0e06 683b
000002c0: 6fc2 113e 720c 03bd f5d0 143d f24d 833d
000002d0: 76e0 433e 4a31 0f3d daad acbc 9bcd 783e
000002e0: 340a a0bc ac35 863d 1d21 dc3b 814a c2bc
000002f0: 67d9 b2bc cda2 2cbc c5f6 1aba 4934 42bc
00000300: d313 803a 54bd 03bd eaa8 7ebd d7fa b0bc
00000310: eb06 b93c 2030 1dbc 92cd c23d 5ec0 8cbd
00000320: 5c47 f63c 372d 033d bb6a 9cbb bd13 313d
00000330: 94a9 2a3d 1dae 4dbd a146 0c3d bc2a 63bd
00000340: cfca 70bd 4d8f 04b9 7a02 5fbd a40d 40bc
00000350: 0bcb 633b 42a8 8c3d 8aec 32bc 275c 86bd
00000360: c36f 7c3c 6faa 3f3d 4075 f9bd 980e 8b3d
00000370: 4912 713d 5814 e33c cd73 6fbd 656a 013e
00000380: 1901 91bc 242d f7bc e4bd 1fbd e1d3 e7bc
00000390: e5a0 473d 2cda cc3c cc18 91bd 1ee4 abbd
000003a0: a922 2d3d 863b 54bd e8f4 5d3c 08e7 f4bb
000003b0: 42c6 f93b a4e7 db3b d7c1 c13c 8cf3 353d
000003c0: ef6e 103e b559 64bb d1b4 65bb 8588 83bd
000003d0: cc7e f2bd dcfb 8d3d 4d97 2bbb 3ee0 bcbc
000003e0: 677a b63c f1d1 b43d 27c3 42bc ddce cdbd
000003f0: 4483 8abc 2be6 093d b680 663d 0f7b 7c3d
