test-data/models/mobilenetv2_nchw/weights/conv_75_weight.npy (npy, 20816 bytes, 1 tensors)

array f4 [576, 1, 3, 3]
0	0xbe03de06	-0.12877664
1	0xbe91ddb2	-0.28489453
2	0xbe788f41	-0.24273397
3	0xbe89c836	-0.2691056
4	0xbec724b8	-0.38895202
5	0xbed53568	-0.41642308
6	0xbe733afd	-0.23752971
7	0xbebcd050	-0.3687768
8	0xbec08c40	-0.37607002
9	0xbdc0b71c	-0.09409925
10	0xbe872520	-0.26395512
11	0xbe49d683	-0.19710736
12	0xbe8a1205	-0.26966873
13	0xbef3a990	-0.47590303
14	0xbec1af76	-0.3782918
15	0xbe44c912	-0.19217327
16	0xbeaf4eba	-0.3423975
17	0xbe8ec935	-0.27887884
18	0x3e5b4f12	0.21416882
19	0x3f058623	0.521578
20	0x3eb364eb	0.35037932
21	0x3ef1715d	0.47156802
22	0x3f7a22d2	0.9770938
23	0x3f3583ea	0.7090441
24	0x3e9e2b17	0.3089225
25	0x3f2ab640	0.6668434
26	0x3f08c776	0.53429353
27	0x3e34f466	0.17671356
28	0x3ebbeb6f	0.3670306
29	0x3e877b19	0.26461104
30	0x3e97959d	0.29606333
31	0x3f2c16f8	0.6722255
32	0x3efe3f92	0.49657875
33	0x3e3c9a4d	0.18418236
34	0x3eeb5715	0.45964876
35	0x3eb0978f	0.3449063
36	0x3e4f2d62	0.20232156
37	0x3ed9a983	0.4251214
38	0x3e980ff4	0.2969967
39	0x3eb4126f	0.35170314
40	0x3f4766c7	0.778912
41	0x3f0d1ef0	0.5512533
42	0x3e4af6f0	0.19820762
43	0x3ef90e3f	0.4864368
44	0x3ebd55d3	0.3697954
45	0xbdc90ad0	-0.098165154
46	0xbe887d3f	-0.26658055
47	0xbe6b6875	-0.22989066
48	0xbe818dff	-0.25303647
49	0xbef1bb40	-0.47213173
50	0xbec612db	-0.3868626
51	0xbe54262a	-0.20717683
52	0xbed08c85	-0.40732208
53	0xbe9cd7d1	-0.30633405
54	0x3e517947	0.2045642
55	0x3ee6263e	0.4495105
56	0x3ec9c511	0.39408162
57	0x3f0a1336	0.53935564
58	0x3f817f19	1.0116912
59	0x3f38af88	0.7214284
60	0x3ecf73ad	0.4051794
61	0x3f48cf7f	0.78441614
62	0x3f0c0bbc	0.54705405
63	0x3e6cd1bb	0.23126881
64	0x3efa3f26	0.48876303
65	0x3ec226f7	0.37920353
66	0x3ee04c99	0.4380844
67	0x3f4cdaa5	0.80021125
68	0x3f146a91	0.5797511
69	0x3e98c133	0.298349
70	0x3f021790	0.50817204
71	0x3eb7c9d1	0.3589616
72	0x3e0a3b93	0.13499288
73	0x3ee78ae4	0.45223153
74	0x3eb158be	0.34638017
75	0x3ecff43a	0.40616018
76	0x3f57bb2e	0.8426999
77	0x3f22c80b	0.6358649
78	0x3ea615ba	0.3243845
79	0x3f0c3fc1	0.5478478
80	0x3eced076	0.40393418
81	0x3e621679	0.22078885
82	0x3eceba0d	0.4037632
83	0x3e96af48	0.29430604
84	0x3ed18711	0.4092336
85	0x3f4c3d38	0.7978091
86	0x3f0b9883	0.5452959
87	0x3e84133a	0.2579592
88	0x3f0b484d	0.544072
89	0x3ec4346a	0.3832124
90	0x3e328656	0.17434058
91	0x3ef06082	0.4694863
92	0x3ebdd9a4	0.3708011
93	0x3ebd3efd	0.3696212
94	0x3f430447	0.761784
95	0x3f187d9e	0.59566677
96	0x3e972a5d	0.29524508
97	0x3f1b10ac	0.60572314
98	0x3edc4fe9	0.43029717
99	0xbdeb2152	-0.11480965
100	0xbeb29a8f	-0.34883544
101	0xbe64c4d1	-0.22340705
102	0xbe71f56a	-0.23628774
103	0xbedd1f1f	-0.43187806
104	0xbead0f04	-0.3380052
105	0xbe200cfc	-0.15629953
106	0xbe95200a	-0.29126006
107	0xbe5ed8e7	-0.21762429
108	0x3e67d9ff	0.22641753
109	0x3ef32aa8	0.47493482
110	0x3eb30754	0.34966528
111	0x3ef0a0e1	0.4699774
112	0x3f544c06	0.829285
113	0x3f10b376	0.56523836
114	0x3ea158fb	0.315132
115	0x3f107c53	0.56439704
116	0x3ee049f3	0.4380642
117	0xbdcf2d64	-0.101160794
118	0xbe62613a	-0.22107401
119	0xbe2ca6a1	-0.16860439
120	0xbe78bd58	-0.24290979
121	0xbeedd1e2	-0.4644919
122	0xbeb0cf3b	-0.34533104
123	0xbe2bcd91	-0.16777636
124	0xbec5c280	-0.38624954
125	0xbe85a014	-0.26098692
126	0x3e1b1f16	0.15148577
127	0x3ebd4764	0.3696853
128	0x3e717e59	0.23583354
129	0x3ea531d2	0.32264572
130	0x3f42b127	0.76051563
131	0x3f09a268	0.5376344
132	0x3e81f802	0.25384527
133	0x3f2005cb	0.6250884
134	0x3ef10369	0.47072914
135	0x3eb14372	0.3462177
136	0x3f2f7103	0.6853182
137	0x3ee01098	0.4376266
138	0x3f10edfd	0.5661314
139	0x3f8b6aa9	1.0891925
140	0x3f43f72e	0.7654904
141	0x3eb97822	0.36224467
142	0x3f3ef3f9	0.7459102
143	0x3f0ce670	0.5503912
144	0xbe4a2979	-0.19742383
145	0xbeabdfd6	-0.3356921
146	0xbea79ee8	-0.32738423
147	0xbea2aee9	-0.3177407
148	0xbeffec16	-0.49984807
149	0xbefd634b	-0.49489817
150	0xbe75e704	-0.24013907
151	0xbee24490	-0.44192934
152	0xbec44d55	-0.3834025
153	0xbdc45545	-0.09586576
154	0xbe811b9f	-0.25216386
155	0xbe4fc4e0	-0.20289946
156	0xbe58fac7	-0.21189414
157	0xbef77633	-0.48332366
158	0xbeba9fff	-0.36450192
159	0xbe272321	-0.16321994
160	0xbebeac3a	-0.37240773
161	0xbe8afc2c	-0.27145517
162	0x3e52d997	0.20590816
163	0x3f0ba0c7	0.545422
164	0x3eda3d34	0.4262482
165	0x3ee44d83	0.44590387
166	0x3f7813f4	0.96905446
167	0x3f38591c	0.7201097
168	0x3ea1839e	0.31545728
169	0x3f2052d6	0.626264
170	0x3eead9a5	0.45869175
171	0x3e33c18e	0.17554304
172	0x3eaf401d	0.34228602
173	0x3e850cfe	0.25986475
174	0x3eb1e752	0.34746796
175	0x3f65b622	0.8973104
176	0x3f31d6c9	0.6946836
177	0x3e886ca5	0.2664539
178	0x3f385019	0.7199722
179	0x3f05a0d6	0.5219854
180	0xbe271893	-0.16317968
181	0xbe8bf9d9	-0.27339056
182	0xbe35c6bf	-0.17751597
183	0xbea82749	-0.32842472
184	0xbf148db3	-0.58028716
185	0xbec78cda	-0.3897465
186	0xbe51ba94	-0.2048133
187	0xbedb3a7f	-0.42818066
188	0xbe92f823	-0.28704938
189	0x3e26037c	0.16212267
190	0x3ecbc8df	0.3980169
191	0x3e89ff59	0.26952627
192	0x3ed5e558	0.41776538
193	0x3f4ae86b	0.7926089
194	0x3f097c35	0.5370515
195	0x3e962d99	0.29331663
196	0x3efd45b3	0.4946724
197	0x3eb6ebc7	0.3572676
198	0xbdb45a11	-0.08806241
199	0xbe78e52b	-0.2430617
200	0xbe3ad20f	-0.18244193
201	0xbe69474e	-0.22781107
202	0xbef17418	-0.47158885
203	0xbeae8154	-0.34083045
204	0xbe52cd8a	-0.2058622
205	0xbebf5112	-0.3736654
206	0xbe811139	-0.25208452
207	0x3e1d41fd	0.15357204
208	0x3e906c3b	0.28207573
209	0x3e5e2290	0.21692872
210	0x3e9895ee	0.29801887
211	0x3f0d75d3	0.5525791
212	0x3ecb2fd6	0.39684933
213	0x3e6d5508	0.23176968
214	0x3ee0aeaf	0.43883273
215	0x3ea82d1f	0.32846925
216	0xbe016bcb	-0.12638776
217	0xbe4dbec0	-0.20092297
218	0xbe32bab6	-0.17454037
219	0xbe5a313b	-0.21307842
220	0xbebf7925	-0.37397113
221	0xbe9e6abe	-0.30940813
222	0xbdf93614	-0.12168518
223	0xbe884e71	-0.26622346
224	0xbe5b85bd	-0.21437736
225	0xbdb579b8	-0.08861107
226	0xbeccf500	-0.4003067
227	0xbe8d1897	-0.27557823
228	0xbebe5c41	-0.3717976
229	0xbf6416c1	-0.8909722
230	0xbf25c4ed	-0.6475361
231	0xbe66a6e5	-0.22524603
232	0xbf39429f	-0.7236728
233	0xbf171f36	-0.59032
234	0x3e8fc8b4	0.28082812
235	0x3f320203	0.6953432
236	0x3ef13e5a	0.47117883
237	0x3f22143b	0.6331212
238	0x3f922ec1	1.1420518
239	0x3f532b3c	0.82487845
240	0x3eccaf09	0.3997729
241	0x3f3e2ddc	0.74288726
242	0x3f0ad96d	0.54238015
243	0xbdec2dc6	-0.11532168
244	0xbe80692f	-0.2508025
245	0xbe41d5a6	-0.18929157
246	0xbe785022	-0.24249318
247	0xbeed072b	-0.4629453
248	0xbea1ef84	-0.31628048
249	0xbe37e265	-0.17957456
250	0xbea83ef3	-0.32860526
251	0xbe52a0fe	-0.20569226
252	0x3dee8f10	0.11648381
253	0x3eb84938	0.3599336
254	0x3e7e6047	0.24841414
255	0x3ea8ad9e	0.3294496
