test-data/models/mobilenetv2_nchw/weights/conv_71_weight.npy (npy, 221264 bytes, 1 tensors)

array f4 [96, 576, 1, 1]
-0.13141754 0.18043762 -0.31504387 0.059205826 -0.029193886 -0.009134565 -0.056623783 0.028457604
-0.08563996 0.050221503 0.070575684 -0.030601742 0.10914101 -0.10082127 -0.10253426 0.106301405
-0.09109747 0.1824424 0.014314185 0.15136562 0.0048382957 0.14331006 0.27636835 -0.0066613257
-0.16409546 0.0009944849 0.091544814 0.09542676 0.1774379 0.10093104 -0.0842417 -0.012913898
-0.06259459 0.044030868 0.023062736 0.1483666 -0.067942865 0.13942982 -0.19866897 -0.053425543
-0.07884054 -0.006157441 -0.17854798 -0.040820386 -0.12437233 0.16990507 -0.02454545 0.061683457
-0.15198712 0.016165374 -0.055319 -0.018951569 0.07100077 0.072203495 -0.065135054 -0.22659285
-0.07103799 -0.022851631 -0.09925015 0.004182999 -0.05295373 -0.11674408 -0.046015088 0.019384567
0.065858416 0.06674261 0.04509318 -0.17601517 -0.019152423 0.03756029 -0.15170011 0.119136594
-0.058953725 -0.044445436 0.023559531 -0.074727654 -0.19435772 0.103449695 0.10205955 0.14792556
-0.2664868 0.10683566 0.1590726 -0.05927723 -0.08462455 0.021593872 -0.007443125 -0.2394558
0.06882137 -0.061210614 -0.0056589725 -0.0050211013 -0.038615238 -0.1962737 0.020100413 -0.22172233
-0.17889497 -0.010642237 -0.0591567 -0.0581195 0.07481419 0.08096909 -0.040618718 0.060804427
0.06631932 -0.031586636 0.054361235 -0.03743349 -0.09214968 0.15610753 -0.056592807 -0.06684253
-0.074625604 0.18591073 -0.17049064 0.03522432 -0.031175984 0.028192012 -0.14642861 0.019456156
0.026912857 0.0043556974 0.008287664 -0.12091225 -0.151204 0.024584947 -0.010597809 -0.095127635
-0.02439249 -0.051553894 -0.12816948 0.11306163 0.0013090998 -0.087117314 0.20802268 -0.060031466
-0.11828486 -0.1213027 0.12625955 0.053626128 -0.044408515 -0.078960106 -0.09095877 -0.120787054
-0.089480095 -0.16536039 0.12157617 0.08801286 0.13962291 0.0010230981 0.07509141 0.1339631
0.015505174 -0.22566414 0.060147714 -0.19383428 0.028450768 -0.013756795 0.0051216604 0.02471842
0.0025889724 -0.1699927 -0.08152414 0.051831435 -0.049390435 -0.110728554 0.012282858 0.008917537
0.027506225 -0.1909716 0.17835478 0.15344226 -0.12170684 0.0735437 0.012020947 0.017982308
-0.0028450994 0.10145274 -0.2969523 0.11053949 -0.0974106 -0.09156849 0.035383068 -0.111298926
-0.20921738 -0.014055406 -0.13657609 0.14646263 -0.12248498 -0.049527556 -0.06931686 0.05690256
0.14707303 0.051941726 -0.18174139 -0.22216688 -0.104822844 -0.01498468 -0.12555218 0.037841685
0.09411589 -0.037564684 0.08521769 -0.26344386 0.15113445 0.061531313 -0.1327268 0.034017093
0.0013960159 0.09957141 -0.059244856 0.063591816 -0.05120432 -0.04044422 -0.17656955 0.07448777
-0.00012966897 0.17456654 0.09456367 -0.32409975 -0.12162702 0.10005807 -0.04992151 0.02529852
-0.024910673 0.004029322 -0.06587536 -0.00289608 0.042005926 -0.026922895 -0.08984913 -0.08309051
0.23619436 -0.2951256 -0.15487307 0.010496049 0.014316418 -0.030487617 -0.12489791 -0.29786342
0.07622745 0.07368428 -0.14017363 0.096785225 0.17764418 0.0060984995 0.13095894 0.08333708
-0.095179364 -0.2216953 -0.033970892 -0.0018386574 0.06577319 -0.086348526 0.05047399 -0.20353492
00000000: 5292 06be a4c4 383e 6e4d a1be cf81 723d
00000010: 0428 efbc 24a9 15bc 57ee 67bd ec1f e93c
00000020: 0164 afbd 10b5 4d3d fc89 903d 81b0 fabc
00000030: 5285 df3d 627b cebd 7bfd d1bd 8db4 d93d
00000040: 4f91 babd 2ed2 3a3e 0b86 6a3c 97ff 1a3e
00000050: 918a 9e3b dfbf 123e 2780 8d3e 4047 dabb
00000060: a408 28be 6059 823a d97b bb3d 1b6f c33d
00000070: 48b2 353e efb4 ce3d ea86 acbd d094 53bc
00000080: 9831 80bd b659 343d 10ee bc3c 6aed 173e
00000090: a125 8bbd b1c6 0e3e e16f 4bbe bed4 5abd
000000a0: 2677 a1bd 5cc4 c9bb 48d5 36be 4733 27bd
000000b0: ecb6 febd 98fb 2d3e 8a13 c9bc cba7 7c3d
000000c0: 83a2 1bbe 3f6d 843c 2d96 62bd 5240 9bbc
000000d0: da68 913d 6ddf 933d 8765 85bd f507 68be
000000e0: 5e7c 91bd 5833 bbbc aa43 cbbd 8a11 893b
000000f0: 03e6 58bd 8517 efbd 517a 3cbd 62cc 9e3c
00000100: c7e0 863d 59b0 883d a0b3 383d 523d 34be
00000110: 8be5 9cbc d2d8 193d 4657 1bbe e3fd f33d
00000120: 7679 71bd 6b0c 36bd ebff c03c d00a 99bd
00000130: b605 47be 6fdd d33d 9904 d13d cc79 173e
00000140: f570 88be a8cc da3d ede3 223e aecc 72bd
00000150: a34f adbd a2e5 b03c 75e5 f3bb e733 75be
00000160: 38f2 8c3d fbb7 7abd e76e b9bb 0d88 a4bb
00000170: 032b 1ebd f9fb 48be 9fa9 a43c 2e0b 63be
00000180: 3e30 37be c75c 2ebc 4c4e 72bd b60e 6ebd
00000190: 2f38 993d 1fd3 a53d d05f 26bd 100e 793d
000001a0: 6cd2 873d fd60 01bd e3a9 5e3d dc53 19bd
000001b0: f9b8 bcbd a7da 1f3e dccd 67bd bde4 88bd
000001c0: 4fd5 98bd 625f 3e3e 1995 2ebe 6047 103d
000001d0: c764 ffbc eff2 e63c 62f1 15be 8462 9f3c
000001e0: 5a78 dc3c 3dba 8e3b fbc8 073c d7a0 f7bd
000001f0: 39d5 1abe 5f66 c93c 6fa2 2dbc 47d2 c2bd
00000200: c2d2 c7bc 2d2a 53bd dc3e 03be db8c e73d
00000210: 1a96 ab3a 906a b2bd e603 553e 8ee3 75bd
00000220: 553f f2bd 8d6d f8bd 2f4a 013e 12a7 5b3d
00000230: b4e5 35bd d6b5 a1bd 9748 babd 345f f7bd
00000240: 5741 b7bd 3c54 29be edfc f83d 1640 b43d
00000250: 4ff9 0e3e 7a19 863a 86c9 993d 9f2d 093e
00000260: 6a09 7e3c 8014 67be 735d 763d 7e7c 46be
00000270: 9611 e93c 2e64 61bc 9ad3 a73b 497e ca3c
00000280: c0ab 293b 9112 2ebe 21f6 a6bd 334d 543d
00000290: a04d 4abd a7c5 e2bd 0a3e 493c dc1a 123c
000002a0: bc54 e13c 0f8e 43be a3a2 363e f81f 1d3e
000002b0: 7041 f9bd 149e 963d 82f3 443c a24f 933c
000002c0: d974 3abb 74c6 cf3d 220a 98be 8762 e23d
000002d0: 357f c7bd 4388 bbbd d6ed 103d b1f0 e3bd
000002e0: 153d 56be a548 66bc 9ada 0bbe 4dfa 153e
000002f0: 68d9 fabd 68dd 4abd fff5 8dbd a912 693d
00000300: 509a 163e d9c0 543d 6a1a 3abe b77f 63be
00000310: 5cad d6bd 4e82 75bc c090 00be e2ff 1a3d
00000320: d5bf c03d 6ddd 19bd 9d86 ae3d 1de2 86be
00000330: fdc2 1a3e 4208 7c3d 89e9 07be 8255 0b3d
00000340: 85fa b63a 18ec cb3d bcaa 72bd 6d3c 823d
00000350: 9fbb 51bd d7a8 25bd a6ce 34be 0b8d 983d
00000360: c0f7 07b9 92c1 323e 99aa c13d 67f0 a5be
00000370: 9617 f9bd 3feb cc3d 7f7a 4cbd d83e cf3c
00000380: 7811 ccbc 6708 843b a9e9 86bd 29cc 3dbb
00000390: 680e 2c3d 678d dcbc d202 b8bd 5b2b aabd
000003a0: efdc 713e b41a 97be 0c97 1ebe 9ff7 2b3c
000003b0: 698f 6a3c 2bc1 f9bc 7aca ffbd 8e81 98be
000003c0: 231d 9c3d c9e7 963d ad89 0fbe 5537 c63d
000003d0: 5be8 353e ecd5 c73b 1a1a 063e a2ac aa3d
000003e0: 66ed c2bd 1804 63be 1025 0bbd 1bff f0ba
000003f0: 18b4 863d 7fd7 b0bd d1bd 4e3d 756b 50be
