test-data/models/mobilenetv2_nchw/weights/conv_21_bias.npy (npy, 848 bytes, 1 tensors)

array f4 [192]
0	0x3dba9bc6	0.09111743
1	0xbc9a378a	-0.018825311
2	0x3e4c8b87	0.199751
3	0x3d917576	0.07102482
4	0xbdfe83a3	-0.124274515
5	0x3e5971a1	0.21234752
6	0x3e62ea3e	0.22159669
7	0x3e585c9b	0.21129076
8	0xbd868ab2	-0.06569423
9	0xbc459388	-0.0120591
10	0x3e392fa9	0.18084587
11	0x3e17ce41	0.14824773
12	0x3e1d18a7	0.15341435
13	0x3e23baf5	0.15989287
14	0xbd5d840f	-0.05408102
15	0xbd9ebf09	-0.07751281
16	0x3e341fe5	0.17590292
17	0x3e55708c	0.20843714
18	0x3daa32df	0.08310484
19	0x3e57029b	0.20997088
20	0x3e8f5d32	0.2800079
21	0x3e11865b	0.14211409
22	0x3e75e4b7	0.24013029
23	0x3e946224	0.28981125
24	0x3e3083a0	0.17237711
25	0x3e4c8cf4	0.19975644
26	0xbd3d0d49	-0.046155248
27	0x3d4faa96	0.050699793
28	0x3e0b1656	0.13582739
29	0xbdcfafd7	-0.10140961
30	0x3aa6d14f	0.0012727174
31	0x3deed762	0.11662175
32	0xbdf13f43	-0.11779644
33	0xbe0fef52	-0.14056137
34	0xbd489f8e	-0.04898029
35	0x3e22538c	0.15852183
36	0x3e5a1961	0.21298744
37	0x3e53417c	0.20630449
38	0x3e4b4792	0.1985152
39	0x3e29d1ee	0.16583988
40	0x3e44e8f0	0.19229484
41	0x3e56ff9d	0.20995946
42	0x3e1c552b	0.15266864
43	0x3e1befce	0.15228197
44	0x3e0890ef	0.13336538
45	0x3e39372e	0.18087456
46	0x3e4fd59d	0.20296331
47	0x3e2e9297	0.17048107
48	0x3e18bd31	0.14915921
49	0x3d5dcab0	0.054148376
50	0x3e2cbe64	0.16869503
51	0x3e3263c8	0.17420876
52	0x3e3dd528	0.18538344
53	0xbd1df56c	-0.03856413
54	0x3e5e3eb3	0.21703605
55	0x3e88293f	0.26593968
56	0x3e61ac47	0.22038375
57	0x3e065705	0.13119133
58	0x3e59c58c	0.21266764
59	0x3d9954fd	0.07486913
60	0x3e1c4652	0.152612
61	0xbcc34c97	-0.023840232
62	0x3e32faa3	0.17478423
63	0x3e337b8d	0.175276
64	0xbda93bc4	-0.082633525
65	0x3e6efbed	0.2333829
66	0x3e33108f	0.17486785
67	0x3e6c29b2	0.2306278
68	0xbd225ad3	-0.039637398
69	0x3dfb2ca1	0.12264372
70	0x3e39407d	0.18091007
71	0xbe02c673	-0.12771015
72	0x3d7c32a3	0.06157173
73	0x3c89d1d4	0.016823687
74	0x3c975edf	0.018477855
75	0x3e58c5ba	0.21169177
76	0x3e0f07dc	0.13967842
77	0x3e49e82d	0.19717474
78	0x3e6155b1	0.22005345
79	0xbbc6b17f	-0.0060636397
80	0x3ca47c2b	0.02007874
81	0x3e73aee8	0.2379719
82	0x3ca12765	0.019672105
83	0x3e000eb6	0.12505612
84	0x3b174c04	0.002308608
85	0x3dee1f58	0.11627072
86	0x3ded1884	0.115769416
87	0x3d8288b2	0.06373729
88	0xbd81aefe	-0.06332205
89	0x3e7d2c40	0.24723911
90	0x3cd35565	0.025797555
91	0xbdef4f2d	-0.116850235
92	0x3dc7c906	0.09755139
93	0x3dfcea55	0.12349383
94	0xbd3b2756	-0.04569181
95	0x3db14c6f	0.08657157
96	0x3e14f303	0.14545827
97	0x3e57c170	0.21069884
98	0x3e46ad27	0.1940199
99	0x3e89f78c	0.26946676
100	0x3d75ec4e	0.06003981
101	0x3e1768d7	0.14786087
102	0x3e049d75	0.1295069
103	0x3e1ae559	0.15126552
104	0x3bee97ae	0.007281265
105	0x3d22a899	0.03971157
106	0x3e7d782a	0.2475287
107	0x3e537cd6	0.2065309
108	0x3e4220b0	0.18957782
109	0x3e033c0e	0.12815878
110	0x3d57e9a6	0.05271306
111	0x3e522521	0.20521976
112	0x3dae03c4	0.08496812
113	0x3e2784cf	0.16359256
114	0x3e390831	0.18069531
115	0x3e05f1b1	0.13080479
116	0x3daa0e32	0.08303489
117	0x3e515b7b	0.20445053
118	0x3e8bfdf8	0.273422
119	0x3e22cebd	0.15899177
120	0x3e00a0e2	0.12561372
121	0x3e34bbcf	0.17649768
122	0xbcec089b	-0.028812697
123	0x3d8c9bb7	0.06865638
124	0xbe171e2b	-0.14757602
125	0x3e4ca8d2	0.19986275
126	0xbd8c3722	-0.06846453
127	0x3e09bbab	0.13450496
128	0x3e3cc051	0.18432738
129	0x3d89e2c3	0.067327045
130	0x3e1574bb	0.1459531
131	0x3e0a78b4	0.13522607
132	0x3e33cdea	0.17559019
133	0x3e30937b	0.1724376
134	0x3e7f2ee3	0.2492023
135	0xbe1db1b7	-0.15399824
136	0x3e19b316	0.15009722
137	0x3db26fca	0.08712728
138	0x3da48081	0.08032323
139	0x3d486b77	0.04893061
140	0x3b43893a	0.0029836432
141	0x3d31e575	0.043431718
142	0x3e136a27	0.14395963
143	0x3e6125df	0.21987103
144	0x3e3c58c9	0.18393244
145	0xbd7c50bc	-0.06160043
146	0x3d909341	0.070593365
147	0x3dffd90b	0.124925695
148	0x3e406210	0.18787408
149	0x3e4d5677	0.20052515
150	0x3e536b4e	0.20646402
151	0x3ebda081	0.37036517
152	0x3e2aea81	0.16691019
153	0x3dde1501	0.1084385
154	0x3e92ece3	0.28696355
155	0x3dbff7e0	0.0937345
156	0x3e1c83fa	0.1528472
157	0x3ebe1a6f	0.37129542
158	0x3e8efca1	0.27927116
159	0x3e41ba73	0.18918781
160	0x3e1e7528	0.15474379
161	0x3e249b90	0.16074967
162	0x3e4f9dfe	0.20275113
163	0xbd6e7fd4	-0.058227375
164	0x3e545823	0.20736746
165	0x3d5a793e	0.05333828
166	0x3c29fd87	0.010375387
167	0x3e347524	0.1762281
168	0x3dc428bc	0.09578082
169	0x3e0cfb09	0.13767637
170	0xbd962403	-0.073310874
171	0x3deb3d0c	0.11486253
172	0x3e0ee42d	0.1395423
173	0x3e615080	0.22003365
174	0x3d8ba0b7	0.06817763
175	0x3e0d2507	0.13783656
176	0x3ecf50f0	0.40491438
177	0xbc984212	-0.018586192
178	0xbd8fc42f	-0.07019841
179	0x3b835fb3	0.004009211
180	0xbd4cb8a0	-0.04998076
181	0x3de36d4a	0.111048296
182	0x3de8e2cd	0.11371384
183	0x3e46f07e	0.19427678
184	0x3e2449d9	0.16043796
185	0x3e97c039	0.29638842
186	0x3dfeef20	0.12447953
187	0x3e4baf39	0.19891061
188	0x3e692bc9	0.22770609
189	0x3e741a84	0.2383824
190	0x3e92d3bb	0.28677163
191	0x3ce6e0c3	0.028183347
