test-data/models/mobilenetv2_nchw/weights/conv_2_weight.npy (npy, 1232 bytes, 1 tensors)

array f4 [32, 1, 3, 3]
00000000: a5be 97bd e8d6 b5bd ce5c 94bd 7204 19be
00000010: 3364 fd3c 3a29 563f 89df aabd db02 8cbd
00000020: 29ca 7a3d 0ca1 3e3d b852 09be e57c 5f3e
00000030: 21ec eebb 09f8 dcbe b941 1240 0167 d83d
00000040: f071 9b3e 2d7e 19c0 5e0b 603c 5e96 f4bd
00000050: bc79 1bbf 7c8a b23c 0c27 803e a0f7 9e40
00000060: 3ae0 12bd 38a9 82be e543 16be 52bb 89be
00000070: 3c99 4fbe 721c 7ebe 7529 3d3e b02b 1440
00000080: 1a48 57bf 0677 cfbd 6b14 e2bd 15a7 09bf
00000090: d2ef b43f 9e60 9340 0199 883f 8eb0 0a3f
000000a0: f4d4 833f be97 d43e ea01 05c0 c403 a6c0
000000b0: 19be ecbf 5b95 e7bd 045d c33e 4b13 10bf
000000c0: 7cb3 0f3f 20a9 813f be2f acc0 232e 903c
000000d0: 4f3c 6940 0ca1 393f 08e0 b4bc b16a 1b3f
000000e0: e57a 21bf 1244 be3d 15b4 e2bb f5d5 bfc0
000000f0: abef d6bd fb0a d6be 6df2 d540 7530 54bf
00000100: 1879 d8be 6703 aa3f 74b4 82c0 8a32 0dbf
00000110: 5c89 9240 0f08 53bf f3f7 92be e189 8c3f
00000120: 9442 2abe 7e8d 213f 7360 04bf 3840 eb3d
00000130: 48a6 c5c0 91a0 7e3f 9d66 4f3d d97c 233e
00000140: 69ba 55be 2da3 d1bb 6c62 ecba 51f5 04bb
00000150: c4b3 89bb f658 093b 5700 0fba fa00 26bc
00000160: 6d55 94bb 3011 0fbb 0862 c73e aa28 d3be
00000170: f67a d1bf 42e9 23bf 1dba 123f 4099 ae3f
00000180: 233b c3bf b544 6f3f e3b7 bb3f 7683 023f
00000190: 8850 8a40 8305 2e40 1f4c 643e ef77 4c3e
000001a0: 81dd a9be 01f3 64bf a6a5 88c0 1728 27c0
000001b0: 123d 1ebd be85 f73d 718d acbd 12d8 cf3c
000001c0: 24a2 a73d 3186 0dc0 3123 dabd 9e23 873d
000001d0: 9f45 3140 4b79 45bf 521f f1bc ba3a abbf
000001e0: 1b93 163e 5042 dd3e e01f b6bf b8e4 b9bf
000001f0: 3353 b1bf eb8d 0d41 3604 d2b9 33a4 86ba
00000200: f24a 2a3b 3cbe dfbb 25be 54ba 34b0 2aba
00000210: 9d9f c7bb 6f77 7bbb ab80 67bb 6f4c 093b
00000220: b853 cbbb 5d64 abbb 91ee 14bb 8da5 e6bb
00000230: 820d 11bc 2fae a6ba 545e ebbb 39c6 00bc
00000240: f8a5 10bd 1ebf dcbc 20ba a3bc c184 4f3c
00000250: 6a3c bc3c 3373 dcbc 1592 acba 1a3e d93d
00000260: 83e0 30bc 878b e8bb c5c7 683a 3341 853c
00000270: 74ba bebc 9d04 3fbc 92e4 573c 7279 1abc
00000280: efa2 74bb 62d8 523c 6624 c83f f1ac c2c0
00000290: 7306 ce3f 49e3 2941 4d2a 71c1 9372 0341
000002a0: ff6b b6bf 082c d33f 5a9e 91bf c096 a63e
000002b0: c213 e4be 4963 9fbf d3d7 8fbf 5fdb 4a3f
000002c0: 46a1 0140 ddf7 e8be 8a4f 963e c35b 8a3e
000002d0: f6ba 5cbe 8ad1 273d 4fdb 52bf 9b83 59be
000002e0: f2ab b2be 5e97 90be 37dd 3fbf c177 21bf
000002f0: 29e0 a140 d3af 7d3d 5948 d6bd b359 cfbd
00000300: d17d 3cbe 4a7d 9cbf d53a 14bf e4b6 a53e
00000310: ad57 1d40 3a77 05c0 a30c 443e b6db 0abe
00000320: bb21 3fbf 98fc a2be 08a3 c43d 4202 413f
00000330: f48c 06bf 9163 3f3e e81d 4c3f 7fcd 9ebb
00000340: cb73 23bb 82d0 f3bb 47b3 89ba c746 5dbb
00000350: 0e9c 1ebc be3f 73bc 7ec0 33ba dde9 6d3c
00000360: d08d f23d 7237 4f3f a68e 843f 3839 dd3e
00000370: 04bd c7bf 419a cabe f0eb c23f d427 31bf
00000380: 0a1c 12c0 4160 a0be 9551 783d 2dc2 4b3e
00000390: 08a6 903e b86a 0a41 b670 1fc0 fd8d 28bf
000003a0: a642 0fbf ac86 9abf 98e1 e0bd 24dd aabe
000003b0: 6b80 b7be 0642 753f 3b46 e240 7720 41c0
000003c0: 6119 dcbd d57c 71bf 9719 6bbe 0844 913d
000003d0: 435d 1fbd 2eb9 70bf 68d6 87be 58b1 30be
000003e0: e6e1 8a3f 865e 09bf 388e 3c3e f4db 8f3f
000003f0: 9901 ec3d 9ae8 4a3e aaf9 653f cd96 b83e
-0.074094094 -0.08878881 -0.072442636 -0.14943102 0.030931568 0.83656657 -0.08343417 -0.06836482
0.06122795 0.046540305 -0.13410461 0.21824987 -0.0072913324 -0.43157986 2.2852614 0.105665214
0.30360365 -2.3983262 0.013674585 -0.11942743 -0.60732627 0.02179455 0.2502979 4.9677277
-0.03585837 -0.2551973 -0.14674337 -0.26900727 -0.20273298 -0.24815539 0.18472846 2.3151665
-0.84094393 -0.10130124 -0.11039051 -0.5377057 1.4135687 4.605544 1.0671693 0.5417565
1.0299363 0.4152202 -2.0782418 -5.1879597 -1.8495513 -0.11307784 0.38156903 -0.5627944
0.56133246 1.0129738 -5.380828 0.017600125 3.644306 0.72511363 -0.022079483 0.60709673
-0.6307815 0.09290327 -0.00691844 -5.994868 -0.10494932 -0.41805252 6.685843 -0.8288644
-0.42279887 1.3282288 -4.084528 -0.5515524 4.5792675 -0.8243417 -0.28704795 1.0979577
-0.1662696 0.63106525 -0.5170967 0.11486858 -6.176548 0.99463755 0.05063497 0.15965594
-0.20871891 -0.006397626 -0.0018034703 -0.0020287822 -0.004202338 0.0020957566 -0.0005455068 -0.010132069
-0.004526785 -0.0021830313 0.3894198 -0.41241962 -1.636565 -0.640278 0.57315236 1.3640518
-1.5252422 0.93464214 1.4665493 0.50981843 4.3223305 2.7190864 0.22294663 0.19967626
-0.33176807 -0.89433295 -4.2702208 -2.611822 -0.03863246 0.12086056 -0.08425415 0.025371585
0.08185223 -2.2113154 -0.106512435 0.0659859 2.7698743 -0.77138203 -0.02943388 -1.3377297
0.14704554 0.43214655 -1.4228477 -1.4522924 -1.3853515 8.847148 -0.0004005746 -0.0010272324
0.0025984612 -0.0068280976 -0.0008115492 -0.00065112417 -0.0060920254 -0.0038370749 -0.0035324495 0.00209501
-0.0062050484 -0.00523047 -0.0022725204 -0.007038778 -0.008853318 -0.0012716706 -0.0071828756 -0.00785976
-0.03531453 -0.0269466 -0.019986212 0.012665928 0.022978026 -0.0269104 -0.0013166094 0.10607548
-0.010795715 -0.007096711 0.00088798656 0.016266441 -0.023282267 -0.011658815 0.013177054 -0.009428369
-0.0037328561 0.0128689725 1.5636108 -6.083611 1.6095718 10.61799 -15.072827 8.215472
-1.4251708 1.6497812 -1.137645 0.32536888 -0.44546324 -1.2452174 -1.1237739 0.79240984
2.0254683 -0.45501605 0.29357558 0.27023134 -0.21555695 0.040971316 -0.8236589 -0.2124161
-0.3489681 -0.28240484 -0.7494692 -0.63073355 5.0586133 0.061935257 -0.10463018 -0.10124531
-0.1840737 -1.2225735 -0.5790227 0.32366097 2.4584763 -2.085402 0.19145446 -0.13560376
-0.74660844 -0.3183334 0.09601408 0.7539407 -0.5255883 0.18690325 0.79733133 -0.0048462744
-0.0024940844 -0.0074406276 -0.0010505699 -0.003376411 -0.009680761 -0.01484674 -0.00068569917 0.014521089
0.11843455 0.8094398 1.0356033 0.43207717 -1.5604558 -0.3957081 1.5228252 -0.692014
-2.2829614 -0.31323436 0.060624678 0.19898291 0.28251672 8.651054 -2.4912543 -0.65841657
-0.5596107 -1.2072349 -0.109805286 -0.33371842 -0.35840163 0.9580387 7.071073 -3.0176065
-0.10747028 -0.94331104 -0.2295898 0.07093054 -0.0389073 -0.9403256 -0.26530766 -0.17255151
1.0850189 -0.53659856 0.18413627 1.1238999 0.11523742 0.19815293 0.8983408 0.36052552
