test-data/models/mobilenetv2_nchw/weights/conv_25_weight.npy (npy, 24656 bytes, 1 tensors)

array f4 [32, 192, 1, 1]
-0.15342563 0.22182953 -0.099156484 -0.108945504 0.14613576 0.37963316 -0.20720014 0.16761072
-0.04550828 0.18157339 0.11657289 0.34268752 -0.06534747 -0.108540826 -0.04299551 -0.0070580053
-0.15201767 0.14285068 0.121827915 0.19601814 -0.32537282 0.12984286 0.4253124 0.15402606
0.24793193 -0.24804948 -0.038346153 -0.03397449 -0.16559029 -0.36037278 0.04186006 0.23583905
-0.028716957 0.008646075 0.0895479 -0.14620958 -0.058151666 -0.08078869 -0.034022324 -0.18904468
-0.15373033 0.0023578063 -0.12714761 0.23736808 0.045470208 -0.21184248 0.14666514 0.19175042
0.13164894 0.25786346 0.08156286 0.15919738 -0.008467831 -0.014441581 0.3989769 -0.19148383
-0.27887943 0.04589214 -0.41065103 -0.07514998 -0.17155856 0.0431506 0.4382523 0.17104897
0.016926412 -0.09784759 0.12542138 0.12618008 0.21114866 -0.4467037 -0.033111762 -0.069193214
0.009790371 0.062524945 0.04236635 0.18507215 -0.27778274 -0.06253699 -0.13200927 0.18071881
-0.08510535 -0.13526942 -0.044426173 0.2631007 -0.1759234 0.060322072 -0.18994786 0.093255594
0.116028585 0.021198127 -0.015467707 -0.15462695 0.22901712 0.22635385 0.037287194 0.18352586
0.108058736 -0.10439311 0.068855815 0.21439718 -0.22885618 -0.052837826 -0.18585473 0.13469754
-0.123697385 -0.05450782 0.1639403 -0.15976283 -0.05880686 -0.08891125 -0.42374343 -0.1081179
0.1928181 0.050288048 -0.04276201 -0.19041167 0.19544974 0.21233247 -0.24272898 0.1927214
-0.04335412 0.08703393 0.012597019 0.12528318 -0.06298209 -0.08207634 0.045352288 -0.11031494
0.18584621 0.13935082 -0.24297535 0.13163006 -0.0064561623 0.1738447 -0.034888323 -0.23511216
0.18459639 -0.2569878 -0.014715972 -0.024338862 -0.20848645 0.21594815 -0.27670556 -0.108157046
0.39362356 -0.15000284 -0.32311735 0.0107992105 -0.24301544 0.21025027 -0.107646376 -0.06285821
0.093300045 0.15689729 -0.032512724 0.37836677 0.0025612928 -0.02547758 -0.13083053 -0.061472356
0.20718774 0.20788848 0.14321761 0.09121485 -0.15535231 0.09240665 0.03131222 -0.38116965
0.25088817 -0.009264546 0.12037397 0.15303421 0.18129435 0.16814864 0.02708762 0.20000961
0.10941745 -0.014608825 0.029350106 -0.04019019 0.39823523 0.4228595 0.068759225 0.2016719
0.14834777 -0.103589565 0.047019277 0.23438838 -0.12781806 -0.109717436 0.19638191 -0.055462506
0.109574415 0.026360733 0.035360884 -0.10944869 -0.053874895 -0.045141038 0.21675372 -0.00020358746
0.10274425 -0.14409447 -0.009986313 -0.09011136 0.06791703 -0.014949277 0.07711504 -0.12661593
0.15448712 -0.19339164 -0.20726927 0.0035515123 0.2245955 0.34964487 0.22567637 -0.03198051
-0.0077130795 0.019268041 -0.1205601 0.18388931 0.028756695 -0.14258187 -0.1339082 0.037631594
0.16936761 0.18652932 0.028805174 0.076824084 0.033482283 0.017638711 0.07286857 -0.01491339
-0.03492602 0.032447577 -0.083239615 0.07324085 -0.18094492 0.02886143 0.11447092 -0.07370888
0.111506514 0.17538144 -0.010153553 0.020345917 -0.06842221 -0.04396625 -0.2770788 0.14236549
0.17320888 0.18689758 0.044513267 0.07980018 -0.13359159 -0.07175798 -0.17114004 -0.33353156
00000000: 9c1b 1dbe 4827 633e 8e12 cbbd d21e dfbd
00000010: 9da4 153e 475f c23e 462c 54be 25a2 2b3e
00000020: e466 3abd 60ee 393e c4bd ee3d bd74 af3e
00000030: e5d4 85bd a74a debd 0f1c 30bd d746 e7bb
00000040: 85aa 1bbe 7347 123e ea80 f93d fbb8 483e
00000050: 4497 a6be 87f5 043e 8cc2 d93e 02b9 1d3e
00000060: dee1 7d3e af00 7ebe db10 1dbd d628 0bbd
00000070: 8090 29be c882 b8be 7475 2b3d cb7f 713e
00000080: d33f ebbc 44a8 0d3c e464 b73d f7b7 15be
00000090: 7130 6ebd 8a74 a5bd fe5a 0bbd ee94 41be
000000a0: 7c6b 1dbe 6d85 1a3b fc32 02be 9e10 733e
000000b0: f83e 3a3d 3ced 58be 632f 163e 395a 443e
000000c0: fbce 063e ae06 843e 6e0a a73d a304 233e
000000d0: a8bc 0abc 629c 6cbc b346 cc3e 5614 44be
000000e0: 49c9 8ebe 66f9 3b3d da40 d2be 3ce8 99bd
000000f0: 0cad 2fbe afbe 303d 9b62 e03e 7627 2f3e
00000100: 42a9 8a3c 5164 c8bd 766e 003e 5a35 013e
00000110: 5b37 583e 59b6 e4be 33a0 07bd 2cb5 8dbd
00000120: cb67 203c 140d 803d 5688 2d3d 8e83 3d3e
00000130: 8a39 8ebe 6513 80bd 702d 07be 5a0e 393e
00000140: b74b aebd 1184 0abe 38f8 35bd 23b5 863e
00000150: 4425 34be 4714 773d b181 42be cafc be3d
00000160: 65a0 ed3d b2a7 ad3c 446c 7dbc 8756 1ebe
00000170: 7783 6a3e 4ec9 673e 75ba 183d 34ee 3b3e
00000180: e64d dd3d 0ecc d5bd 4704 8d3d ef8a 5b3e
00000190: 4659 6abe 7a6c 58bd b450 3ebe 27ee 093e
000001a0: 0e55 fdbd 9843 5fbd f7df 273e de98 23be
000001b0: 76df 70bd 1a17 b6bd e6f4 d8be eb6c ddbd
000001c0: 1c72 453e d7fa 4d3d 3827 2fbd 47fb 42be
000001d0: fa23 483e af6d 593e f28d 78be c258 453e
000001e0: 1794 31bd d83e b23d ba63 4e3c 3c4a 003e
000001f0: c1fc 80bd a417 a8bd 52c3 393d cdec e1bd
00000200: 784e 3e3e fbb1 0e3e 88ce 78be 08ca 063e
00000210: 378e d3bb 5804 323e 0fe7 0ebd 3ec1 70be
00000220: d606 3d3e e893 83be 431b 71bc 4b62 c7bc
00000230: 797d 55be 8321 5d3e 5aac 8dbe 7181 ddbd
00000240: 0789 c93e 589a 19be a36f a5be 2cef 303c
00000250: 0ad9 78be d94b 573e b475 dcbd cebb 80bd
00000260: 1814 bf3d afa9 203e 102c 05bd 4ab9 c13e
00000270: 5ddb 273b 5cb6 d0bc 70f8 05be 70ca 7bbd
00000280: 0629 543e b8e0 543e a3a7 123e dace ba3d
00000290: ad14 1fbe b33f bd3d 3e41 003d ab28 c3be
000002a0: 6a74 803e 53ca 17bc a186 f63d 00b5 1c3e
000002b0: 3aa5 393e 282f 2c3e dbe6 dd3c 52cf 4c3e
000002c0: 4216 e03d da59 6fbc a26f f03c 789e 24bd
000002d0: 7de5 cb3e 0a81 d83e a3d1 8c3d 1483 4e3e
000002e0: 7ae8 173e c426 d4bd 4997 403d 8203 703e
000002f0: bde2 02be 89b3 e0bd 5718 493e a72c 63bd
00000300: 8d68 e03d 77f2 d73c 93d6 103d a326 e0bd
00000310: ecab 5cbd cfe5 38bd b0f4 5d3e 187a 55b9
00000320: 946b d23d 808d 13be a29d 23bc 4e8c b8bd
00000330: 1518 8b3d d0ed 74bc 7dee 9d3d 9ba7 01be
00000340: df31 1e3e 7508 46be 653e 54be 7dc0 683b
00000350: 5dfc 653e a704 b33e b517 673e fffd 02bd
00000360: 00be fcbb 03d8 9d3c 37e8 f6bd 7b4d 3c3e
00000370: 2993 eb3c fb00 12be 3b1f 09be 9623 1a3d
00000380: b46e 2d3e 8b01 3f3e d4f8 eb3c f255 9d3d
00000390: b824 093d 0f7f 903c 1e3c 953d 4b57 74bc
000003a0: 960e 0fbd c0e7 043d 8879 aabd 4cff 953d
000003b0: a049 39be ce6e ec3c bb6f ea3d aef4 96bd
000003c0: 875d e43d 3197 333e 175b 26bc 7bac a63c
000003d0: f220 8cbd f415 34bd 46dd 8dbe 42c8 113e
000003e0: ab5d 313e 1462 3f3e 8b53 363d 476e a33d
000003f0: 3ccc 08be d9f5 92bd 563f 2fbe a6c4 aabe
