test-data/models/mobilenetv2_nchw/weights/conv_61_bias.npy (npy, 2384 bytes, 1 tensors)

array f4 [576]
0.1601239 -0.03375173 0.07392689 0.05096852 0.029476643 -0.07569178 -0.07662646 -0.0407533
0.14009348 -0.015121682 -0.015759869 0.097932585 0.10180913 0.03700855 0.03503029 -0.04095483
0.09252193 -0.035068326 0.0077897306 -0.14168568 0.12788953 -0.0036193219 0.06432347 -0.02813232
-0.061016936 -0.16588423 0.0036505084 -0.116185375 -0.020204157 -0.037608664 0.06342875 -0.02583449
-0.05890302 0.19018793 0.14742462 -0.0060511865 0.18464361 -0.08471539 0.04745664 0.008227855
0.013186549 -0.09677653 -0.03002084 -0.014381059 0.0038873414 -0.05295612 -0.22193334 -0.012799362
-0.19613251 0.07728337 -0.009968458 0.042692546 -0.1458128 0.06305068 0.04376157 -0.03598525
0.041142978 0.083582535 0.13669884 -0.04425701 0.116063446 -0.11002041 -0.04220124 0.033002846
-0.08061048 -0.010152881 0.013474353 0.16218661 0.02316683 -0.047508687 -0.10218564 0.06603668
0.21209157 0.0836682 -0.010297373 -0.04995473 -0.029841205 -0.08655094 0.10559347 -0.07108107
0.117262475 0.05310471 -0.0005215637 0.0055203307 0.071067 -0.056400217 0.0023762907 -0.06832079
0.063959815 -0.019703731 -0.03028548 -0.10101925 -0.06646139 0.16090557 -0.0076689804 0.06484393
0.06925686 0.13585845 0.006204507 -0.119339176 0.016497718 0.011152846 -0.05947261 -0.1138295
0.09872847 -0.07046697 -0.025986101 -0.058073454 0.08711956 -0.0006069238 0.16011295 -0.012624097
-0.06764534 0.071080424 0.1326639 -0.10774457 -0.046563745 -0.028130192 -0.052224986 0.1509075
-0.006866149 0.21766107 -0.0060971947 0.059136324 0.08782385 0.17857805 0.15289974 0.09527247
0.06884241 -0.038008258 0.11546836 -0.6794773 0.12668122 -0.2661696 -0.08628023 0.003610265
-0.1258627 -0.11768439 -0.07224087 -0.0038472884 0.03415975 -0.07397302 -0.012604599 -0.040947627
0.029368447 -0.008722408 -0.044393726 -0.027833821 -0.05017288 -0.06880911 0.08231182 0.10517969
-0.04558161 0.04428363 -0.13655508 -0.020469861 0.094888955 -0.007889002 -0.03072475 -0.05999327
0.029004805 0.16692585 0.047039196 -0.025792269 -0.017221149 -0.11559358 -0.037812877 -0.061598316
-0.0064040013 -0.016718337 -0.08982679 0.15485603 0.043785457 0.13699247 0.102024205 -0.0064889365
-0.06516588 0.12032493 -0.05816251 0.0407372 0.05935507 0.07526446 0.039100084 0.11670717
-0.043619517 -0.103827044 0.014448045 -0.019494088 0.101006046 0.024455164 -0.00040764528 -0.10016281
-0.04662581 0.049567204 0.08651709 0.06971539 -0.008572885 0.07818976 -0.016236326 -0.05678395
0.10868282 0.04130984 -0.17243083 0.022655744 -0.08625667 -0.024372576 0.025681475 -0.052408244
-0.026041495 0.0051585087 -0.015478983 -0.024806272 -0.072429426 0.055927787 0.030867737 0.0508438
0.035092928 -0.041469503 -0.05696107 -0.024750572 -0.014573532 -0.062959455 0.22231342 0.18887861
0.0037041511 0.094826415 0.08578414 -0.04812267 -0.019094765 -0.026805738 -0.042096857 0.04624369
-0.025631102 0.13605414 -0.065677956 -0.023280941 -0.0064791674 -0.02831125 -0.076618776 0.04373011
0.01303185 0.07458202 0.02603479 -0.1368288 -0.0027082805 0.0077212616 0.005179341 -0.02907759
0.0011881904 -0.0353308 -0.04419348 0.014447128 0.0664732 0.12184934 0.12656288 0.012803427
00000000: 85f7 233e 413f 0abd fb66 973d 5ec4 503d
00000010: 0079 f13c 4b04 9bbd 55ee 9cbd efec 26bd
00000020: aa74 0f3e eec0 77bc d71a 81bc e190 c83d
00000030: 4e81 d03d 4796 173d ec7b 0f3d 40c0 27bd
00000040: 237c bd3d cea3 0fbd ff40 ff3b 0d16 11be
00000050: 79f5 023e 2532 6dbb 06bc 833d c075 e6bc
00000060: e5ec 79bd 8edd 29be 5e3d 6f3b 99f2 edbd
00000070: 3083 a5bc 8b0b 1abd efe6 813d daa2 d3bc
00000080: 4b44 71bd a0c0 423e 7bf6 163e 0849 c6bb
00000090: 3713 3d3e 437f adbd e561 423d 20ce 063c
000000a0: 650c 583c c632 c6bd 44ee f5bc 899e 6bbc
000000b0: c4c2 7e3b 84e8 58bd 7e42 63be 6ab4 51bc
000000c0: f6d6 48be be46 9e3d be52 23bc 61de 2e3d
000000d0: f34f 15be b720 813d 553f 333d 4565 13bd
000000e0: 8a85 283d 522d ab3d c8fa 0b3e d746 35bd
000000f0: acb2 ed3d 6152 e1bd 35db 2cbd fe2d 073d
00000100: 1b17 a5bd 4558 26bc 88c3 5c3c 3f14 263e
00000110: 5dc8 bd3c 7898 42bd b446 d1bd 3d3e 873d
00000120: 882e 593e 3c5a ab3d 50b6 28bc 559d 4cbd
00000130: 8b75 f4bc 9f41 b1bd 6441 d83d f492 91bd
00000140: 4f27 f03d 5384 593d 8cb9 08ba e4e3 b43b
00000150: 938b 913d ea03 67bd 8bbb 1b3b c5eb 8bbd
00000160: 5dfd 823d b869 a1bc 4119 f8bc 2ee3 cebd
00000170: e91c 88bd 6ec4 243e 124c fbbb e5cc 843d
00000180: 8ad6 8d3d 7a1e 0b3e 2d4f cb3b 1968 f4bd
00000190: 3926 873c 6dba 363c 8d99 73bd 711f e9bd
000001a0: 2732 ca3d fd50 90bd cee0 d4bc 6ede 6dbd
000001b0: bd6b b23d f719 1fba a6f4 233e 4dd5 4ebc
000001c0: a489 8abd 9d92 913d 0cd9 073e 2fa9 dcbd
000001d0: a0b9 3ebd 4a71 e6bc dee9 55bd 7f87 1a3e
000001e0: 6ffd e0bb 8be2 5e3e faca c7bb ee38 723d
000001f0: fedc b33d 2add 363e c091 1c3e 361e c33d
00000200: 40fd 8c3d 8cae 1bbd ad7a ec3d 39f2 2dbf
00000210: b9b8 013e 6247 88be b0b3 b0bd 329a 6c3b
00000220: 27e2 00be 8304 f1bd 05f3 93bd ca22 7cbb
00000230: 18eb 0b3d 2b7f 97bd 8583 4ebc b3b8 27bd
00000240: 1996 f03c 6ee8 0ebc 32d6 35bd c103 e4bc
00000250: 1482 4dbd caeb 8cbd 1993 a83d 7368 d73d
00000260: c8b3 3abd c062 353d 18d5 0bbe 69b0 a7bc
00000270: 2455 c23d df40 01bc 79b2 fbbc 81bb 75bd
00000280: 7c9b ed3c 9cee 2a3e 2cac 403d 4f4a d3bc
00000290: 5e13 8dbc 54bc ecbd ade1 1abd 844e 7cbd
000002a0: a8d8 d1bb e5f4 88bc 1cf7 b7bd 9492 1e3e
000002b0: 6158 333d c147 0c3e 11f2 d03d 25a1 d4bb
000002c0: b075 85bd eb6c f63d d03b 6ebd 0ddc 263d
000002d0: 4d1e 733d 4124 9a3d 6927 203d 2b04 ef3d
000002e0: 61aa 32bd 46a3 d4bd 7eb7 6c3c 11b2 9fbc
000002f0: 42dc ce3d 3256 c83c 39b9 d5b9 2922 cdbd
00000300: b5fa 3ebd fb06 4b3d df2f b13d f1c6 8e3d
00000310: 4975 0cbc f421 a03d 0b02 85bc 4a96 68bd
00000320: 1995 de3d 8234 293d b591 30be 8a98 b93c
00000330: 56a7 b0bd ffa8 c7bc f561 d23c 07aa 56bd
00000340: f954 d5bc b508 a93b 8f9b 7dbc 8636 cbbc
00000350: e155 94bd 8914 653d 56de fc3c 9741 503d
00000360: 9abd 0f3d eddb 29bd 0350 69bd b6c1 cabc
00000370: d3c5 6ebc e3f0 80bd 21a6 633e 6569 413e
00000380: 58c1 723b 5a34 c23d 98af af3d 471c 45bd
00000390: a06c 9cbc b597 dbbc c16d 2cbd 066a 3d3d
000003a0: 51f8 d1bc c751 0b3e 2a82 86bd acb7 bebc
000003b0: 324f d4bb ffec e7bc 4eea 9cbd 581e 333d
000003c0: 8a83 553c 75be 983d e946 d53c d91c 0cbe
000003d0: 687d 31bb a302 fd3b 76b7 a93b 2034 eebc
000003e0: 0ebd 9b3a 07b7 10bd 3904 35bd a6b3 6c3c
000003f0: 1a23 883d 268c f93d b399 013e 77c5 513c
