test-data/models/mobilenetv2_nchw/weights/conv_46_bias.npy (npy, 1616 bytes, 1 tensors)

array f4 [384]
0.24054998 0.016042467 -0.023844004 0.17218873 -0.0036231633 0.22153346 -0.3298458 -0.12532993
0.045139465 -0.13590346 0.31504712 -0.13768807 -0.14756383 -0.045616437 0.089001514 -0.029390406
-0.031543255 0.24797368 0.10613565 -0.12918393 -0.22522736 -0.12549022 -0.09098802 -0.031990476
0.30959418 0.05004711 0.1788361 0.19662103 0.29549628 0.23142102 -0.23342237 0.27901882
0.10888672 0.062506646 -0.0019767769 -0.030967314 -0.16383463 0.20713873 -0.06506646 -0.108997524
-0.252695 0.1984742 0.01904097 0.2822396 -0.0054514073 0.102549285 0.13898973 -0.008885603
-0.04855706 0.25578797 -0.028851595 0.043317743 0.2548769 -0.14405337 -0.494592 -0.22437957
-0.043053895 -0.03022451 -0.18546194 0.059454333 -0.09912605 -0.043728724 0.31145018 -0.05273751
0.20258123 -0.075049125 0.20781031 0.08800676 0.04409247 -0.21695231 -0.19231842 -0.117800936
-0.021217482 0.38754278 0.0056945086 -0.161703 -0.04054244 -0.059551 -0.028140888 -0.09533462
-0.87157106 0.24790882 -0.007989792 -0.021895263 -0.07838048 0.09788182 0.20991206 -0.23833148
0.075887926 0.4809462 -0.01262955 0.5973709 -0.027177973 -0.043704733 -0.0023379624 -0.024061827
0.20131311 -0.44166005 -0.074774615 -0.07402074 0.182993 0.10978759 -0.029855872 0.19553296
-0.27412033 0.12682435 0.23087868 -0.11136083 0.18879832 -0.07971504 -0.21503471 0.18375663
-0.04786662 -0.033227414 0.6322215 0.22303855 -0.16791661 -0.2790439 -0.038168844 0.029595334
0.26883873 -0.14295118 -0.12670654 0.18328112 0.007928401 0.33742088 -0.09752917 0.1572874
-0.11676435 -0.0055750525 0.16459692 -0.0943231 -0.01400014 0.19977102 -0.019123115 0.20683739
0.1923638 0.21851367 -0.09006743 0.24385732 0.18520205 0.18989679 -0.1168275 0.24601239
-0.021481214 0.153974 0.26048425 -0.051368807 0.14412168 -0.018427411 0.2503428 -0.12598033
-0.017451799 0.27342188 0.10730785 0.30201116 0.16378513 0.5634588 -0.051940173 0.12740299
0.07553164 0.20298925 -0.17476854 0.10345377 -0.014136704 -0.031623304 0.25687742 -0.0036762767
-0.15693694 -0.0326224 0.23386993 0.24160627 0.33850944 0.17949608 0.17631297 -0.14537588
0.24601749 -0.10339648 -0.1529389 -0.044743538 0.07374507 0.29056287 -0.05217185 0.19255745
0.11326603 0.3661372 0.3327855 -0.28250757 -0.030734861 -0.07922439 -0.038599316 0.28806666
0.065955885 -0.092681795 0.25597742 -0.037429523 -0.009750761 0.012272187 -0.054185055 -0.19480269
-0.015761044 0.012138326 0.27797002 -0.018053934 0.2944613 0.045733515 0.002555333 -0.07624689
0.14685863 -0.1605877 -0.021306973 -0.11704969 0.22010045 -0.18673554 -0.2974429 0.19837362
0.050346047 0.21007349 -1.8096387 -0.09650123 0.021779269 0.2972049 -0.014705874 -0.13409804
0.3455014 0.2513954 -0.09674221 0.21267053 0.25032312 -0.08904345 -0.09096043 -0.37597907
0.20760424 -0.00048851036 0.37046552 -0.3401929 -6.731972e-05 -0.18722653 -0.090396516 0.2717003
0.2442921 -0.02610432 0.24873045 -0.4425155 0.022753362 -0.038635686 0.00429905 -0.12272123
-0.1998062 0.0058958717 0.29452333 -0.13038872 0.20600817 0.113083765 -0.46302274 -0.09199172
00000000: bc52 763e 7e6b 833c 8054 c3bc 3e52 303e
00000010: 9872 6dbb abd9 623e 8ce1 a8be 7d56 00be
00000020: 29e4 383d 472a 0bbe db4d a13e 1afe 0cbe
00000030: f91a 17be 4dd8 3abd 6d46 b63d 26c4 f0bc
00000040: 8033 01bd d0ec 7d3e a65d d93d cb48 04be
00000050: 00a2 66be 8280 00be ed57 babd 7208 03bd
00000060: 2183 9e3e 33fe 4c3d d020 373e 0657 493e
00000070: 4a4b 973e a2f9 6c3e 4606 6fbe 8edb 8e3e
00000080: 0000 df3d 7c03 803d d08c 01bb 2aaf fdbc
00000090: 44c4 27be 2d1c 543e 9041 85bd 183a dfbd
000000a0: 3d61 81be d23c 4b3e cffb 9b3c b581 903e
000000b0: b8a1 b2bb 5c05 d23d 5353 0e3e ec94 11bc
000000c0: c5e3 46bd a4f6 823e 2e5a ecbc f26d 313d
000000d0: 3a7f 823e ba82 13be 2a3b fdbe c2c3 65be
000000e0: 4859 30bd 6499 f7bc bce9 3dbe 6386 733d
000000f0: 9902 cbbd e41c 33bd 6676 9f3e 4a03 58bd
00000100: 7471 4f3e 5bb3 99bd 3acc 543e e33c b43d
00000110: 4e9a 343d bf28 5ebe 1fef 44be 9e41 f1bd
00000120: 49d0 adbc 026c c63e 0099 ba3b 7995 25be
00000130: d40f 26bd c0eb 73bd b887 e6bc cc3e c3bd
00000140: 481f 5fbf cfdb 7d3e 9ee7 02bc b25d b3bc
00000150: f285 a0bd 4376 c83d 30f3 563e 2b0d 74be
00000160: 216b 9b3d 953e f63e 2cec 4ebc 4ded 183f
00000170: 57a4 debc bc03 33bd 8038 19bb 4f1d c5bc
00000180: 0625 4e3e 4421 e2be 6f23 99bd 3098 97bd
00000190: 8462 3b3e 51d8 e03d 4d94 f4bc cb39 483e
000001a0: 8059 8cbe 3ede 013e 766b 6c3e 2611 e4bd
000001b0: 5954 413e a441 a3bd 0f32 5cbe b32a 3c3e
000001c0: ca0f 44bd 7819 08bd 45d9 213f 3864 643e
000001d0: 55f2 2bbe d8de 8ebe ef56 1cbd ea71 f23c
000001e0: 3ba5 893e cb61 12be 5cbf 01be 0cae 3b3e
000001f0: 20e6 013c 6ec2 ac3e 60bd c7bd f30f 213e
00000200: 2622 efbd eeae b6bb 188c 283e 782c c1bd
00000210: d860 65bc c690 4c3e 14a8 9cbc 2ecd 533e
00000220: 04fb 443e 0cc2 5f3e 4675 b8bd bcb5 793e
00000230: 9ba5 3d3e 4e74 423e 4243 efbd acea 7b3e
00000240: 5ff9 afbc 5cab 1d3e 315e 853e 1968 52bd
00000250: a294 133e 15f5 96bc ee2c 803e fd00 01be
00000260: 13f7 8ebc f4fd 8b3e 38c4 db3d 35a1 9a3e
00000270: 4ab7 273e d63e 103f 38bf 54bd ee75 023e
00000280: 55b0 9a3d 6adc 4f3e 86f6 32be 92df d33d
00000290: a29d 67bc 7087 01bd 7085 833e b0ed 70bb
000002a0: 14b4 20be 119f 05bd 997b 6f3e a267 773e
000002b0: 1c51 ad3e d2cd 373e 638b 343e 6add 14be
000002c0: 02ec 7b3e 89c1 d3bd 049c 1cbe 0045 37bd
000002d0: a807 973d a8c4 943e 26b2 55bd c82d 453e
000002e0: 05f8 e73d 5676 bb3e dc62 aa3e d5a4 90be
000002f0: adc7 fbbc 6640 a2bd 511a 1ebd 797d 933e
00000300: e113 873d f4cf bdbd 790f 833e b34f 19bd
00000310: a8c1 1fbc 4811 493c 26f1 5dbd 5b7a 47be
00000320: 4e1d 81bc d4df 463c 1652 8e3e d8e5 93bc
00000330: a2c3 963e 1153 3b3d 6077 273b 5427 9cbd
00000340: 1c62 163e 1a71 24be f68b aebc bfb7 efbd
00000350: 0362 613e 9a37 3fbe 704a 98be 7422 4b3e
00000360: a837 4e3d 811d 573e 3ea2 e7bf 70a2 c5bd
00000370: 706a b23c 3e2b 983e e8f0 70bc ff50 09be
00000380: 8fe5 b03e e6b6 803e c820 c6bd 4ec6 593e
00000390: 5a2a 803e 6a5c b6bd 7649 babd 5480 c0be
000003a0: 3596 543e 600f 00ba a8ad bd3e c42d aebe
000003b0: 002e 8db8 50b8 3fbe cf21 b9bd 4d1c 8b3e
000003c0: b527 7a3e bad8 d5bc 32b3 7e3e 6491 e2be
000003d0: 4265 ba3c 7440 1ebd 0cdf 8c3b 4555 fbbd
000003e0: ff99 4cbe 2832 c13b c3cb 963e 9f84 05be
000003f0: cef3 523e 7698 e73d 5111 edbe 2866 bcbd
