test-data/models/mobilenetv2_nchw/weights/conv_63_bias.npy (npy, 2384 bytes, 1 tensors)

array f4 [576]
00000000: e248 d03e f22b aabe 7e3b a2bd 2402 803e
00000010: ee9c 88be 56d7 d2bd d36d 543e de63 af3b
00000020: 6d52 00be e3e6 05be 25b7 adbd 25dc 31be
00000030: 4df6 0abf 847f b2be 0e6a 653e fc03 4abd
00000040: 6264 b33c 76b0 993e 3eec 6d3d 9b16 ce3d
00000050: df67 c93e 6bca e8be 2d0e 28be 8189 213e
00000060: dc4d 49be ed40 88be 5a7d 6a3e 1e34 34be
00000070: fe76 763e 74c2 4ebe 10db 3ebe 94dc 823e
00000080: e427 23be 65dc 443f a07a 653e de99 3dbe
00000090: f0ab a4bd 84cf 08be 1da4 883d c040 1c3e
000000a0: 1eb5 40be 822c 2fbd d3fb 8fbd 8ad2 e0bd
000000b0: ab7b 713e 34ee 02bd b5d0 10be 2cf4 c9be
000000c0: 485a 0bbf 368b 81be 24e5 79be c089 463d
000000d0: f42f c0bc 4822 943e 9293 863e ded1 54be
000000e0: b419 80bd 9b87 913e 8b6d 293d a73c f7bd
000000f0: 0eec 17bd fc69 e7bc 335e 80be 0ac7 0ebe
00000100: f269 cfbd 5a49 26be f6f4 94be c63d 493e
00000110: c4da a8be 4075 e0bd f45d ea3b 7ac4 7b3e
00000120: e3b9 873e 1f06 1e3e 50ac c53e aabc 043e
00000130: f3c1 91bc 76a7 4ebe 80a0 94bc fee5 003e
00000140: c8df e13d 2e6e ebbd be9c 713e 01a4 6c3e
00000150: f667 b73e 1a45 8dbe 5c22 0bbe a16e bfbd
00000160: 74f9 8f3e 4f63 8abc 627e cebb 3022 febb
00000170: b240 483e d27d f3bd c2cb 23be fd7f 27bd
00000180: e393 823e 06e0 543c 335b f4bb d0c1 73be
00000190: ab17 793e f00e 763e cb22 cfbd 700d c5bc
000001a0: 46fc 853c edf8 15be c428 90bd 8eee 9ebd
000001b0: 0669 26bd 9284 743e ef6b 083f 7e49 d2be
000001c0: 7091 763e 6a03 25be 1a8b 6bbd 4695 13bd
000001d0: 68e1 2abe 21d0 4cbc 0008 90b7 7eed e23e
000001e0: 65c7 bdbd 5588 543f f6a0 c33d beb4 2dbc
000001f0: 7ab2 0dbe 1a7b da3e 4523 403e a8e8 b0bd
00000200: 6ade f63d 1a80 94be 2e27 5d3e 755f 56be
00000210: 50d1 cc3e 7c8a 88bd 2a53 18bd c7af 6a3e
00000220: a41b b8bd c867 dcbd 3781 86be 33f2 afbd
00000230: c9f7 8e3e 4c8d 4e3e fac3 8c3c 227a b6be
00000240: da42 8e3e 2efd 33be a76a 98bd 30f7 ebbe
00000250: 8090 cfbc deca b2bd a6d2 a33e b910 13bf
00000260: fad5 1fbe 1ce2 7e3e 981a 69bb 6e09 c7be
00000270: 7529 a33c 22ac 92be beb0 02be 3652 49be
00000280: 663d d13c 11dd f63e 1f0e 863e be65 dabb
00000290: 221f b2be a88b 24bc c653 53be 28f0 853d
000002a0: d060 fcbd 729f 2c3e 069f 2dbd 043a 483e
000002b0: 6cc1 9b3e b889 573d 8fd5 b03e 969d 5a3e
000002c0: a799 b9bc 53c5 27be 3319 713e d558 71bd
000002d0: d141 44bc 9303 a23e c7bc 6e3e 7096 14bf
000002e0: ee4c 9e3e 9890 2d3c 2d63 6a3e 4dd8 71be
000002f0: 8b40 b03e 9d94 87be abcc a9be 8a5b b4be
00000300: 5ca4 39be f816 9dbc e9ca b2bc 407d 943a
00000310: c8ef cdbd c0d9 dd3e 40a6 b83d 525a 5f3e
00000320: 2892 81bd e11b 69bd f8c6 0dbe 69f0 603e
00000330: b7a1 5d3e e2ae 2bbd 787e 84be 971d f9bd
00000340: dc8f 91be cad6 093e 6060 91bd 08cc e03b
00000350: caf7 9b3e d85c 783e b831 4e3e 6c91 32bd
00000360: da21 8f3e 96d6 25bd bca2 4a3e bcbf 89be
00000370: 6a5f a7bd c409 4d3e ee82 e13e 381c 283f
00000380: ef19 703e 8265 49bd e9c2 08bd f302 ef3d
00000390: 822e 2dbe de49 12be 5e5c c4bd 7299 c7bd
000003a0: 0924 36bc fbb6 0a3d 96f5 9f3e e031 26bc
000003b0: dae1 5d3e 7283 88be 7554 17be 7e09 b83c
000003c0: 900f 35bb 8c1d 8d3e b80a 9f3e 1c81 b4bd
000003d0: f9f0 56bd 5c52 26bd be8f 833e f765 02be
000003e0: ba40 54bd e0e4 e8bd 1161 0cbe c219 7f3e
000003f0: e05d c8be 063a c93e 3ecb da3d 3ba7 823e
0.40680605 -0.33236653 -0.079215035 0.25001633 -0.26682228 -0.10294978 0.2074502 0.0053524813
-0.12531443 -0.13076358 -0.08482198 -0.17369135 -0.54282075 -0.34862912 0.22403738 -0.049320206
0.021898452 0.30017442 0.058086626 0.100629054 0.3933706 -0.45466933 -0.16411658 0.1577511
-0.19658607 -0.26612034 0.2289938 -0.17598006 0.2406883 -0.20191365 -0.18638253 0.25558913
-0.15933186 0.76898795 0.22410059 -0.18515727 -0.08040607 -0.13360411 0.06671927 0.15259075
-0.1881909 -0.042767055 -0.070304535 -0.10977657 0.23582332 -0.03196545 -0.14142115 -0.394441
-0.54434633 -0.25301522 -0.24403816 0.048471212 -0.023460366 0.28932405 0.26284462 -0.20783183
-0.062549025 0.2842377 0.041364234 -0.120721154 -0.037090354 -0.02824878 -0.25071868 -0.13943115
-0.10127629 -0.16238919 -0.2909314 0.19652471 -0.32979405 -0.10959864 0.0071523134 0.24586669
0.26509008 0.15432023 0.38608027 0.12962595 -0.017792678 -0.20181069 -0.018142939 0.12587735
0.11029011 -0.114956245 0.23594949 0.23109438 0.35821503 -0.27591783 -0.13587326 -0.09347273
0.28120005 -0.016893057 -0.006301687 -0.0077555403 0.1955593 -0.11889233 -0.15995696 -0.040893544
0.25503454 0.0129928645 -0.007457161 -0.23804402 0.24325435 0.24029136 -0.10114058 -0.024054259
0.016355645 -0.14645739 -0.070390254 -0.077603444 -0.040627502 0.23878697 0.53289694 -0.41071695
0.24078918 -0.16114584 -0.057505704 -0.03603103 -0.16687548 -0.012500794 -1.7169863e-05 0.44321817
-0.09266547 0.83020526 0.09552185 -0.010602174 -0.13837615 0.42672044 0.18763454 -0.08638126
0.12054141 -0.29003984 0.21596977 -0.20934851 0.40003443 -0.06667039 -0.037188686 0.22918616
-0.08989647 -0.10761982 -0.26270458 -0.08591118 0.2792342 0.20171088 0.017183293 -0.35640055
0.2778538 -0.17577049 -0.07442217 -0.46087027 -0.025337458 -0.087301 0.3199665 -0.5744739
-0.1560897 0.24890941 -0.003556883 -0.38874382 0.01991723 -0.28646952 -0.12762734 -0.19660267
0.025541972 0.48215535 0.2618265 -0.0066649606 -0.34789377 -0.010043062 -0.20637426 0.06539947
-0.12323153 0.16857699 -0.042387985 0.19553381 0.30421007 0.052621573 0.34537932 0.21349177
-0.022656275 -0.16383867 0.23544769 -0.058922607 -0.0119785825 0.31643352 0.233142 -0.5804205
0.30918068 0.010593556 0.22889395 -0.23617668 0.34424242 -0.2648057 -0.33163962 -0.3522609
-0.18129104 -0.019175991 -0.02182527 0.0011328831 -0.100555 0.43330193 0.09016085 0.21811798
-0.06326705 -0.056911353 -0.13845432 0.21966709 0.2164372 -0.041914828 -0.25877738 -0.12163847
-0.28430068 0.13460842 -0.0709846 0.00686026 0.30462486 0.24254167 0.20136154 -0.043595716
0.27955514 -0.04048785 0.1978864 -0.26904094 -0.08172496 0.20023257 0.44045204 0.6566806
0.23447393 -0.04916907 -0.033389006 0.116704844 -0.16912273 -0.1428599 -0.0958793 -0.09746064
-0.01111699 0.03386591 0.31242055 -0.010143727 0.21668187 -0.26662785 -0.14778312 0.022465464
-0.0027627684 0.27561605 0.31062865 -0.08813688 -0.052475903 -0.040605888 0.25695604 -0.12734209
-0.05181954 -0.113717794 -0.13708903 0.2491217 -0.3913412 0.3930208 0.106832966 0.25518212
