test-data/models/mobilenetv2_nchw/weights/conv_35_weight.npy (npy, 6992 bytes, 1 tensors)

array f4 [192, 1, 3, 3]
0.09103554 0.15903248 0.14068417 0.17548096 0.37683362 0.32360315 0.14312816 0.26378438
0.24269211 -0.13873678 -0.2468229 -0.19684288 -0.24527858 -0.4610012 -0.36908987 -0.1818098
-0.3769097 -0.28353015 -0.2240094 -0.3880435 -0.24828543 -0.5381652 -1.0445325 -0.49155247
-0.34988046 -0.6723571 -0.22782643 0.1668518 0.315021 0.23673062 0.36128452 0.67020166
0.48999813 0.2666518 0.4943573 0.34892714 -0.06253247 -0.15831043 -0.13621937 -0.17282745
-0.5454831 -0.4589956 -0.14652841 -0.47369522 -0.42856884 -0.18582597 -0.40401405 -0.18079206
-0.34472194 -0.83003694 -0.51435745 -0.24525204 -0.57848823 -0.4002568 -0.14428048 -0.35167596
-0.29396194 -0.32236004 -0.7663792 -0.6336686 -0.31265986 -0.6330041 -0.48627415 -0.16312079
-0.36124897 -0.2797067 -0.35252017 -0.6377091 -0.54808044 -0.24594435 -0.4739611 -0.3424895
-0.1682415 -0.24333473 -0.19788441 -0.22529645 -0.3938441 -0.29607582 -0.15928306 -0.2597957
-0.19749193 -0.14811271 -0.30869743 -0.20172155 -0.2948226 -0.7538926 -0.5356326 -0.23178872
-0.52640015 -0.30422506 -0.18272772 -0.40483138 -0.20721492 -0.3990515 -0.67199844 -0.32616508
-0.19882523 -0.37680432 -0.1520216 -0.10005676 -0.26885155 -0.2522902 -0.26888868 -0.54965585
-0.4537965 -0.23390017 -0.46571338 -0.32908386 -0.10621291 -0.22665675 -0.141543 -0.23668694
-0.5688063 -0.38442305 -0.18516527 -0.42050666 -0.29974726 -0.011420379 -0.28607205 -0.2510398
-0.32131448 -0.8145876 -0.69299585 -0.26850447 -0.60368717 -0.41217366 -0.11425016 -0.15135807
-0.16472836 -0.47099227 -0.76925987 -0.3973436 -0.538165 -0.74080294 -0.3723753 0.09955377
0.22008577 0.19361039 0.23416215 0.6185771 0.5044303 0.22257222 0.5507945 0.45509323
-0.14247614 -0.18739343 -0.18440184 -0.43266237 -0.70624334 -0.5003942 -0.35723528 -0.47786278
-0.30397794 0.105847746 0.2593337 0.26225114 0.26574776 0.8343962 0.70575607 0.21115533
0.66463566 0.542347 0.013393569 -0.51844585 -0.69019526 -0.6184377 -1.108303 -0.71546346
-0.7852485 -0.8058616 -0.18858282 0.07964731 0.1907605 0.15672463 0.16070749 0.4268148
0.33951464 0.12265465 0.31116796 0.247131 0.11068123 0.2516603 0.2170826 0.2695924
0.735123 0.5764769 0.22482455 0.6043032 0.48340625 -0.11970033 -0.24589048 -0.21999013
-0.25498632 -0.44384137 -0.39681837 -0.21282542 -0.38924727 -0.3419999 0.030132715 -0.34518406
-1.1621435 0.40804243 -0.45702168 -2.2201831 0.36443076 0.46356657 -0.72330546 0.064576805
0.3727307 0.34387872 0.29732662 0.73121405 0.54689395 0.29255825 0.5377186 0.32204512
-0.53187823 -0.4061165 -0.05825276 -0.4471598 -0.5333943 -0.46240035 -0.11152931 -0.5260744
-0.5143605 -0.45105422 -0.5161891 0.8821978 -0.7999181 -1.0454668 1.5426605 -0.5861099
-0.85250723 0.9215355 -0.22258875 -0.29934064 -0.024379278 -0.363626 -0.6627386 -0.33263826
-0.13671312 -0.3677328 -0.32014808 -0.106584676 -0.23150885 -0.18241662 -0.21021666 -0.44916648
-0.3851206 -0.17261139 -0.3680244 -0.3045858 -0.10047306 -0.25532004 -0.18211834 -0.27772018
00000000: d770 ba3d 69d9 223e 830f 103e 48b1 333e
00000010: 56f0 c03e 50af a53e 3090 123e bf0e 873e
00000020: 4884 783e 0411 0ebe 24bf 7cbe 2e91 49be
00000030: 4f2a 7bbe 5908 ecbe 59f9 bcbe 592c 3abe
00000040: 4ffa c0be dd2a 91be b862 65be a3ad c6be
00000050: 893e 7ebe 32c5 09bf 3eb3 85bf c4ac fbbe
00000060: 8823 b3be 981f 2cbf 554b 69be 33db 2a3e
00000070: 6f4a a13e 8369 723e 49fa b83e 5692 2b3f
00000080: 09e1 fa3e 9686 883e 661c fd3e 94a6 b23e
00000090: 0611 80bd 211c 22be 177d 0bbe aef9 30be
000000a0: c8a4 0bbf 7901 ebbe 8b0b 16be 2e88 f2be
000000b0: 606d dbbe 2a49 3ebe eeda cebe 8e21 39be
000000c0: 657f b0be 4d7d 54bf eeac 03bf 5a23 7bbe
000000d0: ce17 14bf 76ee ccbe 43be 13be df0e b4be
000000e0: 2e82 96be 600c a5be 6d31 44bf 1b38 22bf
000000f0: f414 a0be 8f0c 22bf edf8 f8be 2309 27be
00000100: a0f5 b8be b735 8fbe 867d b4be e740 23bf
00000110: 004f 0cbf d6d8 7bbe 08ab f2be c95a afbe
00000120: 8047 2cbe bd2c 79be 36a2 4abe 1db4 66be
00000130: efa5 c9be 4097 97be 191b 23be f103 85be
00000140: 533b 4abe dcaa 17be 970d 9ebe 1890 4ebe
00000150: fdf2 96be 1bff 40bf 381f 09bf 065a 6dbe
00000160: 29c2 06bf 63c3 9bbe fa1c 3bbe 0f46 cfbe
00000170: 2630 54be 7a50 ccbe 1708 2cbf 1cff a6be
00000180: d798 4bbe 7fec c0be 8dab 1bbe 8fea ccbd
00000190: e9a6 89be 2e2c 81be c7ab 89be 3fb6 0cbf
000001a0: 0458 e8be 8783 6fbe fc71 eebe ae7d a8be
000001b0: 2786 d9bd b518 68be a6f0 10be 105e 72be
000001c0: 4a9d 11bf 19d3 c4be f79b 3dbe a64c d7be
000001d0: 7978 99be 8b1c 3bbc 0978 92be 4a88 80be
000001e0: 5583 a4be d088 50bf 2d68 31bf 6b79 89be
000001f0: 3e8b 1abf 6d08 d3be fdfb e9bd 9cfd 1abe
00000200: 8dae 28be e625 f1be 37ee 44bf 9f70 cbbe
00000210: 2ec5 09bf 43a5 3dbf faa7 bebe d9e2 cb3d
00000220: 2a5e 613e cd41 463e 34c8 6f3e 125b 1e3f
00000230: 5822 013f f9e9 633e de00 0d3f fb01 e93e
00000240: 44e5 11be 10e4 3fbe d6d3 3cbe ec85 ddbe
00000250: 5dcc 34bf d619 00bf 8be7 b6be 6eaa f4be
00000260: ffa2 9bbe b4c6 d83d 63c7 843e c845 863e
00000270: 1710 883e fd9a 553f 6eac 343f 1a39 583e
00000280: 9025 2a3f 41d7 0a3f b370 5b3c deb8 04bf
00000290: a3b0 30bf ef51 1ebf dfdc 8dbf 9d28 37bf
000002a0: 0c06 49bf f24c 4ebf db1b 41be 211e a33d
000002b0: b856 433e 6c7c 203e 8190 243e 7887 da3e
000002c0: ddd4 ad3e 5c32 fb3d 6851 9f3e e90f 7d3e
000002d0: d7ac e23d 9ed9 803e e74a 5e3e 0408 8a3e
000002e0: 0531 3c3f fd93 133f 6838 663e 9db3 1a3f
000002f0: 0681 f73e 7225 f5bd b7ca 7bbe 1845 61be
00000300: 918d 82be 2d3f e3be c72b cbbe e8ee 59be
00000310: 6b4b c7be 9c1a afbe e2d8 f63c f7bb b0be
00000320: 1ec1 94bf f0ea d03e bffe e9be 7b17 0ec0
00000330: ab96 ba3e 9958 ed3e 8c2a 39bf d840 843d
00000340: 8fd6 be3e df10 b03e 323b 983e d830 3b3f
00000350: 3e01 0c3f 32ca 953e eda7 093f 19e3 a43e
00000360: 2c29 08bf 80ee cfbe 729a 6ebd 21f2 e4be
00000370: 878c 08bf bdbf ecbe 7b69 e4bd d0ac 06bf
00000380: 21ad 03bf 94f0 e6be f824 04bf b7d7 613f
00000390: 6fc7 4cbf dbd1 85bf e675 c53f 4c0b 16bf
000003a0: ea3d 5abf c0e9 6b3f 4eee 63be 2d43 99be
000003b0: 0db7 c7bc 302d babe 3da9 29bf 904f aabe
000003c0: 86fe 0bbe 7947 bcbe 73ea a3be 1149 dabd
000003d0: a810 6dbe 6ccb 3abe 0943 57be 26f9 e5be
000003e0: 872e c5be 0ac1 30be b26d bcbe acf2 9bbe
000003f0: d2c4 cdbd 4fb9 82be 3b7d 3abe 5731 8ebe
