test-data/models/squeezenet1.1_nchw/weights/squeezenet0_conv11_bias.npy (npy, 592 bytes, 1 tensors)

array f4 [128]
0.01972678 -0.011740029 -0.038625617 0.00805372 -0.0018790324 0.029698843 -0.023784062 -0.017402563
0.029341018 -0.030095836 -0.0015932888 0.050238695 -0.06132077 0.045397732 0.06170437 -0.03448111
0.02843949 0.01744569 0.015399567 0.02959549 0.0026295837 -0.013340968 0.032164164 0.0062392578
0.01373647 0.048473015 0.054617684 -0.047959268 -0.009066699 0.001178287 0.03884397 0.032086454
0.016514387 -0.010552605 0.018343031 -0.021317337 0.013385814 -0.018174116 -0.0124101415 -7.418485e-06
0.010940326 -0.01013975 -0.012730216 0.00017755116 -0.019087845 -0.062074035 0.026377529 0.0049497476
-0.040317934 0.010668763 0.016984997 0.012591443 -0.036518347 5.9369486e-05 -0.009789068 -0.0090887435
-0.05254689 0.027721385 -0.010248662 -0.0037300196 0.022113822 0.029181615 -0.008855057 0.020443605
0.03600823 -0.0066998256 -0.0009893536 0.058255382 0.039219968 0.034973267 -0.04831805 0.034662865
-0.007995903 0.008233053 -0.037275184 -0.006069335 0.054839738 -0.03278212 0.025986442 0.017734712
0.080181114 0.028823294 0.049626738 0.022596851 0.036896784 -0.0010066086 0.02948724 0.030942999
0.0207747 -0.01724119 0.014440308 -0.06739622 0.012233713 0.014328738 0.009312468 0.01306016
-0.02294038 0.11595113 0.014735454 -0.009193412 0.11575715 0.017835485 0.113210216 0.012218785
-0.013250358 0.062319532 0.022879578 0.036813863 0.015746213 0.02325944 0.034918632 -0.012916418
-0.002937969 0.029812697 0.07621388 -0.04317679 -0.02608099 0.043947134 -0.006031721 0.058384582
0.003747598 -0.013136652 -0.04406227 0.048516974 -0.008511728 -0.060252294 -0.024742045 0.047813527
00000000: 0e9a a13c 4059 40bc e535 1ebd c0f3 033c
00000010: dd49 f6ba fd4a f33c cbd6 c2bc d28f 8ebc
00000020: 935c f03c 8b8b f6bc e7d5 d0ba 17c7 4d3d
00000030: 7d2b 7bbd f9f2 393d b9bd 7c3d 103c 0dbd
00000040: eff9 e83c 44ea 8e3c 774e 7c3c 3e72 f23c
00000050: 1855 2c3b 1394 5abc 92be 033d b072 cc3b
00000060: ee0e 613c a48b 463d cbb6 5f3d f070 44bd
00000070: 7e8c 14bc c070 9a3a db1a 1f3d 166d 033d
00000080: 2e49 873c d5e4 2cbc 2044 963c b2a1 aebc
00000090: 2c50 5b3c e2e1 94bc e853 4bbc 4dec f8b6
000000a0: 0e3f 333c 3221 26bc 6592 50bc 072d 3a39
000000b0: 1d5e 9cbc 5841 7ebd b015 d83c 7e31 a23b
000000c0: 6b24 25bd 09cc 2e3c 1f24 8b3c 574c 4e3c
000000d0: 4394 15bd 8003 7938 5462 20bc f4e8 14bc
000000e0: 683b 57bd f517 e33c 01ea 27bc 5873 74bb
000000f0: 0c28 b53c 480e ef3c cd14 11bc 5979 a73c
00000100: 5e7d 133d 368a dbbb 33ad 81ba 329d 6e3d
00000110: 1ea5 203d 2140 0f3d 26e9 45bd a6fa 0d3d
00000120: 3f01 03bc ede3 063c ddad 18bd 46e1 c6bb
00000130: a29f 603d 8b46 06bd 85e1 d43c 6348 913c
00000140: ff35 a43d d41e ec3c 6845 4b3d 081d b93c
00000150: 1521 173d 2ef0 83ba 398f f13c 2c7c fd3c
00000160: b42f aa3c 653d 8dbc 0b97 6c3c 0807 8abd
00000170: e96f 483c 15c3 6a3c 5293 183c 48fa 553c
00000180: 77ed bbbc c977 ed3d f96c 713c f79f 16bc
00000190: 1612 ed3d b91b 923c c2da e73d 4c31 483c
000001a0: 0818 59bc c442 7f3d f46d bb3c 22ca 163d
000001b0: 34fe 803c 958a be3c d706 0f3d 629f 53bc
000001c0: f18a 40bb c239 f43c 0616 9c3d 25da 30bd
000001d0: cda7 d5bc e901 343d bea5 c5bb ac24 6f3d
000001e0: 439a 753b 1d3b 57bc a47a 34bd bcb9 463d
000001f0: c674 0bbc 1ccb 76bd d4af cabc 1ed8 433d
