test-data/models/squeezenet1.1_nchw/weights/squeezenet0_conv9_weight.npy (npy, 147536 bytes, 1 tensors)

array f4 [128, 32, 3, 3]
00000000: 6cfd 103d 4ff5 e2bc 549e b4bd 38bd 6d3d
00000010: 99f3 d33d 4674 d8bc c11b e2bc c329 8d3d
00000020: c5db 703c b6ea 2d3c 72b8 b43c 30a4 1cbd
00000030: 3ae1 7d3c c067 673d 508e 12bd 94a6 193d
00000040: ff25 033d 9292 7fbc d33c 21bc eed2 26bd
00000050: c5fb bebb 17c7 dcbc bddc 1cbd 2537 163c
00000060: 5d25 89bd bbec e5bd 04f0 73bd 55eb 9a3d
00000070: 6485 7fbc 9e38 90bd 486b 05bc afc4 da3d
00000080: fb62 64bc cae7 a0bd abe1 24bd e258 acbb
00000090: 50fc 0dbc 45f2 87bd 9435 b63c 9146 713d
000000a0: da38 ca3c 9e91 febc b1cf 6abd 8c80 433c
000000b0: 3f4f febb 1a5e 40bd fc6d 0fbd 82f9 213d
000000c0: 14a3 10bc 2e5d 23bc 426d e13b 2351 5fbd
000000d0: 4576 6abd 7404 01bd ead6 0fbd e353 06bd
000000e0: e228 253d 6cdf bfbc 8a78 d7bd ccdb 48bd
000000f0: 63e7 0f3d 9caf a3bc 3b92 2abd 8eb5 f9bb
00000100: 3a59 a43c c46f c0bb a96a 0bbd 7da8 aebd
00000110: 1496 6ebc 9ea5 823b 43f0 03bd 6386 a6bd
00000120: ed14 173d b8d4 44bd 3488 24be 6bc0 ec3d
00000130: bcf6 dd3d ad1a 00be 7d49 133d 88fb fe3d
00000140: 35c0 a63d c247 3e3d 1453 dcbd 77a4 d6bd
00000150: 24cf b43d bf81 fd3c a111 bfbd 3049 be3d
00000160: 9bf8 d63d e972 0b3c ef42 7dbc d7da 55bd
00000170: 1be4 35bd 776f 183d 4685 f2bb 98ea 21bd
00000180: 315d 563d 668e 253d 00ac f33c bba5 9ebd
00000190: 7ae2 34bc 1676 703c 4de3 e2bc 8d8f a9bc
000001a0: 3dae 94bc 18f2 cd3c bcbd cb3c 6d7e a1bc
000001b0: 972c 293d 43b4 d4bc 64d4 0f3d 4dfa 9d3d
000001c0: eb41 4d3d 39cb 913a 0379 03bc 1acb e73c
000001d0: 0c6e 2a3d e084 803c b871 15bc 2f31 fcbc
000001e0: be62 633d 41ed a93b 095d e5bd e9f6 613d
000001f0: e746 473d ffb9 493c 9ee6 ea3c 7e2e 83ba
00000200: abbe adbc d298 583b aede 933d 8a47 4dba
00000210: 0b02 2ebd 4cf2 8abb 4440 953b 1c0f e4bb
00000220: de93 0b3e 4b55 3f3e 6048 02be 95f9 b8bd
00000230: d625 753d 2139 19be 41ce 3cbe aa0a 15be
00000240: c090 c03b e30e 53bd d831 87bd d733 843d
00000250: 82b2 b43d 6363 aa3d 71d8 e8bc bcf5 243d
00000260: f12c dc3d 5e12 5f3d 504d e03c 2a01 5abc
00000270: 447a 5cbc d371 5d3c 76e3 95bd 502d 82bc
00000280: 841f a2ba 1050 f6bb 94f0 05bb 812a 0bbb
00000290: 3f17 6fbc 7482 503c 3035 00bd 36b9 f3bc
000002a0: ed2f 7a3d 7027 273c cf62 41bc 7e6f 093d
000002b0: 18eb 6fbb cad0 c03b 3f37 2cbd 8cb5 1e3c
000002c0: 9983 873c 50ef c0bc e28d ccbc 22b6 523c
000002d0: 402e d33d 290d 083e 5891 0f3c 3c25 163d
000002e0: 599a 223e 87cc 333e b9c6 ebbc e707 063d
000002f0: 1656 dc3d 15d1 c7bb 510f e8bc 047c 41bc
00000300: 241e 0a3d c8fb 7f3a 687a 62bd 1d89 8f3d
00000310: 5a8e ad3d 64f3 27bb c41a ad3a c32c 943d
00000320: 0183 1d3e c65c c3bd f3ab 123c 0f1b 1e3e
00000330: 86b2 58be 8c15 10be 9483 003b 705d ca3b
00000340: cc44 23bd 346a 693d 73f3 d43c 9281 d2bd
00000350: ca70 bfbb 68d9 8a3d 32cf ce3c f581 c83a
00000360: ac4a 1fbd 989f 67bb 62eb cc3c 81e3 2cbd
00000370: 696f 77bd d48d 043d 32a9 5f3c 41f5 1bbc
00000380: 0244 ef3c 3802 373d 1686 713e 3d98 6f3e
00000390: bac4 3bbe a41f 9e3d 5054 813e 31b4 b3be
000003a0: 018f 2bbe 34cb 833d 6543 943c ff7c 6e3d
000003b0: 645a 853c 850b edbc d4e8 003b aead 91bc
000003c0: ed69 e7bc 2c87 8ebc d2e5 34bd f469 a23c
000003d0: 14e1 55bd c270 8cbd 1bd4 ff3a ac73 083d
000003e0: 36de 303b 091c 5a3d e5d1 dd3c 8ae9 7c3c
000003f0: dd87 53bd a06c 34bd 3ca2 1dbd 3b3f 5339
0.035397932 -0.027704863 -0.08819261 0.05804178 0.10349197 -0.026422631 -0.027601125 0.06892731
0.014700835 0.0106150415 0.022060607 -0.03824252 0.015495593 0.056495428 -0.03578025 0.037512377
0.032018658 -0.01559891 -0.009841162 -0.040728502 -0.005828353 -0.026950402 -0.03829645 0.009168421
-0.066965796 -0.112267934 -0.05955507 0.07564417 -0.015595768 -0.07042049 -0.008143254 0.10682046
-0.013939614 -0.0785671 -0.040254276 -0.005259619 -0.008666113 -0.06638006 0.022242345 0.058905188
0.024685312 -0.031075295 -0.057326976 0.011932503 -0.0077609117 -0.046964742 -0.035017 0.03954459
-0.008827943 -0.009970946 0.0068794796 -0.054520737 -0.057241697 -0.031498387 -0.035117067 -0.032794844
0.040322192 -0.023421966 -0.10521038 -0.04903774 0.035132777 -0.019981198 -0.041643362 -0.00762052
0.020062078 -0.0058726985 -0.034037266 -0.0852823 -0.014562149 0.0039870283 -0.032211553 -0.08131101
0.03688519 -0.048054427 -0.16067582 0.11560138 0.108380765 -0.12510176 0.035958756 0.124503195
0.08142129 0.046455152 -0.107580334 -0.10480588 0.088285714 0.030945657 -0.09329534 0.09291303
0.104966365 0.008511283 -0.015457853 -0.052210655 -0.04440699 0.037215676 -0.0074011413 -0.039530367
0.052334968 0.040419005 0.029745102 -0.07746454 -0.011040324 0.014676591 -0.027696276 -0.020698333
-0.01814949 0.025139853 0.024870746 -0.019713605 0.04130229 -0.025964862 0.03511466 0.07713757
0.050111692 0.0011123187 -0.008024457 0.028295089 0.041608855 0.01568836 -0.009121351 -0.030785171
0.05551409 0.0051857536 -0.11199386 0.055167112 0.048651602 0.012312411 0.02867442 -0.0010008363
-0.021209082 0.0033050072 0.07220207 -0.00078307895 -0.042482417 -0.00424031 0.00455478 -0.006959809
0.13630626 0.1868488 -0.12722921 -0.09031979 0.059850536 -0.14963199 -0.18438055 -0.1455485
0.0058766305 -0.05152787 -0.06601304 0.064552 0.0882311 0.08319738 -0.02842352 0.040273413
0.107507594 0.054460876 0.027380615 -0.013305942 -0.013456885 0.013515907 -0.07318775 -0.015890747
-0.0012369012 -0.0075168684 -0.0020437585 -0.002123505 -0.014592945 0.012726415 -0.031300724 -0.029751401
0.06108086 0.010202274 -0.011803343 0.033553593 -0.0036608633 0.0058842646 -0.042044874 0.009686839
0.016542243 -0.023551613 -0.024969999 0.012860807 0.10311556 0.1328627 0.00876268 0.036656603
0.15879191 0.1755849 -0.028781282 0.03272238 0.10758607 -0.0060979226 -0.028327616 -0.011809353
0.03372015 0.00097649964 -0.055292517 0.07008574 0.08474417 -0.002562725 0.0013206829 0.072351
0.15382005 -0.095391795 0.008952129 0.1544001 -0.21161851 -0.1407072 0.0019609677 0.0061756894
-0.03986053 0.05698605 0.025994992 -0.1027862 -0.005842303 0.06779748 0.025245283 0.0015297519
-0.038889572 -0.0035342928 0.025014583 -0.042209152 -0.060408983 0.03236182 0.013651179 -0.009518922
0.029207233 0.04467985 0.23586306 0.23397918 -0.18336764 0.07720879 0.25259638 -0.35098413
-0.1675377 0.06435242 0.018098542 0.058224674 0.016278453 -0.028936157 0.0019670026 -0.017783012
-0.028248752 -0.01739844 -0.044164486 0.019825913 -0.052216604 -0.06857444 0.0019518168 0.03331344
0.0026987917 0.053249393 0.027077625 0.015436539 -0.05164324 -0.044048905 -0.038484797 0.00020146083
