test-data/models/squeezenet1.1_nchw/weights/squeezenet0_conv4_weight.npy (npy, 8272 bytes, 1 tensors)

array f4 [16, 128, 1, 1]
0	0x3e77b2bb	0.24189274
1	0x3d83727d	0.06418321
2	0xbe91711b	-0.28406605
3	0x3dbf689d	0.09346125
4	0xbd985b0c	-0.07439241
5	0x3e3bc9fe	0.18338773
6	0x3d3d5432	0.046222873
7	0x3a3e2f4a	0.00072549714
8	0xbd8d387d	-0.0689554
9	0x3cfe9409	0.031076448
10	0xbeb56ea6	-0.3543598
11	0xbdc94497	-0.098275356
12	0x3e973423	0.29531965
13	0xbbf43fd3	-0.0074538975
14	0x3e355560	0.17708349
15	0x3de9f121	0.11422945
16	0xbc0a3f97	-0.008438013
17	0x3ea6431d	0.32473078
18	0xbe4ec134	-0.20190889
19	0x3d060ab1	0.03272504
20	0xbeb17b1c	-0.34664237
21	0x3e2a20c8	0.16614068
22	0x3dc47495	0.09592549
23	0xbd984ce0	-0.07436538
24	0xbe4d26ed	-0.2003438
25	0x3e929912	0.28632408
26	0xbce16014	-0.027511634
27	0xbdb01ad1	-0.08598865
28	0xbcc1a7c3	-0.023639565
29	0xbe29c807	-0.1658021
30	0xbc3bd117	-0.011463425
31	0xbdd0d954	-0.10197702
32	0x3c8e71ad	0.01738819
33	0x3da363cd	0.0797802
34	0xbd720d4c	-0.059094712
35	0xbd9c2580	-0.0762434
36	0x3de2ddcc	0.11077461
37	0x3ed8aa23	0.42317304
38	0x3eb55a30	0.3542037
39	0x3d2f7dc9	0.042844567
40	0x3dfa8b8a	0.12233646
41	0xbd53ff5b	-0.051757198
42	0xbdc808ce	-0.09767304
43	0xba9dae0d	-0.0012030021
44	0x3d069f5c	0.03286682
45	0x3bd41ec6	0.006473395
46	0x3e2c46f8	0.16823947
47	0x3e1c3adf	0.15256833
48	0x3da75242	0.08169986
49	0x3e88010f	0.26563308
50	0x3b82683b	0.0039797104
51	0xbcd2ee35	-0.025748352
52	0x3c746a60	0.01491794
53	0x3dca4246	0.09875922
54	0x3e00d5b3	0.1258152
55	0x3e322f9e	0.17400977
56	0x3da921b6	0.08258383
57	0x3e7c447a	0.24635497
58	0x3e9ee9ab	0.3103765
59	0x3c4e9c2a	0.012610475
60	0xbdb2deab	-0.08733877
61	0x3e076fc5	0.1322623
62	0x3ec91785	0.39275756
63	0x3dce503c	0.10073897
64	0xbe0bddfe	-0.13658902
65	0x3de77c43	0.11302998
66	0x3d516760	0.051123977
67	0xbea32ec5	-0.3187162
68	0x3e92aba1	0.28646567
69	0x3e89a93a	0.26886922
70	0xbdc128c0	-0.094316006
71	0x3da45719	0.08024425
72	0xbd55c97c	-0.052194104
73	0x3e22cc46	0.15898237
74	0x3e37ab7d	0.17936511
75	0x3e23ece3	0.16008334
76	0xbdf33451	-0.11875213
77	0xbe9f64c2	-0.3113156
78	0x3e34a658	0.1764158
79	0x3e76c3de	0.24098155
80	0xbde0f255	-0.10983721
81	0x3e8cdd6b	0.27512679
82	0xbe1c473a	-0.15261546
83	0x3d0840af	0.033264812
84	0x3d926956	0.071489975
85	0x3e2974a8	0.16548407
86	0xbe8b4471	-0.27200654
87	0xbd536967	-0.05161419
88	0x3e7b006f	0.24511884
89	0x3ebc8427	0.36819574
90	0x3e54b3de	0.20771739
91	0x3cd45556	0.025919598
92	0xbe38907c	-0.18023866
93	0x3e82a87f	0.25519177
94	0xbe7daad7	-0.24772201
95	0x3ead9f88	0.33910775
96	0x3d9fb576	0.07798283
97	0x3d3161f4	0.043306306
98	0x3cfc00f2	0.03076217
99	0xbd0082a7	-0.0313746
100	0x3eb91061	0.3614531
101	0xbe0d89eb	-0.13822143
102	0x3acf3a2a	0.0015810181
103	0x3e749c4a	0.23887745
104	0xbd4880be	-0.048950903
105	0xbe08704e	-0.13324091
106	0x3d509ebd	0.050932635
107	0xbc67883c	-0.014131602
108	0xbd999137	-0.07498401
109	0x3d56b989	0.052423034
110	0xbdb94b2b	-0.0904754
111	0x3e0bd8d4	0.13656932
112	0xbde26153	-0.11053719
113	0x3d120af6	0.035654984
114	0xbe2ae261	-0.16687919
115	0x3c9d5397	0.019204898
116	0x3ea967ae	0.33086914
117	0x3d6607e4	0.05615987
118	0x3daf0fb3	0.08547916
119	0x3ec534aa	0.38516742
120	0x3d430b59	0.047618244
121	0xbe8029d2	-0.25031906
122	0x3d836cb1	0.064172156
123	0x3df554a7	0.11979037
124	0xbcc838e1	-0.024441184
125	0xbde8a652	-0.11359848
126	0xbc427fda	-0.0118713025
127	0xbe32aaa8	-0.17447913
128	0x3d07a4ca	0.03311614
129	0xbd47c0c4	-0.04876782
130	0xbdce10da	-0.10061808
131	0x3eec1db0	0.461164
132	0xbe3a5753	-0.18197374
133	0xbe44f3b0	-0.19233584
134	0xbe33bfc8	-0.17553627
135	0xbebd0b45	-0.3692266
136	0xbe2864dd	-0.16444726
137	0x3dcf1cd4	0.101129204
138	0xbe6436fc	-0.222866
139	0xbe42167e	-0.18953893
140	0x3e2ba7d4	0.1676324
141	0xba5d2acf	-0.000843686
142	0xbe04217f	-0.12903403
143	0x3e6e3886	0.2326375
144	0xbbf73be7	-0.0075449827
145	0xbed77392	-0.4208036
146	0x3eb60a96	0.3555495
147	0xbda1d9de	-0.07902883
148	0xbe90142b	-0.28140387
149	0xbd53ab5e	-0.0516771
150	0x3ee9d4df	0.4567022
151	0xbe0566fc	-0.13027567
152	0xbd5448dd	-0.0518273
153	0x3b6b62a3	0.0035916946
154	0x3c90f620	0.017695487
155	0xbe81d2ac	-0.25356042
156	0xbe276f16	-0.1635097
157	0xbdbb1f02	-0.09136774
158	0x3ec64f40	0.38732338
159	0x3e931c1c	0.28732383
160	0xbce9b777	-0.028529866
161	0xbe9edbad	-0.31026974
162	0x3ebf8884	0.3740884
163	0xbe90c2b1	-0.28273538
164	0x3d948601	0.07252122
165	0x3e99d0cd	0.30042115
166	0xbe0aeb02	-0.13566211
167	0xbe1e6b56	-0.15470633
168	0xbe2a325b	-0.16620772
169	0x3e24e204	0.16101843
170	0xbe65f8f8	-0.22458255
171	0x3b76e600	0.0037673712
172	0xbd534329	-0.05157772
173	0x3c143fe0	0.009048432
174	0xbe71eab0	-0.23624682
175	0xbbbdd565	-0.005793261
176	0xbcffea6a	-0.031239707
177	0xbe26029b	-0.16211931
178	0xbd8bf569	-0.06833918
179	0xbd6f37c1	-0.05840278
180	0xbdb8fd1e	-0.09032653
181	0xbe8710a8	-0.26379895
182	0xbeb500b6	-0.35352105
183	0x3efd125d	0.49428073
184	0xbe6561d0	-0.22400594
185	0xbe4c4392	-0.19947651
186	0xbe717f7a	-0.23583785
187	0xbe0a32e5	-0.13495977
188	0xbeacf7ff	-0.33782956
189	0xbdad7113	-0.08468833
190	0x3ea3fe8d	0.32030144
191	0x3eca74b3	0.3954216
192	0x3d14767b	0.036245804
193	0x3bcebffa	0.0063095065
194	0x3df3572e	0.118818626
195	0x3e48617a	0.19568434
196	0x3ddb3e41	0.10705233
197	0xbc2fe572	-0.010735856
198	0x3cdc8038	0.026916608
199	0x3dced644	0.10099462
200	0xbdf21dee	-0.11822115
201	0x3cd7fde4	0.026366182
202	0x3d27960f	0.04091459
203	0x3ea1b5da	0.31584054
204	0x3da4e752	0.08051933
205	0xbd62c97e	-0.05536794
206	0xbe27e4db	-0.16395895
207	0x3b9e1f1b	0.0048254854
208	0xbd897f6a	-0.067137554
209	0x3d780281	0.060549263
210	0x3de2aff2	0.11068715
211	0x3d0bc097	0.034119215
212	0xbd9266c0	-0.07148504
213	0xbaddc7f1	-0.0016920549
214	0x3daa5df3	0.08318701
215	0xbce7da8a	-0.02830245
216	0xbb685e85	-0.0035456729
217	0xba127658	-0.00055870926
218	0xbd82a986	-0.0637999
219	0x3b9239b3	0.0044624447
220	0xbe0b89e5	-0.13626821
221	0xbc4fd95b	-0.012686099
222	0xbe67d8f8	-0.22641361
223	0xbd7f87cb	-0.06238536
224	0x3deaeaa7	0.11470538
225	0xbcdc0232	-0.026856516
226	0xbd1c5c5a	-0.03817401
227	0x3d967cee	0.07348047
228	0xbe2cb6ef	-0.16866659
229	0xbdbd0a52	-0.09230484
230	0xbe190b57	-0.14945732
231	0x3d5de7c6	0.054176114
232	0xbc6b4c7e	-0.014361499
233	0xbdcb7e8c	-0.09936246
234	0xbdc6fd59	-0.09716291
235	0x3e802421	0.25027564
236	0x3e2c3181	0.16815759
237	0xbe74db42	-0.23911765
238	0xbc9d4a96	-0.019200604
239	0xbd0fbf59	-0.035094593
240	0xbc4ed170	-0.012623176
241	0xbd517e8b	-0.05114607
242	0xbd1fe9d0	-0.03904134
243	0x3d274841	0.04084039
244	0xbe5ba99d	-0.21451421
245	0x3d7e3f6d	0.062072206
246	0xbe83a161	-0.2570906
247	0xbe0fdaa9	-0.14048256
248	0x3d9c8c14	0.07643905
249	0x3ddf87b2	0.10914554
250	0xbd304b07	-0.0430403
251	0xbc233f06	-0.009963756
252	0x3dad5e18	0.084652126
253	0x3e075b1f	0.13218354
254	0x3e071cb1	0.13194539
255	0xbd02e550	-0.03195697
