test-data/models/squeezenet1.1_nchw/weights/squeezenet0_conv18_weight.npy (npy, 331856 bytes, 1 tensors)

array f4 [192, 48, 3, 3]
00000000: c599 d9bc e037 b8bd d1a7 843d 40e2 6bbc
00000010: 20af 10be 1bfe 133d 7806 9f3b 3add 793c
00000020: cf3b f13d 6f4a 0f3d 03a8 703d 2bdb 37bd
00000030: 6a61 c03c 9e0c 973b 4c67 7fbd f89e da3c
00000040: 9108 81bc 10b5 04bd d464 843d 7830 3d3d
00000050: 357b 05bd edbd 313d 38b5 34bd f4ca 2cbd
00000060: 153d 0e3d 2a04 0abd 3831 01bd 172f 24bc
00000070: a6db 0e3c 3a8a c9bd b5c6 fc3b a132 4d3d
00000080: a175 ccbd 3ad1 873c c987 213d d205 04be
00000090: a95a 06bd 2359 143d 89a0 01bd c4a5 f03b
000000a0: 39df 183d 28cc 31bd 2bce 28bd 23fc 003b
000000b0: 2216 9fbd 391d 7cbd a27f 733d 9507 203d
000000c0: 68e6 19bd 3719 b13c d2e5 853d 6f10 e8bc
000000d0: a746 5f3c 23de 713d ee2a 24bd 1efb 01bd
000000e0: 4ae0 5dbc 371d 603b ae45 633d 4ac9 aa3c
000000f0: 1d2e 253d 350c b53d 5c53 263d 8e9b 28bd
00000100: 7971 ad3d 2069 883d 86a3 98bc e9e8 4abc
00000110: 81c5 e1bd ced2 40bd 0c04 bf3b 1965 d3bc
00000120: ee52 f43b 9adc 263d f4a8 0b3c 84db 83bc
00000130: 186f b5bd 2958 8b3b 1e29 823d a3b7 b3bc
00000140: 20e6 a33d c1f6 013d a1b7 30bb 4d83 003d
00000150: 0bcf a2bc b59f f5bd 088e 883d 3172 66bc
00000160: bf3c 51bd 2e36 163d 3156 b03c 89c4 5fbc
00000170: bfe1 8dbc 3b31 7a3d dde3 d13c 60c3 173d
00000180: f2ac d73c 8941 4f3c 7ddd b3bc 9b8a 243b
00000190: 4603 6e3d 9f45 fdbc 9b97 2d3d 1b88 a33d
000001a0: f99f b73c 5707 e4bc d98d 1dbc 16ea 40bd
000001b0: 6658 9a3c 94cd 023e e526 36bd ee86 5d3a
000001c0: 10ce 743d 1bb3 e5bd 4fdb 573d 41ff 413d
000001d0: 083b d8bd 180a 06bd 5f55 19bd f24a 40bb
000001e0: 24a7 003d 1de4 3dbc 675f 5a3d 83cf 533d
000001f0: 1d7f 1f3d 1e36 633d 4c55 c33d 675e ab3d
00000200: 10e4 d5bc f7e4 daba a077 c9bb 72f9 4abd
00000210: 6c5e efbc b715 b6bc 7f9e c6bd a063 f2bb
00000220: f8b1 e5bc 28fa d1bd d028 f53b bf23 a8bb
00000230: e52e 35bd 3888 d03c 7445 493c e535 27bd
00000240: c6f3 393d 9a63 463d 8997 19bc e6aa 1cbd
00000250: 3809 fabc b12e 9cbc af8e 3f3c 5253 9c3c
00000260: ae46 4d3c 9ae1 513c 83a0 943d 90be 23bd
00000270: f877 65bd 530f 2dbd 2581 d3bd c68c 51bc
00000280: eb52 51bd ee18 ec3b aab7 4cbd 091c 2dbd
00000290: d2ec 93bc aafa 00bd 89d9 1a3d 5549 253d
000002a0: 84d4 dfbc 9a76 e23c 2b23 923d e98a 74ba
000002b0: e225 863d 8986 8f3d f6f3 08bd 29c4 0bbd
000002c0: 11d8 653d 65db 00bd 94fb 44bd 24a7 023d
000002d0: eefd 2c3c d2fc 863c 585f c1bd ae83 6cba
000002e0: 0621 58bd e958 863c 7c48 9abb ab2d 1c3d
000002f0: ff3e 94bb 7d01 9dbc ef47 86bb e3d1 003d
00000300: 03a1 1abd efdb 39bc 0d63 2d3c eb34 58bd
00000310: 2de0 02bd e25e 4dbc e8ac fbbc 3fee 273c
00000320: a998 dcbc 77b7 613c 148a c2bc 07e1 76bd
00000330: a8e2 e43c aac6 673c 2757 44bd e6b0 d33a
00000340: cbf8 733d 6d7f 4f3c 55c8 32bd fcfc fdbc
00000350: 4f5e 8e3c 5f25 913b 8429 61bc 11c4 c03d
00000360: c20e 42bd b0fe a43b faf7 66bc 1233 cfbc
00000370: c784 f23c 320e 37bd 152b 29bd 583e 05bd
00000380: c293 8cbd 120d 35bd 1e45 423d d22e ea3c
00000390: defa 7ebd 65e0 f13d d588 033c 9dae 96bd
000003a0: 429f cd3c bac0 f4bc bb62 6a3c dff2 10bd
000003b0: 7611 8bbd 0dc7 f33d 1d59 8f3d 43cb c73d
000003c0: 5b7d a63c 0a5c 543b 8af2 cfbc a9fa 8139
000003d0: 121c c6bc 7668 0a3d 68af 0fbd 7cbe 7fbd
000003e0: efbb 3dbd 664c 8f3d 0001 973d 4d54 ad3a
000003f0: 3ce6 ba39 8a63 903d afe7 f9bc 9f45 eeba
-0.02656258 -0.08995032 0.06477321 -0.014397204 -0.14129305 0.036131006 0.004853066 0.015250498
0.11778986 0.034983095 0.05875398 -0.04488675 0.02348395 0.0046096584 -0.06235437 0.02668713
-0.015751155 -0.032399237 0.06464544 0.0461888 -0.032588203 0.043394018 -0.044118136 -0.04218574
0.03472622 -0.033695377 -0.03154108 -0.010020993 0.00871936 -0.09840818 0.0077141174 0.05009711
-0.099833734 0.01657926 0.039436135 -0.12892845 -0.032801304 0.03621782 -0.03164724 0.0073439796
0.037322257 -0.04340759 -0.041212242 0.0019681535 -0.077678934 -0.061551306 0.059447892 0.03906973
-0.03757325 0.021618469 0.06537975 -0.028328149 0.013627685 0.059049737 -0.040080003 -0.031733625
-0.013542244 0.00341971 0.055486374 0.020847935 0.04032718 0.08840219 0.04060684 -0.041163974
0.08468909 0.06660676 -0.018632662 -0.012384632 -0.11023999 -0.04707604 0.00582934 -0.025805043
0.007456175 0.040737726 0.008524168 -0.016095884 -0.0885908 0.004252453 0.06355499 -0.02193815
0.08002877 0.031729463 -0.002696492 0.03137522 -0.019874116 -0.11993352 0.06667715 -0.014065311
-0.051083323 0.036672764 0.021525474 -0.0136576975 -0.017319558 0.061082106 0.025621349 0.03705156
0.026327584 0.012649902 -0.0219562 0.002510703 0.05810859 -0.030916987 0.04238091 0.079849444
0.022415148 -0.027835531 -0.009616339 -0.04709824 0.01884098 0.12773734 -0.044470686 0.0008450587
0.05976683 -0.11215802 0.052699383 0.04736257 -0.10558134 -0.03272447 -0.03743493 -0.0029341546
0.031409398 -0.011590031 0.05331364 0.05171157 0.038939584 0.055471532 0.095377535 0.08367615
-0.026109725 -0.0016700317 -0.0061482936 -0.049554296 -0.029219829 -0.022227151 -0.096981995 -0.00739713
-0.028038964 -0.10252792 0.007481672 -0.0051312144 -0.044234175 0.02545558 0.012284625 -0.040822882
0.045398496 0.04843483 -0.009374508 -0.03824892 -0.030521974 -0.019065233 0.011691733 0.019082699
0.012529058 0.012810135 0.07257178 -0.039976656 -0.056022614 -0.042250942 -0.10327367 -0.012789911
-0.051104467 0.0072051203 -0.049979843 -0.042263065 -0.01805726 -0.031489052 0.037805114 0.040353138
-0.027323015 0.027644444 0.07135614 -0.00093285606 0.06550194 0.070080824 -0.033435784 -0.03412262
0.05611426 -0.03145923 -0.048091486 0.03189768 0.010558588 0.016477976 -0.094420135 -0.00090223073
-0.05276587 0.016399818 -0.004708348 0.03812949 -0.0045241113 -0.019165749 -0.0040979306 0.031450164
-0.03775121 -0.01134394 0.010582698 -0.05278484 -0.031952072 -0.012534829 -0.030722097 0.010249673
-0.026928263 0.013776652 -0.023747481 -0.060273197 0.02794011 0.014146486 -0.047934677 0.0016150742
0.05956344 0.012664658 -0.043648083 -0.031004421 0.017378954 0.004429504 -0.013742808 0.09412397
-0.047377355 0.005035244 -0.014097208 -0.025292907 0.029604329 -0.044691272 -0.04130085 -0.03253016
-0.0686412 -0.044201918 0.047429197 0.028586779 -0.062250964 0.11810378 0.008028229 -0.073575236
0.025100354 -0.029877055 0.014305766 -0.03538787 -0.0679044 0.119032 0.06999419 0.09755566
0.020323446 0.0032403492 -0.025384206 0.00024791554 -0.024183307 0.033791028 -0.03507939 -0.06243752
-0.046321806 0.06996994 0.073732376 0.0013223976 0.00035648223 0.070502356 -0.030505983 -0.0018178708
