test-data/models/squeezenet1.1_nchw/weights/squeezenet0_conv24_weight.npy (npy, 589904 bytes, 1 tensors)

array f4 [256, 64, 3, 3]
0	0xbd6372be	-0.05552935
1	0xbd2c103b	-0.042007666
2	0xbd798367	-0.06091633
3	0xbc516d98	-0.012782477
4	0x3bf0cef2	0.0073488886
5	0xbc287b66	-0.010283327
6	0xbd140a11	-0.036142413
7	0xbcbcf16c	-0.023064338
8	0xbd1debc0	-0.038554907
9	0x3cdf49ca	0.027256865
10	0x3cec5fec	0.028854333
11	0x3d20fe6c	0.039305136
12	0x3d1a4974	0.037667707
13	0x3d33c69d	0.043890584
14	0x3d1bc701	0.03803158
15	0xbb2e698a	-0.00266132
16	0x3c25999a	0.010107422
17	0x3bddf38b	0.0067734173
18	0x3d3caed5	0.04606517
19	0x3d5085e3	0.050908934
20	0x3cb0e4a9	0.021593409
21	0x3d7c7e75	0.061644036
22	0x3d5c8273	0.053835344
23	0x3d84bbb0	0.06481111
24	0x3d4b1671	0.04958195
25	0x3d722944	0.059121385
26	0x3d5502da	0.052004673
27	0xbc784af4	-0.015154589
28	0xbcfef0b5	-0.031120637
29	0xbcc33c53	-0.023832476
30	0xbc881a5d	-0.016614133
31	0xbd1ccb34	-0.038279727
32	0xbcd5c258	-0.026093647
33	0xbc0d2ed9	-0.008617126
34	0xbcb3b5f6	-0.021937352
35	0xbc803d5e	-0.015654262
36	0xbc0ca2d8	-0.008583747
37	0xbc84d212	-0.01621345
38	0xbc82d50f	-0.015970735
39	0xbaa8192e	-0.0012824887
40	0x3c905a18	0.017621085
41	0x3abf190d	0.0014579609
42	0xbd18e35b	-0.037326198
43	0xbc02097e	-0.007936833
44	0xbd2dae23	-0.042402398
45	0x3ba30194	0.0049745534
46	0x3d0f9c18	0.035060972
47	0x3cf555a6	0.029948067
48	0x3c83f84d	0.01610961
49	0x3cf2a94d	0.029621745
50	0x3cf400f8	0.029785618
51	0x3c57f696	0.013181349
52	0x3c028dc8	0.007968374
53	0xbc1ec50b	-0.009690533
54	0xbd858c4b	-0.065208994
55	0xbd08baa4	-0.03338112
56	0xbd55f344	-0.05223395
57	0xbd4a81ec	-0.04944031
58	0xbd1aea6f	-0.03782123
59	0xbd669c5f	-0.05630147
60	0xbd258de4	-0.04041852
61	0xbcbed9e5	-0.02329726
62	0xbd6426af	-0.055700954
63	0xbd1279e5	-0.03576078
64	0xbd148193	-0.036256384
65	0xbca18de2	-0.019720975
66	0xbd06db52	-0.032924004
67	0xbd58ed4d	-0.052960683
68	0xbcb4a34e	-0.022050526
69	0xbcaab4a3	-0.020838087
70	0xbd335ab7	-0.043787684
71	0xbccb57e2	-0.02482218
72	0xbd0089f3	-0.03138156
73	0xbcb7e148	-0.02244629
74	0xbd17e72d	-0.0370857
75	0x3bad4a93	0.005288431
76	0x3c3b75e8	0.011441685
77	0x38463200	4.7253445e-05
78	0xbd046ec8	-0.03233221
79	0xbd088280	-0.03332758
80	0xbce951df	-0.028481422
81	0xbca34838	-0.019931898
82	0xbc37e22c	-0.011223357
83	0xbcd93b81	-0.026517631
84	0x3b3ad3a5	0.0028507498
85	0x3b3769f0	0.0027986728
86	0xba1420dd	-0.0005650649
87	0x3cc8edc9	0.024527447
88	0x3d00868e	0.03137832
89	0x3d248a30	0.04017085
90	0xbcd3aa8a	-0.025838155
91	0xbd077b75	-0.033076722
92	0xbcd1eb0f	-0.02562478
93	0x3ba438ea	0.0050116675
94	0x3c4400d8	0.011963092
95	0x3c166328	0.009178914
96	0x3b81650c	0.0039488133
97	0x3cab5059	0.020912336
98	0x3c2a8751	0.0104082385
99	0xbc83b36c	-0.016076766
100	0xbc04e144	-0.008110348
101	0xbcc29598	-0.023752972
102	0xbc982245	-0.018571028
103	0xbcfcca08	-0.030858055
104	0xbc927552	-0.017878208
105	0xbc06537f	-0.008198618
106	0xbc7b337a	-0.015332097
107	0xbc9892e0	-0.018624723
108	0x3d2f1bd4	0.04275115
109	0x3cf30b33	0.029668426
110	0x3d37316a	0.04472486
111	0x3d099e71	0.033598367
112	0x3c6fd1d2	0.014637427
113	0x3cca330c	0.024682544
114	0x3d3951c6	0.045244
115	0x3d39eae7	0.045390036
116	0x3d19623c	0.0374472
117	0x3c1bdd4f	0.009513213
118	0x3d390dde	0.04517924
119	0x3c8a8c27	0.016912533
120	0xbbe8d4f1	-0.0071054627
121	0x3cc4072d	0.023929203
122	0x3b2c24f5	0.0026267145
123	0xbc64393d	-0.013929662
124	0xbc5a7e03	-0.013335708
125	0xbab4cc11	-0.0013793727
126	0xbc06972a	-0.008214751
127	0xbd2e78eb	-0.042595785
128	0xbc37880a	-0.011201868
129	0xbd1c0ebc	-0.03809999
130	0xbd4434be	-0.04790186
131	0xbd27b577	-0.040944543
132	0xbd854adb	-0.06508418
133	0xbd2b1ffc	-0.04177855
134	0xbd6daf46	-0.058028482
135	0x3d19849f	0.037479993
136	0x3d55bfc2	0.052184828
137	0x3d1bc2cd	0.038027573
138	0xbc113f9b	-0.008865262
139	0x3c6302eb	0.013855676
140	0xbbe4679a	-0.006970358
141	0xbca92a88	-0.020650163
142	0xbc8ee10e	-0.017441299
143	0xbd0d2040	-0.034454584
144	0xbcb865fe	-0.022509571
145	0xbc35990f	-0.011083855
146	0x3aa3136e	0.0012441704
147	0xbc4bda71	-0.012442217
148	0xbc1c12f2	-0.009526001
149	0xbc7fb8b9	-0.015608006
150	0x3c52f545	0.01287586
151	0x3c973900	0.018459797
152	0x3c1f6461	0.009728522
153	0x3d1808b5	0.03711768
154	0x3d94f54d	0.0727335
155	0x3ce5388b	0.027981063
156	0xbd5b461e	-0.053533666
157	0x3be5e544	0.007015856
158	0xbd188293	-0.0372339
159	0xbdeceaf5	-0.11568252
160	0xbd7a7b46	-0.06115272
161	0xbdcd4896	-0.1002361
162	0xbd07461b	-0.033025842
163	0xbcc7cc8e	-0.024389531
164	0xbd2822a4	-0.04104866
165	0xbbebb385	-0.0071930313
166	0x3cad9fda	0.021194387
167	0xbb40c721	-0.0029415565
168	0xbaa894bc	-0.0012861709
169	0x3ca04369	0.019563394
170	0x3bdc9e3e	0.006732731
171	0x3cbac4f9	0.022799002
172	0x3c703b25	0.014662539
173	0x3c5d83b4	0.01352017
174	0xbd76f06f	-0.06028789
175	0xbd8a942e	-0.06766544
176	0xbd961c32	-0.073295966
177	0xbdacffdf	-0.08447241
178	0xbd9b9776	-0.07597248
179	0xbdc1ff70	-0.09472549
180	0xba394879	-0.0007067989
181	0xbaf7f718	-0.0018918244
182	0xbcb34b58	-0.021886513
183	0x3c9bc383	0.019014126
184	0x3cf5ad0a	0.029989738
185	0x3c10ea1a	0.008844877
186	0xbd0bf401	-0.034168247
187	0xbc00e508	-0.007867105
188	0xbd1c20ad	-0.0381171
189	0xbd69583e	-0.05696892
190	0xbd26a773	-0.040687036
191	0xbd32e2dc	-0.04367338
192	0xbc7cc382	-0.015427472
193	0xbc861a23	-0.016369885
194	0xbc10b0c9	-0.008831211
195	0x3c82794b	0.015926978
196	0x3b9f303c	0.004858045
197	0x3cb44a10	0.022007972
198	0xbd112edb	-0.035445075
199	0xbd31e647	-0.0434325
200	0xbd50ab46	-0.05094459
201	0xbce386a9	-0.027774172
202	0xbcf26b5a	-0.029592205
203	0xbc9c60b1	-0.019089075
204	0x3b626d5a	0.0034550042
205	0x3bb9843d	0.005661516
206	0x3b8759b7	0.004130568
207	0x3cfdfb88	0.031003729
208	0x3d5cc941	0.05390287
209	0x3ca49f07	0.020095361
210	0x3cf5fb69	0.030027108
211	0x3d6e9c91	0.058254782
212	0x3cb8e5dd	0.022570545
213	0xbd058b6f	-0.032603677
214	0x3c8796c3	0.016551381
215	0xbc8b5db0	-0.017012447
216	0xbc93f26c	-0.018059932
217	0xbc7c8599	-0.015412712
218	0xbca3d33a	-0.019998182
219	0xbc42b276	-0.011883369
220	0xbce0dc45	-0.027448783
221	0xbc897074	-0.016777255
222	0x3808d363	3.2621796e-05
223	0xba75eb7a	-0.0009381097
224	0x3c0fa56c	0.008767467
225	0x3ccd10b1	0.025032373
226	0xbce3372b	-0.027736267
227	0x3ca36430	0.019945234
228	0xbb478b38	-0.003044797
229	0xbd109f21	-0.035308007
230	0xbc8f38e1	-0.017483177
231	0xbcd66206	-0.026169788
232	0xbd3ad628	-0.04561439
233	0xbc8cdad1	-0.017194184
234	0xbd172643	-0.036901724
235	0xbd20b01d	-0.039230455
236	0xbd494b66	-0.04914417
237	0xbd4587a1	-0.04822505
238	0xbd1bc7f5	-0.03803249
239	0xbd7bc1a5	-0.06146397
240	0xbd6648e2	-0.05622185
241	0xbd0d0322	-0.034426816
242	0xbd845bb1	-0.06462801
243	0xbd5a1ef0	-0.05325216
244	0xbd5e2322	-0.054232724
245	0xbd3f0bed	-0.046642233
246	0xbc26bbf1	-0.010176645
247	0xbc02ce27	-0.007983721
248	0xbc60400b	-0.013687144
249	0x3b9e604d	0.0048332573
250	0x3cdcc8d7	0.026951237
251	0x3bb0fd4b	0.0054012886
252	0x3c1550e4	0.009113524
253	0x3b83cdc6	0.004022333
254	0x3ba0d54f	0.004908241
255	0xbc541ebf	-0.012946784
