test-data/models/squeezenet1.1_nchw/weights/squeezenet0_conv18_bias.npy (npy, 848 bytes, 1 tensors)

array f4 [192]
0	0x3c7e4b24	0.015520845
1	0xbc07c454	-0.008286554
2	0xbc0b3446	-0.00849635
3	0xba8ec67d	-0.0010892894
4	0x3adb6be6	0.001674053
5	0xbc46c534	-0.012131978
6	0xbc82e696	-0.015979093
7	0x3c36bd39	0.011153513
8	0xbb0e6870	-0.002172973
9	0xbacd62cd	-0.0015669704
10	0x3b28fdf3	0.002578613
11	0x3c5c9b20	0.013464719
12	0x3b833235	0.004003788
13	0xbba297d3	-0.0049619465
14	0xbb969806	-0.0045957593
15	0x3b6c7c32	0.0036084768
16	0xbb9dbc44	-0.004813703
17	0x3baca63f	0.0052688415
18	0xbc2e2c18	-0.01063063
19	0xbc04582d	-0.008077663
20	0x3b704614	0.0036662864
21	0xbb5ff985	-0.0034175825
22	0xbc0d534a	-0.008625815
23	0x3b879cba	0.0041385563
24	0xb840b5ec	-4.5945795e-05
25	0xbb9d499d	-0.004800035
26	0x3c1bd0e8	0.009510256
27	0x3c905678	0.017619357
28	0xbbed52b4	-0.007242525
29	0xbad53d19	-0.0016268819
30	0xbc25e6cf	-0.01012583
31	0x3c2a3984	0.010389689
32	0xbb915ce7	-0.0044361237
33	0x3cd21c45	0.025648246
34	0xbc47612a	-0.012169162
35	0x3c2772f7	0.010220281
36	0x3ba84499	0.0051351306
37	0xb99f1352	-0.00030341238
38	0x3c4cce83	0.012500408
39	0x3b0f8957	0.002190193
40	0x3b83a8f0	0.0040179417
41	0xbbededfd	-0.0072610364
42	0x3c977e89	0.018492954
43	0xbb56ce01	-0.0032776596
44	0xbaf08d06	-0.0018352575
45	0xbc1438de	-0.009046761
46	0xbc209f62	-0.009803625
47	0x3bd910af	0.0066243033
48	0x3bf8be39	0.0075910357
49	0x3aa450c1	0.0012536274
50	0xbc0d6d95	-0.008632083
51	0xbc0a3454	-0.008435328
52	0x3c256b74	0.01009642
53	0xbbd2204b	-0.006412541
54	0x3c5adb75	0.013357987
55	0x3a96c71a	0.0011503429
56	0x3b4a63c3	0.0030882217
57	0x3ca9095e	0.02063435
58	0x3c8115a4	0.01575739
59	0x3bebdfb5	0.007198299
60	0xbc1cd385	-0.009571915
61	0xbc54b139	-0.012981706
62	0xbb949dc1	-0.0045354073
63	0x3bec4c28	0.007211227
64	0x3c019015	0.007907887
65	0x395230f7	0.00020045401
66	0x3ba23333	0.004949951
67	0xba09a950	-0.0005251365
68	0xbbdfba1f	-0.0068276073
69	0x3ba7afdd	0.0051174
70	0xbc016723	-0.007898125
71	0x3c0ac45e	0.008469669
72	0x3bdb438b	0.0066914014
73	0xbc70c046	-0.014694279
74	0x3c5a657d	0.013329861
75	0x3bfc38d5	0.0076972046
76	0x3b412c06	0.0029475703
77	0x3b9664b8	0.0045896433
78	0xbb95d1a8	-0.004572112
79	0xbb0866c0	-0.0020813197
80	0xbc0b204b	-0.008491586
81	0xb7535380	-1.2596021e-05
82	0x3cba7c60	0.022764385
83	0x3b9e9fb6	0.0048408164
84	0x3b999b45	0.004687699
85	0x3b858931	0.0040751924
86	0x39ba1f02	0.00035499787
87	0x3b141ece	0.002260137
88	0x3c1cd38f	0.009571924
89	0x3b87f7d5	0.004149417
90	0x3c4f3d53	0.012648898
91	0x3b961a8a	0.0045808004
92	0xbb55bf4f	-0.003261525
93	0xbc21f1b9	-0.009884291
94	0x3bc5e645	0.006039413
95	0x3c2f598c	0.010702502
96	0xbca241f5	-0.019806841
97	0x3b6eeb1d	0.0036456056
98	0xbbd94b6d	-0.006631306
99	0xbb86fb34	-0.004119301
100	0x3bbc5344	0.0057472307
101	0xbb850ae0	-0.0040601343
102	0xbc1feb28	-0.009760655
103	0xbc46fd01	-0.012145282
104	0xbba1a395	-0.0049328306
105	0xbc16c3a0	-0.009201914
106	0x3c1440ba	0.009048635
107	0x3c02a2ee	0.007973416
108	0x3c00624f	0.007835939
109	0x3ba4694b	0.0050174347
110	0xbc1a70fd	-0.009426353
111	0x3b4cabb2	0.0031230268
112	0x3bf4ca55	0.007470409
113	0x3b95323d	0.004553108
114	0x3bd472b7	0.0064834016
115	0x3c237f2a	0.009979049
116	0xbbfbf57e	-0.007689177
117	0xbc45beb0	-0.012069389
118	0x3c16a565	0.009194707
119	0x3ba07388	0.004896585
120	0x3c3c75bb	0.0115026785
121	0x3c5ab719	0.013349318
122	0xbbc230f8	-0.0059262477
123	0x3c86fdc6	0.01647843
124	0xb9d8d098	-0.00041354145
125	0x3b5d629f	0.0033780707
126	0xbbad02d2	-0.005279877
127	0x3c71ebd7	0.014765701
128	0xbc40d3bf	-0.011769234
129	0x3b2d0f8f	0.0026406979
130	0xbbc599b4	-0.0060302857
131	0x3bbb73e4	0.0057206023
132	0xbb7deab5	-0.0038744633
133	0xbc215a5f	-0.009848206
134	0xbba4379e	-0.005011513
135	0xbb08d202	-0.0020877128
136	0xba792fbc	-0.0009505709
137	0x3b20912d	0.0024500594
138	0xbbd8489c	-0.0066004526
139	0xbb33846b	-0.002739216
140	0xbb67099b	-0.0035253528
141	0xbb8e23bf	-0.0043377574
142	0x3a860ba3	0.0010226857
143	0xbb76c8f5	-0.00376564
144	0xb89eb89b	-7.5684125e-05
145	0xbc4d6980	-0.01253736
146	0x3bbe28e4	0.0058032144
147	0xbb842e36	-0.004033829
148	0xbbd852a7	-0.00660165
149	0x3a4191d6	0.0007384097
150	0x3c06b181	0.008221031
151	0xbc53d413	-0.01292898
152	0x3c20b9ae	0.0098098945
153	0x390d3b02	0.0001346879
154	0x3bcab913	0.0061866133
155	0x3c14e4f7	0.009087793
156	0x3c302700	0.010751486
157	0x3c236021	0.009971649
158	0x3c1ff649	0.009763309
159	0xbc4d148f	-0.012517109
160	0x3bc2084f	0.0059214006
161	0x3ad25e56	0.0016049843
162	0x3810c558	3.4516066e-05
163	0xbc2365ca	-0.009972999
164	0x3b5c2b74	0.0033595236
165	0xbb4b1ab0	-0.0030991249
166	0x3c240de8	0.010013081
167	0x3bb28f15	0.0054491856
168	0xbc07dcfd	-0.008292434
169	0xbb35d205	-0.002774359
170	0x3ba06ee9	0.004896034
171	0x3b52817e	0.003212064
172	0xba97d90b	-0.001158507
173	0x3b82d37c	0.003992496
174	0x3bafdfcf	0.0053672562
175	0x3ab3d683	0.0013720546
176	0x3c549d8f	0.012977018
177	0x3c39b52a	0.011334697
178	0x3bab95f6	0.0052363826
179	0xbba137e0	-0.004919991
180	0xbba6c409	-0.005089287
181	0xbb5bc985	-0.0033536863
182	0xbabd5c64	-0.001444709
183	0x3ca7216a	0.020401675
184	0x3c0441d4	0.008072335
185	0xbb62ccc4	-0.0034606913
186	0xbb1e7261	-0.0024177062
187	0x3aba0406	0.0014191873
188	0x3c1c6ae0	0.009546965
189	0x3a953931	0.0011384842
190	0x3b45cc2d	0.0030181513
191	0xbb8e9d55	-0.0043522515
