test-data/models/squeezenet1.1_nchw/weights/squeezenet0_conv23_bias.npy (npy, 1104 bytes, 1 tensors)

array f4 [256]
000000 39 22 ad 3c 79 78 32 3c 65 ee 3a bb df 81 58 3b
       0.021134483 0.010892981 -0.0028523442 0.0033036394
000010 6c 49 af 3b 66 cf dd 3c c5 6b 0f 3c c3 33 4a 3c
       0.0053493287 0.027076434 0.008753722 0.0123414425
000020 6d 6c aa 3b a6 60 73 3c 31 4a cb b9 89 98 3d 3c
       0.0052009136 0.014854586 -0.00038774454 0.011572012
000030 cb 44 cd 3b 41 b3 1f 3c 0f 7e aa ba ea e5 1a 3c
       0.0062643043 0.009747327 -0.0013007539 0.00945423
000040 65 be 82 3b e1 cb 4b 3c 8f a9 28 3c a5 5f 09 ba
       0.003989982 0.012438745 0.010294332 -0.00052403874
000050 93 ef eb 3b f2 39 fb 3a 39 19 14 3b d2 fd d2 3b
       0.0072001903 0.0019167049 0.0022598042 0.006438949
000060 c1 13 ea 3b 13 52 51 3c c0 46 d7 3b ba 46 e3 bb
       0.007143468 0.012775916 0.0065697134 -0.0069359215
000070 e4 40 88 3c cd 52 10 3b eb 3f b5 3b 74 50 cc bb
       0.016632505 0.002202201 0.0055313013 -0.0062351767
000080 22 33 6c ba 07 2c 63 bb ae 31 ad 3a c3 dd f3 3a
       -0.0009010305 -0.0034663694 0.0013213658 0.0018605519
000090 0a 89 bd b9 fa d8 67 3a a1 b2 d1 3b da ea 29 3c
       -0.0003615099 0.0008844283 0.006399468 0.010370934
0000a0 80 33 23 3b 98 06 95 3a d5 f7 a1 3b 6f e7 2d 3c
       0.0024902523 0.0011369763 0.004942874 0.01061426
0000b0 68 bc 62 bb 83 0d de 3b 11 2c 2b 3c db 8a fd 3b
       -0.0034597162 0.006776513 0.010447518 0.0077375
0000c0 07 17 34 3c 53 5d 38 3b 17 17 b3 bb 86 e1 fd bb
       0.010991818 0.0028131797 -0.005465399 -0.0077478318
0000d0 e4 01 ea ba 1a 6c 6d 3b 98 06 dc 3b 18 fd fe 3b
       -0.0017853347 0.0036227764 0.006714653 0.007781636
0000e0 cc 56 93 3c c2 00 89 3b 1f af 36 ba c5 05 22 3c
       0.017985724 0.0041809985 -0.0006968844 0.009889071
0000f0 d2 79 86 3b 5b 2e 65 3c b7 5b 76 3c 1d 0c c1 ba
       0.0041038776 0.013988103 0.015036515 -0.0014728341
000100 4c 4d 9a 3b 8d b6 a8 3c 6f 95 0d 3c 84 de bc bb
       0.0047089215 0.02059486 0.008641585 -0.0057638306
000110 fc 41 16 3c ba e4 1d 3b 1c da 96 3b e2 34 74 3c
       0.009171005 0.002409263 0.0046036374 0.014905186
000120 a7 b6 8d 3b 70 e3 f7 3a 0c 7d 3f 3b eb 79 d1 bb
       0.0043247524 0.0018912386 0.002921882 -0.0063927076
000130 3b 13 68 3c 7f 43 6d bb 3e 7c 38 3b 1e 4e ba 3b
       0.014164741 -0.003620356 0.0028150226 0.005685582
000140 9b c6 90 bb 46 d4 a0 3b 48 db 2a 3c ba e4 3d bb
       -0.004418207 0.0049081175 0.010428257 -0.0028975443
000150 01 be d3 3a 00 65 28 3b 57 89 87 3a a1 5c 82 3c
       0.0016154648 0.0025694966 0.0010340613 0.01591331
000160 2a fc 43 3c ae 1c 12 3b 0c 81 22 3b 75 ee 81 3c
       0.011961976 0.0022294926 0.0024796156 0.015860775
000170 ff ab e8 ba dc 03 a6 b9 cd 95 8d 3c 94 a1 77 bb
       -0.0017751454 -0.00031664863 0.017283345 -0.0037785517
000180 a0 72 1d bb 5b 64 57 bb 95 e1 9b 3a 16 d4 d2 bb
       -0.002402462 -0.0032866213 0.001189279 -0.006433974
000190 e9 ca 03 bb 53 c3 a8 ba 4b 3d 59 bc 8b 4f 18 3c
       -0.0020109958 -0.0012875594 -0.013259242 0.009296308
0001a0 88 6f 51 3c 87 78 61 3b 4a c8 97 3c 45 8e 9b 3b
       0.012782939 0.0034404115 0.018528122 0.0047471845
0001b0 fe 53 6c 3b db d8 4a 3c 35 4b dd 3a bb 98 b5 3b
       0.0036060805 0.012380804 0.0016883375 0.0055418885
0001c0 1c 19 72 ba 34 0c 8e 3c 8a 37 73 3b 87 73 3f 3a
       -0.0009235309 0.017339803 0.0037111961 0.00073032867
0001d0 49 69 1e 3c 91 e6 35 39 21 78 55 3c e7 08 8e 3c
       0.009668657 0.00017347398 0.013029129 0.01733823
0001e0 a0 ee 9a 3c 3d 91 14 ba c2 a0 2a 3c b9 56 11 3d
       0.018912613 -0.0005667394 0.010414304 0.035483096
0001f0 8f 1f 04 3c fa 89 24 3c 2f a6 e3 3c db 14 10 3c
       0.008064165 0.010042662 0.027789203 0.008794035
000200 9c 20 a5 3b 8b 84 b3 3b 48 0a 83 3c d7 8d 7c 3c
       0.0050392877 0.005478447 0.015996113 0.015414677
000210 f8 88 05 3a 37 ed 8e 3a d9 d8 1f bc c6 cd ab 3b
       0.00050939573 0.0010904436 -0.00975629 0.005243036
000220 de 18 c4 3b 58 f6 7a ba 45 a9 29 3c 91 35 8d 3b
       0.0059844097 -0.0009573451 0.010355298 0.004309364
000230 11 19 85 3c c7 02 ce 3b be af 7e bb 27 a1 9b 3c
       0.016247304 0.006286952 -0.0038862075 0.018997742
000240 84 db 8a 3c 9b 83 5f 3c 28 b8 91 3b 2d 41 0b bc
       0.016950376 0.013642217 0.004447002 -0.008499426
000250 22 85 62 3b 35 ef 93 3a 43 92 0b 3c 7b 0d a3 bb
       0.0034564217 0.0011286499 0.008518758 -0.004975972
000260 8f c2 8e bb 31 b1 b4 3b 16 0f 14 3c bd 8d 33 3b
       -0.0043566893 0.005514287 0.0090368 0.0027397715
000270 db 96 95 3b bb 6f 31 3c a9 9d ad 3b a5 da fd 39
       0.0045651025 0.010829861 0.0052983356 0.00048418823
000280 21 c0 9b bb 21 39 91 3c 51 ab 3c bb cd 40 28 ba
       -0.004753128 0.017727436 -0.0028788636 -0.00064183475
000290 30 e8 17 3c 5c 78 dc 3b 3c 6d 10 3c e6 65 04 bc
       0.009271666 0.006728215 0.008815106 -0.008080935
0002a0 f7 6a 8e ba e3 63 78 3b 4a e1 36 3c eb 32 08 3c
       -0.0010865618 0.0037901334 0.011162112 0.008312921
0002b0 33 b3 89 3b 38 c2 b9 bb e7 ba 0c 3c 0c 51 9a 3b
       0.0042022704 -0.0056689046 0.008589483 0.0047093686
0002c0 19 b2 86 3b b1 1b 95 3b bc 5b 67 3b a1 85 94 3c
       0.0041105864 0.00455042 0.003530248 0.018130125
0002d0 86 87 38 3c f1 4c 9b 3c fb 49 a0 bb 4e 75 9a ba
       0.01126278 0.018957587 -0.0048916317 -0.0011784227
0002e0 26 d1 06 3c c7 dc 42 3c d4 7e 03 ba ea 43 70 3b
       0.008228576 0.011893458 -0.0005016152 0.0036661574
0002f0 19 0d 6e 3c 0a ae dd bb af 59 84 3c fd d9 35 3c
       0.01452949 -0.006765132 0.016156046 0.011099336
000300 1f 93 e2 3b 93 6c c3 3c db ea 7d bb ea f7 b7 3b
       0.006914511 0.023855483 -0.003874472 0.0056142705
000310 b1 51 8d 3c 07 a9 e6 3b 05 29 41 3c dd 9f d3 3b
       0.017250868 0.0070391926 0.011789565 0.006458266
000320 d1 ca 76 3c 6c e1 02 bb 59 0f 89 39 11 b2 77 bb
       0.015063004 -0.0019970788 0.0002614211 -0.0037795345
000330 f8 18 51 bb 41 8c 9c 3c f7 82 47 3c a3 76 40 3c
       -0.0031905752 0.019109847 0.012177221 0.011747035
000340 1b 19 1e 3c a9 9a f5 3b 5c 4b 2a 3c cc ef 0b 3b
       0.00964954 0.0074952436 0.010393944 0.0021352647
000350 ed 12 8d 3a 62 b7 12 3c a5 bc 52 3c 5d fc 62 b9
       0.0010763087 0.008954855 0.012862359 -0.00021647052
000360 ab ad 0f 3c e2 ef 01 bc 2e 5e 1f 3b 1e 83 22 3a
       0.008769433 -0.007930728 0.002431761 0.00061993476
000370 db 7c 18 3c b6 42 cf 3b 00 f8 98 bb 55 50 7b 3b
       0.009307112 0.0063250912 -0.004668236 0.0038347442
000380 41 6e 90 3b 20 11 cb ba e3 a1 52 3c d8 a8 6a 3c
       0.0044076745 -0.0015492775 0.01285598 0.014322482
000390 9f 4c 49 3b 09 81 18 bc 6f 18 54 3b 30 1f 8e 3c
       0.0030715836 -0.009308108 0.0032363196 0.017348856
0003a0 14 db cb 3b c0 61 39 bb 3b 7d 17 ba 8e 52 cf bb
       0.0062211845 -0.0028287023 -0.00057788537 -0.00632698
0003b0 78 8a 33 3c 96 6e dd 3c 8a ee 60 3c e2 d0 e4 3b
       0.0109583065 0.02703027 0.013728747 0.0069829086
0003c0 ab a3 89 3c 1a de 23 3b 67 bd 03 3c 5f d8 6a bb
       0.016801676 0.002500421 0.0080407625 -0.0035834534
0003d0 56 91 24 3c 83 3a d0 3c a4 20 62 3c 85 60 e2 b8
       0.010044416 0.025418526 0.013801727 -0.00010794498
0003e0 76 37 cc 3b c6 95 42 3c fd 60 2f 3b 97 08 b1 b9
       0.0062321974 0.011876529 0.002676069 -0.0003376647
0003f0 c4 81 06 3c ab 63 4f 3a 13 90 f1 3a 51 55 8f bb
       0.0082096495 0.0007911275 0.0018429778 -0.004374184
