image_classification/weights/mobilenet_nchw/conv_16_bias.npy (npy, 656 bytes, 1 tensors)

array f4 [144]
0.11268112 0.2101712 0.036011923 0.25025722 -0.031908058 -0.06099247 0.09992034 0.036048852
0.23140627 0.057774782 -0.16719215 -0.08758175 0.08785989 -0.1482457 -0.021738239 -0.09799791
0.10893053 0.14839955 -0.022687074 -0.1687735 -0.007949819 -0.014722598 -0.060123168 -0.04135738
0.07755774 -0.024189169 0.24015683 0.08049403 -0.17419918 -0.20062336 0.09649553 0.0005476627
0.2607421 -0.0817062 -0.030289633 -0.14638272 0.1867843 0.19464356 0.055602457 -0.064368434
-0.04051857 -0.007784473 -0.280657 0.13312255 0.03845551 -0.046372797 0.33193666 0.16904886
0.09403395 0.21422593 0.08889471 0.058106072 -0.00923946 -0.33114037 0.23959601 0.025420066
0.027736304 0.1690399 0.21221092 0.1326511 -0.0061092814 0.0637514 0.19767769 0.24828234
0.03503174 -0.18559551 -0.0762559 -0.011578836 -0.05636476 -0.07697461 0.15019315 0.1567204
-0.03514657 -0.060628783 -0.2887316 0.014761403 0.27141833 -0.0029797913 -0.19830622 0.2049417
-0.05413335 0.16801314 0.16754521 -0.20185357 0.056473892 -0.09459327 0.22799504 -0.12627456
0.03131889 -0.3290396 -0.1664556 0.024476806 0.29081315 -0.062161937 -0.258596 0.13857616
-0.0090936525 -0.17159966 0.16847959 0.038395174 0.04973221 0.2726677 -0.09386206 -0.029014995
-0.23894818 -0.006310243 0.16627797 0.13535573 0.07120967 0.1806802 0.21664007 0.013437433
-0.08459989 0.021017907 0.06891427 0.20298897 0.24036287 0.0819355 0.16137566 0.21114618
0.14135487 -0.0040036426 0.15564892 0.16878292 0.21967137 -0.023673497 -0.046596937 0.0367427
0.055294257 0.008610148 0.13612308 0.20817916 0.15872496 0.010870342 0.18819535 0.24864198
0.12983981 -0.054243993 0.14643049 -0.16537043 0.045921057 -0.014846371 0.11611996 -0.030912058
00000000: 5cc5 e63d 1e37 573e 3d81 133d b721 803e
00000010: 06b2 02bd 3dd3 79bd 09a3 cc3d f6a7 133d
00000020: c4f5 6c3e 40a5 6c3d 6b34 2bbe 0f5e b3bd
00000030: e3ef b33d b9cd 17be 6414 b2bc 21b3 c8bd
00000040: f816 df3d 0df6 173e 3eda b9bc f6d2 2cbe
00000050: f53f 02bc 0d37 71bc b643 76bd 5b66 29bd
00000060: 98d6 9e3d 5d28 c6bc aceb 753e 0eda a43d
00000070: 4561 32be 3670 4dbe 739f c53d 0691 0f3a
00000080: fd7f 853e 9555 a7bd f721 f8bc 5ae5 15be
00000090: 6244 3f3e a450 473e 67bf 633d 99d3 83bd
000000a0: cdf6 25bd e414 ffbb 46b2 8fbe 4751 083e
000000b0: 8683 1d3d 67f1 3dbd 9af3 a93e 251b 2d3e
000000c0: df94 c03d 0b5e 5b3e 6e0e b63d a200 6e3d
000000d0: 1b61 17bc 3b8b a9be a858 753e be3d d03c
000000e0: 3f37 e33c cc18 2d3e d24d 593e b1d5 073e
000000f0: 5e30 c8bb 1890 823d 056c 4a3e ba3d 7e3e
00000100: 717d 0f3d c00c 3ebe 0e2c 9cbd 28b5 3dbc
00000110: bcde 66bd dda4 9dbd 3ccc 193e 507b 203e
00000120: daf5 0fbd e355 78bd a1d4 93be d0d9 713c
00000130: 58f7 8a3e 9a48 43bb c910 4bbe 3ddc 513e
00000140: eeba 5dbd a30b 2c3e f990 2b3e b4b2 4ebe
00000150: 2b51 673d 1eba c1bd 8877 693e 1e4e 01be
00000160: 3d48 003d e177 a8be 5673 2abe 9583 c83c
00000170: 76e5 943e 849d 7ebd b266 84be e9e6 0d3e
00000180: 8bfd 14bc d2b7 2fbe ea85 2c3e 4244 1d3d
00000190: 00b4 4b3d 1a9b 8b3e c03a c0bd dbb0 edbc
000001a0: d5ae 74be 28c6 cebb c644 2a3e b19a 0a3e
000001b0: 60d6 913d 3b04 393e e5d6 5d3e ae28 5c3c
000001c0: b542 adbd bf2d ac3c ed22 8d3d 57dc 4f3e
000001d0: af21 763e cdcd a73d a93f 253e b436 583e
000001e0: 55bf 103e fd30 83bb 6e62 1f3e 6ed5 2c3e
000001f0: 88f1 603e ecee c1bc 6edc 3ebd 837f 163d
00000200: 3b7c 623d 9411 0d3c d963 0b3e eb2c 553e
00000210: cc88 223e 8519 323c 48b6 403e 019c 7e3e
00000220: baf4 043e f32e 5ebd e0f1 153e de56 29be
00000230: b817 3c3d 313e 73bc 4dd0 ed3d 493b fdbc
