image_classification/weights/mobilenet_nchw/conv_80_weight.npy (npy, 34640 bytes, 1 tensors)

array f4 [960, 1, 3, 3]
000000 2f ad d9 3d cc e6 15 3f 07 c5 f4 3d 26 3e e2 3e
       0.10628735 0.58555293 0.119516425 0.4418804
000010 a7 3e 0a 40 55 16 44 3f 91 33 9c 3e 2e 0b 95 3e
       2.160074 0.76596576 0.30508092 0.29110092
000020 9d b0 c9 3e 92 02 4b bf 45 7b 42 be ef ca 85 bf
       0.39392558 -0.79300797 -0.18992336 -1.0452555
000030 e1 35 15 bf c3 85 3b 40 5d f5 2f 3e b3 07 00 3f
       -0.5828534 2.9300392 0.17183442 0.5001175
000040 37 a6 ec 3f 19 3d 1c 3f 17 fc f5 be 7d 6a a7 3e
       1.8488225 0.6103073 -0.48043892 0.32698432
000050 fb e5 14 bf d4 4f 67 bf 81 96 13 c0 bb 9d 6f bf
       -0.5816342 -0.90356183 -2.306061 -0.9360005
000060 44 f7 a8 3f 1e 28 da 3f 31 25 b6 3f aa a0 a4 be
       1.320046 1.7043493 1.42301 -0.32153827
000070 73 c9 ba be 0f b1 c8 be da e0 96 be 3f 71 93 be
       -0.3648182 -0.39197585 -0.29468423 -0.28797337
000080 89 eb bf be 0f 41 96 be fa 56 91 be aa 80 ca be
       -0.37484387 -0.2934651 -0.2838667 -0.39551288
000090 d2 38 2b 3e 31 3e 8c 3e 18 91 fa 3d 42 7a 5f 3e
       0.16720894 0.27391198 0.12234706 0.21823981
0000a0 75 ed e3 3f e6 36 a7 3e 10 cb 1d 3e 7a 7e ce 3e
       1.7806841 0.32659072 0.15409493 0.4033087
0000b0 b5 d7 3b 3e e1 aa f0 be e4 e8 80 be 97 ac f8 be
       0.18344004 -0.4700537 -0.2517768 -0.48569176
0000c0 ef 38 b7 be dd d0 0c be 21 c0 bd be 7d 7c be be
       -0.35785624 -0.1375155 -0.37060645 -0.37204352
0000d0 bc f4 e0 be bc c8 ec be 52 67 8a 3e d4 80 40 3f
       -0.43936718 -0.46246898 0.27031952 0.75196576
0000e0 86 17 b8 3e db b6 ca 3f e9 9e 6b 3e b3 99 6d bf
       0.35955447 1.5837053 0.23009838 -0.9281265
0000f0 51 1b 6b 3f 7c e7 ef 3e f0 1f 5c be 8e a4 f7 3e
       0.91838557 0.46856296 -0.21496558 0.48367733
000100 71 b3 a2 bf a8 22 cb 3e 4b 8c 7d 3f af 1e 04 c0
       -1.2711011 0.39674878 0.99042195 -2.0643728
000110 ef 3e 8f 3f d0 87 d8 3e 2e a3 92 bf df fb ce 3e
       1.1191081 0.42291117 -1.1456048 0.40426537
000120 5a 3c 51 be 48 2c e3 be 6d d3 96 be 7c d8 a1 be
       -0.20433179 -0.4436972 -0.2945818 -0.31610477
000130 f9 3b a9 be 79 eb af be 19 dc b0 be c5 a6 ac be
       -0.33053568 -0.3435934 -0.3454292 -0.33720985
000140 83 34 bf be 86 35 c2 be a1 77 60 be 96 62 b8 be
       -0.3734475 -0.3793146 -0.21920635 -0.36012715
000150 00 b8 a9 be 78 58 db be aa ed c3 be ec 8f a0 be
       -0.33148193 -0.42840934 -0.3826726 -0.31359804
000160 72 fb 87 be 53 4b ab be 75 89 82 be 7b 9c 06 bf
       -0.26559025 -0.33455905 -0.25495496 -0.5258252
000170 9b 9b 93 be 59 a5 00 bf fc b3 33 bf 9f d3 12 bf
       -0.28829655 -0.502523 -0.7019651 -0.5735416
000180 ca 05 c4 be 0e 57 cc be f5 fc e7 be 9c 8e 1c be
       -0.38285667 -0.39910167 -0.45310178 -0.15288776
000190 19 78 73 3f 05 c8 a2 3d af ba 8a 3f 71 74 26 40
       0.9510513 0.07948307 1.0838221 2.600857
0001a0 de 73 a7 3f 0e 17 74 3e 2f 3f 66 3f 86 1e a2 3e
       1.3082235 0.2383692 0.8994016 0.31663913
0001b0 c6 a7 c2 3d 72 99 08 3f f1 df c5 3d 2a 58 e2 3e
       0.095046565 0.5335914 0.09661854 0.4420789
0001c0 ca 2b 3c 3f 44 f8 04 3f 31 e4 95 3e 3c 2c e7 3e
       0.73504317 0.51941323 0.2927566 0.45150936
0001d0 a0 1c aa 3e cf fe 66 be 95 0d 8b be 14 87 7e be
       0.33224964 -0.2255814 -0.271588 -0.24856216
0001e0 ea c6 8a be a2 db eb be cb ed ab be 82 06 c2 be
       -0.27104884 -0.46066004 -0.3357986 -0.3789559
0001f0 b0 6e c6 be 34 bd bd be ab 83 81 be 28 2e a3 be
       -0.38756323 -0.37058413 -0.25295767 -0.31871152
000200 cc 97 9d be 81 11 ce be 0d 67 9f bf 08 2c d4 be
       -0.30779874 -0.4024773 -1.2453324 -0.41439843
000210 9b 9e 3e 3f 2d fc 0a 40 aa 3b 72 3f 1c a9 c2 3e
       0.7446076 2.1716416 0.9462229 0.38019645
000220 35 71 62 3f a6 7c ef 3e ae a2 ac be 78 24 67 3f
       0.8845399 0.46774787 -0.33717865 0.9029002
000230 fe 8d 93 be d8 1d 0d bf 51 a0 76 bf d9 54 12 bf
       -0.2881927 -0.5512366 -0.96338373 -0.5716072
000240 bd f8 32 be da d5 bf be c6 7e 32 be bd 6e 73 be
       -0.17477699 -0.37467843 -0.17431173 -0.23772712
000250 82 18 8d be dc e8 95 be 63 dc 6b be 9f b4 a0 be
       -0.2755776 -0.2927922 -0.2303329 -0.31387803
000260 dd 49 99 be 20 01 92 be d3 0f d8 be 14 f8 a5 be
       -0.29939166 -0.28516483 -0.42199573 -0.3241583
000270 d2 db fe be c3 d8 9e 3e 0d 0f cf be bf 5f 05 bf
       -0.49777085 0.3102475 -0.4044117 -0.5209922
000280 08 3b 3f be 0c 80 0d bf a0 af 0a bf dc 54 f3 3d
       -0.18674862 -0.5527351 -0.5417423 0.1188142
000290 72 4c ff 3e a7 cf 94 bf 24 a2 a3 be 8a 25 9c 3f
       0.4986301 -1.162587 -0.3195964 1.2198956
0002a0 cd 58 00 bf 41 53 f8 bd 16 a7 0e 3f 62 03 d8 be
       -0.501355 -0.121252544 0.557237 -0.4219008
0002b0 59 87 65 be 2d 94 f0 be a4 10 81 be d4 ed 8d bd
       -0.22414912 -0.4698805 -0.25208008 -0.06930128
0002c0 20 2e 90 be 23 cb d7 be 05 92 9b be 99 6c ed be
       -0.2816019 -0.4214717 -0.30384842 -0.46371916
0002d0 d7 3b 28 3f cf 7b 7f be 6a ac e0 be 64 36 c0 3f
       0.6571631 -0.24949573 -0.43881541 1.5016599
0002e0 ae 70 fd bd f0 bb a7 bf ff e1 12 3f 86 81 66 be
       -0.123750076 -1.3104229 0.5737609 -0.22510347
0002f0 b1 77 d9 be 34 87 69 3f 27 7c bd 3f 28 20 85 3f
       -0.4247413 0.9122193 1.4803513 1.0400438
000300 30 e6 ef 3b ac 21 80 bf b7 e3 82 3d 06 c8 c3 be
       0.0073211417 -1.0010276 0.063910894 -0.38238543
000310 71 43 25 bf 47 d0 cb be 03 9d b1 bd 66 22 93 be
       -0.6455603 -0.3980734 -0.08672526 -0.2873718
000320 67 99 08 be 6f d7 99 be 1c 59 b9 be cd 44 97 be
       -0.13339768 -0.30047175 -0.36200798 -0.29544678
000330 3d fd 7b be 91 ab c2 be fe d8 96 be 6a fe cc be
       -0.24608321 -0.3802152 -0.29462427 -0.40037853
000340 7f 76 37 3d e0 44 31 3f 40 0f 83 bf 96 6a 30 bf
       0.04479074 0.6924572 -1.0239029 -0.6891264
000350 b2 ce a0 3f 6d f1 46 bf 28 83 bf bd e5 be 43 3f
       1.2563078 -0.77712137 -0.09351188 0.76463157
000360 b1 2a bc 3e 62 cb 7b be 74 61 bf 3e 13 04 06 3f
       0.3675132 -0.24589303 0.37379038 0.52349967
000370 1e 66 b8 bf e5 20 e2 3e 9e 8f 2a 3f 78 b4 42 3f
       -1.4406164 0.44165722 0.6662539 0.76056623
000380 f6 af 44 3f 9f 7f c6 be c2 0d 4b be 1c 42 d2 be
       0.76830995 -0.38769242 -0.19829467 -0.41066062
000390 cb 0c d3 be 2c f5 0c 40 6f 37 83 be ab aa dd be
       -0.41220698 2.202464 -0.2562823 -0.43294272
0003a0 9b 69 8c bd 6d 8e fe be 34 84 a3 be 9b 84 9e bf
       -0.0685608 -0.49718037 -0.319368 -1.2384218
0003b0 0b 0e ff be c5 04 11 be 15 f3 62 3e ed 3f f3 3c
       -0.498154 -0.14161976 0.22163041 0.029693568
0003c0 22 7f 1a 3f 28 e2 c3 3f ab c2 33 3f 33 11 a2 be
       0.6035024 1.5303392 0.70218915 -0.31653747
0003d0 46 ce e1 be 42 3b b0 be aa cf 04 bf cf ed 21 be
       -0.44102687 -0.3442021 -0.5187937 -0.15813373
0003e0 8c 59 0c bf 1c 83 6d be d8 93 34 bf 35 ff 94 be
       -0.5482414 -0.23194546 -0.7053809 -0.29100958
0003f0 d2 91 b6 be d7 f8 1c bf c4 e6 e3 be 37 66 ff be
       -0.35658127 -0.613172 -0.44511998 -0.4988267
