image_classification/weights/mobilenet_nchw/conv_33_bias.npy (npy, 848 bytes, 1 tensors)

array f4 [192]
00000000: ee68 73bc 0b11 a53d a3f8 7f3e 5715 84bd
00000010: 29c7 853e 9197 4f3e e6e0 e5bc 943b 543d
00000020: 1203 f63c 2791 493e 9bb9 ae3d 8374 043c
00000030: 4140 653e a34b 263e cf99 613e 9307 9cbd
00000040: 4764 c63d 214d 1bbe 2bbe 8b3e 55bd 3f3e
00000050: 6521 a6bd 1e44 db3d 0d09 893e 1f28 f7bd
00000060: 2676 8f3d 9d76 033e 526f 533e 1687 863c
00000070: b58d 05bd bf6b a5bc 7eb5 2a3d 0723 ed3d
00000080: ac13 77bd d17c 9cbd 22f1 aabd f5d9 693e
00000090: c446 b8bd 333f 63bd 8fb9 9dbc 6b7a 9f3e
000000a0: aa80 613e 2d22 fa3d 6dc6 87be 1af8 e73d
000000b0: 2a7e 8ebc bb9d e93d ad5a 9abd a4b4 1bbd
000000c0: efaf e23d 2e51 603e 4208 d63b d2e8 813d
000000d0: 4dbd c1bc 8eb1 173d d1b6 cd3d a913 f43d
000000e0: 4170 0b3e d439 e0bd 1e78 813d 203e ac3d
000000f0: d537 033e ae94 2a3e aaa2 7ebd 98d9 2fbe
00000100: cfcf ff3d 8666 a4bc 3390 b23d 55c6 0cbe
00000110: dfbf a2bd 4f9a cab9 7910 0cbd 4f8e 383d
00000120: 237f 8ebd a32c f73d 999f 82bd eab5 633e
00000130: b43c 123e bfa7 093e 49db 863e 9538 9cbc
00000140: 0954 193e a267 75bc 0e49 7ebd aef9 2e3e
00000150: 794d ce3d bd76 083e 0564 af3d fe8d 0bbc
00000160: 9f76 adbc d105 b8bd a5d2 923b 72e4 db3b
00000170: ad44 523c ffac 7fbd 1956 f63d 750f 143e
00000180: e9ae c4bd ecfb 203e 3416 26be 4dec 983d
00000190: b242 7cbd 4d71 813e 96a1 f7bd 1989 b53d
000001a0: 40fb bdbd 1fc5 10bd 1dd0 423d 0827 573e
000001b0: e956 11be aa77 d13c 379d 583e 33a8 723e
000001c0: d8ad 8f3d 7855 6b3e edc6 6b3d e5aa b23d
000001d0: 44f3 8c3d ea7f f3bd 557a 183e d42c 0ebe
000001e0: ecc2 eb3b 2147 c3bd 406b 0d3e 8430 9d3d
000001f0: 7c4b 4f3d 10af 873d 355c 883e d4ba 063e
00000200: dbed 3f3e cf58 19bd 5d61 4abd 530b 13be
00000210: 0e5a 9cbd 0240 e53d 5896 15bd ceff c03d
00000220: d5d0 ef3d e6dc d63b 2096 b73d ad65 083e
00000230: b071 2d3e 0b49 e23d 0423 e53d 7b6f c8bd
00000240: dea3 adbd 4907 483e 05de c03d 0c2d f0bc
00000250: a8e9 cabd 5034 4f3e cd82 00be ff62 743d
00000260: 7e96 c4ba 0e2d 14be d784 b2bd 0a23 0cbb
00000270: abe9 423e 8a52 84bb a24f 523e 9593 523d
00000280: 4ed5 d9bb a521 febb 2819 02be 4eb3 06be
00000290: 8fd8 99bc 4776 d5bd 0d1e 6ebe 0aca 843e
000002a0: 00f7 7a3d 5318 f13d c5f0 3a3e 2a67 773e
000002b0: 3fec 08be 4b9c d43d 9de9 6e3e 479e 89bd
000002c0: 4939 d8bd 7d2d 233d 0d49 13bd 9935 403e
000002d0: 75a1 a73d c710 13be 2c07 cb3d a3e5 a0bd
000002e0: 63f1 633e 5882 663e 9b4e 3ebd 3ebb 063e
000002f0: bd15 043e dee8 343d 78b1 db3b 0237 4abe
-0.01485656 0.08059891 0.24997191 -0.06449383 0.2612851 0.20272662 -0.028061341 0.05181463
0.03003076 0.19684277 0.08531495 0.008084419 0.22387792 0.1623979 0.2203133 -0.07618632
0.09687095 -0.15166141 0.27293524 0.18724568 -0.08111838 0.10706352 0.26764718 -0.12068199
0.07004957 0.12838216 0.20647934 0.016421836 -0.032605845 -0.020192979 0.04167699 0.115789466
-0.060321495 -0.07640994 -0.08346774 0.2283705 -0.089978725 -0.055480193 -0.01925352 0.31148085
0.22021738 0.1221355 -0.26518574 0.113266185 -0.017394144 0.11407038 -0.07536826 -0.03801407
0.11068713 0.21905968 0.006531746 0.06343235 -0.023649836 0.037034564 0.10044635 0.119178124
0.1361704 -0.1094853 0.06321739 0.08410287 0.12814267 0.1665828 -0.062166847 -0.17172849
0.12490808 -0.020068418 0.0871891 -0.13747533 -0.07946753 -0.0003864341 -0.034195397 0.04505759
-0.06957843 0.12069061 -0.06378097 0.22237363 0.14280969 0.13442896 0.26339176 -0.01906995
0.14973463 -0.014978321 -0.06208139 0.17087433 0.100733705 0.13326545 0.08563999 -0.00851774
-0.021174727 -0.089854844 0.004480677 0.0067105824 0.012833756 -0.06242084 0.120281406 0.14459021
-0.09603674 0.157211 -0.16219407 0.07466946 -0.061587043 0.25281754 -0.12091367 0.0886404
-0.09276438 -0.03534424 0.047561754 0.21010983 -0.1419331 0.025569756 0.21153723 0.23696975
0.0701558 0.22981822 0.057562757 0.08724002 0.06882337 -0.11889632 0.14890416 -0.13884288
0.0071948674 -0.09535051 0.13810444 0.07675269 0.050609097 0.066251874 0.26632848 0.13157207
0.18743078 -0.03743821 -0.04940926 -0.14359789 -0.07634364 0.11193849 -0.036520332 0.09423791
0.117097534 0.006557095 0.08964181 0.13320036 0.169379 0.11049088 0.11188319 -0.09786888
-0.08478521 0.19534029 0.09417347 -0.029318355 -0.09907848 0.202348 -0.12549897 0.059664723
-0.0014998463 -0.14470312 -0.087167434 -0.002138319 0.1903445 -0.0040381597 0.2053819 0.051410276
-0.0066477424 -0.0077554756 -0.12704909 -0.13154337 -0.018780021 -0.1042295 -0.23253651 0.25935394
0.061270714 0.117722176 0.18255909 0.24160448 -0.1337137 0.10381373 0.23331304 -0.06719642
-0.10557801 0.039838303 -0.03595834 0.18770446 0.08185092 -0.14361869 0.09913477 -0.078563
0.2226005 0.2251066 -0.046461683 0.13157365 0.12898917 0.044167392 0.0067045055 -0.19747546
