image_classification/weights/mobilenet_nchw/conv_5_weight.npy (npy, 6224 bytes, 1 tensors)

array f4 [96, 16, 1, 1]
0.13475935 0.023874376 0.11375579 -0.0964085 -0.096858315 0.010120559 0.2752919 0.017477972
-0.016059753 -0.2743229 -0.013028971 0.002024196 0.36578253 -0.12425503 -0.16442436 -0.20046759
0.041525155 0.060807664 0.10226828 0.10082046 -0.14524789 -0.25481665 -0.073911265 -0.10564487
-0.18287668 -0.16989948 -0.04831166 0.06551732 -0.1357694 0.05894609 0.0059684063 -0.07875319
-0.022498133 -0.016805636 -0.044640593 0.024751816 -0.0024041617 0.025162864 -0.09764451 0.039275575
-0.014651118 0.017250724 -0.010655934 -0.03326078 0.010679695 -0.041068733 -0.048934955 0.028607717
-0.008719815 0.10657055 0.033053488 -0.266515 -0.0016751456 -0.061548527 -0.10659504 -0.18484648
0.11775283 0.063142195 -0.080026455 0.16558562 0.044186685 0.081510626 -0.14608932 0.09470681
0.028125444 -0.027059654 0.054058522 -0.1438788 -0.058919787 0.08198128 0.026936203 -0.091024056
-0.031352796 0.009411717 0.07706283 0.09320693 0.010212 0.04345339 0.027045485 -0.020479951
-0.033293873 0.00725835 0.017118061 -0.061785314 0.0055605597 0.08940747 0.11113713 -0.08858984
-0.02423878 -0.038762882 -0.07047249 0.003546726 -0.09308987 -0.11189542 0.15232745 -0.056706548
0.027242128 0.08786498 0.07099168 0.065359265 -0.07189723 -0.1864397 -0.1045617 -0.0064566154
-0.117918685 -0.08095182 -0.048478562 0.17965893 -0.14124076 0.12994942 0.00489659 -0.08189112
0.012801114 0.16442251 0.048313584 -0.02718583 0.011123803 0.10016214 -0.052902654 0.11204528
-0.017354151 0.14912161 0.0034789937 0.14945593 -0.003785762 0.054057237 -0.07105962 -0.08501787
-0.25249854 -0.057523828 0.2829334 -0.00040730863 -0.040403992 -0.020083385 -0.10115024 -0.02348653
0.036483373 0.32167846 0.15752873 -0.00093777245 -0.39873302 -0.055596597 0.17492451 0.15853138
0.012476668 0.12039023 -0.010110997 0.0755968 -0.07413213 -0.011503339 0.020368733 -0.03334723
-0.061211493 -0.010426394 0.006438926 0.03920734 -0.02526326 0.04766505 -0.008255112 0.037162434
0.08163308 -0.13866287 -0.026041556 -0.4487364 0.028712869 -0.04466477 -0.085936755 0.15944281
-0.28822628 0.13850886 0.2727807 -0.044186015 0.08656977 0.22558546 0.038293242 -0.003835492
-0.064881004 -0.008199013 -0.06465014 0.19826601 -0.026148764 -0.10432116 -0.19548441 0.1643191
0.028473409 0.17141013 0.07058915 -0.06524977 -0.078285195 0.16366413 -0.21261722 0.07988813
0.03685659 0.027353594 -0.029369473 -0.0016417522 0.029701687 0.051087655 0.00143477 0.026254805
0.04052228 -0.0041045863 -0.008516176 0.02229277 0.0067392685 0.001684478 0.032998 0.055305474
0.03790422 -0.05539034 -0.0010164963 -0.03128662 -0.08561935 0.052929822 0.017049398 0.058491252
0.014687651 -0.06930774 -0.0037893287 -0.043210644 -0.03379776 0.08830151 0.026104668 0.04947343
-0.08096403 -0.034735255 0.04026314 0.099706456 0.07478444 0.056206185 -0.00081456546 -0.103885606
-0.06351844 -0.009069677 0.014777195 0.05748993 0.06793479 -0.0005631658 -0.038583316 0.041170765
0.021621719 0.07972063 0.12504733 0.11153437 -0.25576836 -0.07665427 0.0049562124 -0.15407035
-0.10568789 0.090461746 0.08385133 -0.23075601 -0.039392292 0.082201704 -0.29929602 -0.19469845
00000000: 5bfe 093e 3294 c33c ccf8 e83d d271 c5bd
00000010: a75d c6bd b3d0 253c 0ff3 8c3e f72d 8f3c
00000020: be8f 83bc 0d74 8cbe 7777 55bc 60a8 043b
00000030: d947 bb3e 6c79 febd dc5e 28be 6047 4dbe
00000040: 4816 2a3d 7511 793d 0872 d13d f57a ce3d
00000050: ddbb 14be 5477 82be ca5e 97bd 565c d8bd
00000060: 0644 3bbe 21fa 2dbe 72e2 45bd f22d 863d
00000070: 2207 0bbe 7571 713d 9f92 c33b 5a49 a1bd
00000080: 014e b8bc f9ab 89bc 0ed9 36bd 52c4 ca3c
00000090: 248f 1dbb 5a22 ce3c d8f9 c7bd 6ddf 203d
000000a0: 3e0b 70bc 6451 8d3c 3a96 2ebc 753c 08bd
000000b0: e3f9 2e3c b037 28bd 0570 48bd bb5a ea3c
000000c0: 8edd 0ebc a941 da3d 1863 073d a774 88be
000000d0: 8f90 dbba 4f1a 7cbd 804e dabd 6548 3dbe
000000e0: 6528 f13d b250 813d e9e4 a3bd 478f 293e
000000f0: 19fd 343d 0bef a63d 7098 15be a5f5 c13d
00000100: 5567 e63c 35ac ddbc 786c 5d3d f754 13be
00000110: e055 71bd cde5 a73d 50a9 dc3c d26a babd
00000120: ca6b 00bd 9a33 1a3c 1ed3 9d3d 46e3 be3d
00000130: 3c50 273c 2ffc 313d 7e8e dd3c 92c5 a7bc
00000140: 285f 08bd 74d7 ed3b 2d3b 8c3c 9912 7dbd
00000150: 5b35 b63b 431b b73d dd9b e33d 976e b5bd
00000160: 6890 c6bc d4c5 1ebd e153 90bd 3070 683b
00000170: e7a5 bebd 6d29 e5bd bafb 1b3e 2045 68bd
00000180: e22a df3c 8ef2 b33d 1664 913d 14db 853d
00000190: db3e 93bd 0cea 3ebe 7224 d6bd 0492 d3bb
000001a0: 5a7f f1bd 11ca a5bd 7591 46bd 83f8 373e
000001b0: 6ba1 10be 7611 053e 9373 a03b 88b6 a7bd
000001c0: c3bb 513c 605e 283e 77e4 453d d1b4 debc
000001d0: 9d40 363c cf21 cd3d 74b0 58bd ff77 e53d
000001e0: 4b2a 8ebc 56b3 183e d4ff 633b fa0a 193e
000001f0: 8c1a 78bb 1f6b 5d3d b587 91bd d91d aebd
00000200: 7d47 81be 1b9e 6bbd a6dc 903e 0a8c d5b9
00000210: a87e 25bd e985 a4bc db27 cfbd d366 c0bc
00000220: 976f 153d 0ab3 a43e 364f 213e d8d4 75ba
00000230: bc26 ccbe 42b9 63bd 691f 333e 0d56 223e
00000240: f06a 4c3c 278f f63d 98a8 25bc 7fd2 9a3d
00000250: 96d2 97bd 8078 3cbc 54dc a63c 1b97 08bd
00000260: e7b8 7abd 77d3 2abc a0fd d23b e097 203d
00000270: e5f4 cebc 6d3c 433d 7340 07bc a337 183d
00000280: 3f2f a73d a4fd 0dbe 1a55 d5bc c7c0 e5be
00000290: 4037 eb3c 68f2 36bd 9cff afbd fa44 233e
000002a0: 6592 93be 44d5 0d3e e9a9 8b3e 65fc 34bd
000002b0: 7e4b b13d e0ff 663e 60d9 1c3d e15c 7bbb
000002c0: 55e0 84bd 2755 06bc 4b67 84bd 3f06 4b3e
000002d0: ef35 d6bc 55a6 d5bd 112d 48be 4443 283e
000002e0: 1141 e93c 2386 2f3e 0b91 903d aca1 85bd
000002f0: fd53 a0bd 9297 273e 54b8 59be 639c a33d
00000300: f0f6 163d a514 e03c 4098 f0bc 1030 d7ba
00000310: f450 f33c 4a41 513d e40e bc3a 5114 d73c
00000320: b1fa 253d c47f 86bb 6e87 0bbc 549f b63c
00000330: 15d5 dc3b b4c9 dc3a e928 073d fe87 623d
00000340: 7541 1b3d fbe0 62bd f53b 85ba 6626 00bd
00000350: 3359 afbd f1cc 583d 2eab 8b3c 8694 6f3d
00000360: 79a4 703c 37f1 8dbd 6356 78bb a5fd 30bd
00000370: 856f 0abd 6cd7 b43d 75d9 d53c a7a4 4a3d
00000380: 78d0 a5bd 8e46 0ebd f6ea 243d e632 cc3d
00000390: 9628 993d 7538 663d 9088 55ba fac1 d4bd
000003a0: f515 82bd fc98 14bc 0c1c 723c 907a 6b3d
000003b0: 6521 8b3d 6ba1 13ba 8a09 1ebd ada2 283d
000003c0: 0820 b13c 9244 a33d 680c 003e 226c e43d
000003d0: 12f4 82be eafc 9cbd b967 a23b 9ec4 1dbe
000003e0: e472 d8bd 0244 b93d 3fba ab3d 4e4b 6cbe
000003f0: d059 21bd 5e59 a83d 543d 99be 085f 47be
