image_classification/weights/mobilenet_nchw/conv_33_weight.npy (npy, 24656 bytes, 1 tensors)

array f4 [192, 32, 1, 1]
000000 28 f5 1b 3d d9 7b 33 3e 3c 30 9d 3d 29 a2 d0 3b
       0.038075596 0.17527713 0.076752156 0.0063669872
000010 86 d4 fa bc d1 a3 bb 3d 63 88 34 3b 45 ef 46 3b
       -0.030618917 0.09162105 0.0027547113 0.0030355018
000020 b3 f5 28 bc a2 b3 94 3d cb 43 81 bb 6f 2c 2a 3a
       -0.0103124855 0.07260825 -0.003944849 0.00064916065
000030 a6 9a e4 3c bf 13 cc 3c a7 7a c6 bd a2 e5 73 bd
       0.027905773 0.02491176 -0.09691363 -0.059545167
000040 c4 98 ea bb 13 8e 14 3d 24 1e a0 3d bf 8e 5a bd
       -0.0071593244 0.036268305 0.07818249 -0.05335879
000050 bf 6e 1c 3c ab 0f be 3d 1b ea cc 3d 79 a9 a4 3c
       0.009547888 0.09280332 0.100055896 0.020100342
000060 3e 5a cf bd 86 37 97 3d ed 3d 3a bd 7c 1a 58 bd
       -0.10124634 0.07383637 -0.045469213 -0.052759632
000070 32 17 e1 bc 29 ca 56 3d 16 4f 63 bc 5d 0e 73 3c
       -0.02747688 0.05243889 -0.013873836 0.014834967
000080 7c 98 08 3c 20 81 62 3c 5f 45 af 3c d6 f0 dc 3c
       0.008337136 0.013824731 0.021395383 0.026970308
000090 d1 b7 89 bb c7 99 87 bd 99 12 47 3c 10 50 8f bd
       -0.004202821 -0.066211276 0.01215043 -0.069976926
0000a0 fa f1 73 3d cb a4 bf bd 56 46 64 bc f8 16 5a bc
       0.05955694 -0.09357604 -0.013932785 -0.01331114
0000b0 b1 0b 84 39 0a 26 14 3d ec b1 77 bd 6b 4c a7 3c
       0.00025185713 0.03616909 -0.060472414 0.020422181
0000c0 27 0e 3b 3d 2c 34 30 bd be 19 99 bd c9 45 0d bc
       0.045667794 -0.043018505 -0.07475613 -0.008622595
0000d0 fc 10 3c 3d a1 ae 0a 3d 84 8b d8 3c 1d 97 18 3b
       0.045914635 0.033857945 0.026433714 0.002328343
0000e0 83 57 e6 3b a8 4a 43 3d e4 7c 09 3a a2 49 3b 3d
       0.007029475 0.04767862 0.00052447454 0.04572452
0000f0 c5 88 a5 3b 69 04 15 3a 0f 34 94 3c ec 88 16 bc
       0.0050517046 0.0005684556 0.01809123 -0.009187918
000100 a6 18 16 bb 3f 11 85 bc 49 7f 2b 3d 85 0e 97 bc
       -0.0022902875 -0.016243575 0.041869435 -0.01843954
000110 eb 12 c8 3c 0b 97 72 bc df 19 3a 3c eb f9 d7 bc
       0.024423083 -0.014806519 0.011358707 -0.026364287
000120 49 91 7a bc 89 ca 84 ba c7 c4 97 bd 93 18 b1 3c
       -0.015293428 -0.0010131161 -0.07410579 0.021618163
000130 5f 69 87 3c e7 f6 1c 3d ce c6 fe bb 69 14 cd 3b
       0.016529737 0.038321402 -0.007775164 0.0062585366
000140 8d e0 b3 bc 47 2c 12 b9 87 55 8f bc ff 23 b0 bb
       -0.02195766 -0.0001394014 -0.017496837 -0.005375385
000150 0b 73 53 bc aa 10 93 3b a7 d7 b1 3b ce 45 37 bc
       -0.012905846 0.0044880705 0.005427319 -0.011186076
000160 2b 1f b5 3c 8c d3 2d bc 13 ed 0f bd 4c 7d f0 3a
       0.022109589 -0.010609519 -0.0351382 0.0018347888
000170 8e 17 56 3c 78 95 6d bc 56 0d f0 3b 4c 47 51 3d
       0.013067139 -0.014500968 0.0073258085 0.051093385
000180 86 84 f8 3b ec a6 9e 3d b8 82 f9 bc fb 59 0d bd
       0.0075841574 0.077466816 -0.03045784 -0.03450964
000190 e2 fa 3c bd 53 4f 14 bd 7c b7 61 3d 0f 71 e6 bb
       -0.046137698 -0.036208462 0.055106625 -0.0070325206
0001a0 d2 a3 65 3d 62 1c 89 bc d1 07 25 bd 60 19 f2 3b
       0.056064434 -0.016737167 -0.040290657 0.007388279
0001b0 15 0b 4b 3d f8 07 14 3d 65 2c b3 3d 53 a2 1a bd
       0.049571116 0.036140412 0.08748702 -0.03775246
0001c0 fb f6 47 bc f1 27 e5 bc 59 f2 d2 ba 48 49 bc bb
       -0.012204881 -0.027973147 -0.0016093954 -0.0057460405
0001d0 62 33 00 3d b7 53 9e bc f6 20 93 3d b0 9f ab 3d
       0.031299002 -0.019327028 0.07184021 0.08380067
0001e0 8d 60 08 3e 34 cd 0e 3d 7e 3f 48 3d ac 27 89 bd
       0.13318081 0.034863666 0.048888676 -0.0669702
0001f0 49 63 74 bd 09 bf 0c bd dd 89 42 bd dd ed bf 3d
       -0.059665 -0.034361873 -0.047494758 0.09371541
000200 38 89 ab 3b 1a 17 34 bc 0d 36 09 bd f4 4c 1e 3d
       0.0052348636 -0.010991836 -0.033498812 0.038647607
000210 4c be 17 3c 78 99 f4 ba 6e cf 8d 3d 16 44 eb 3c
       0.009261679 -0.001866146 0.0692433 0.02871899
000220 b4 0d 87 bc 1d 27 77 bc 97 29 af bc b5 72 86 3d
       -0.016486026 -0.015085009 -0.021382136 0.065648474
000230 ea 51 9d 3b fc 85 b3 bc ae cc 99 3c d4 8d 02 3d
       0.0048010247 -0.021914475 0.018774357 0.03187354
000240 72 49 e2 3b f1 7a 23 bd 81 77 73 bd b6 26 c9 bc
       0.006905728 -0.039912168 -0.05944014 -0.024554592
000250 a8 d0 c5 3b c5 27 01 bd 6c 3a 01 bd 13 85 92 3b
       0.0060368367 -0.031532068 -0.031549856 0.00447143
000260 4d 32 25 3b bd fc 1b 3d 4b 6c a0 bb 1a 91 89 bb
       0.0025206984 0.038082827 -0.004895722 -0.0041982057
000270 69 9b 98 bb 24 30 6e bc 8c ba 1a bd 86 c0 c3 bc
       -0.004657198 -0.014537845 -0.03777556 -0.023895513
000280 11 53 6d 3c fb 7b 1c bd 25 92 7b bc 7a fc c1 3c
       0.014485137 -0.038204174 -0.015354668 0.02367996
000290 9b cb 9d bc df e9 38 bb 6a e2 52 3c 69 99 40 3a
       -0.019262126 -0.002821557 0.012871364 0.00073470786
0002a0 8c ba 7d bc 69 46 4f bb 85 90 fa 3b 47 ae 12 3c
       -0.015486371 -0.003162766 0.0076466226 0.008952684
0002b0 c9 ab 11 3d 6e 13 74 bb 09 f6 cd 3b c0 6f ce bc
       0.035564218 -0.0037243026 0.006285433 -0.02519977
0002c0 a9 b0 96 3c ed 96 fc bb d3 23 11 bd 13 23 ba bc
       0.018394785 -0.0077084214 -0.035434555 -0.022721803
0002d0 e0 c6 e9 3b be ea 70 bd 3c fa f0 3b e3 90 01 3d
       0.0071343035 -0.058817618 0.007354049 0.031632315
0002e0 da f7 50 3c 25 40 bd bb f2 28 d7 3a 6f 59 2a bc
       0.012754405 -0.005775469 0.0016415401 -0.010397299
0002f0 fd ea fc 3b 22 20 74 3b 9d 96 1e 3d 0e f3 ad bc
       0.0077184425 0.0037250598 0.038717855 -0.021234062
000300 c8 e3 82 bd 7e f8 f0 bc ab da c1 3c 0f 0a 91 3c
       -0.06391102 -0.029415365 0.02366384 0.017704992
000310 66 89 24 bd eb 6e 4b 3d 82 15 47 3d bd e8 1b bd
       -0.040170096 0.049666326 0.048604496 -0.038063753
000320 71 7f 20 3c 6c ca 4b bd 1a ee 1f 3d c8 e1 de 3b
       0.009796009 -0.04975359 0.03904543 0.0068018176
000330 e2 b8 16 bd 18 a2 98 bc 3c e5 25 bc ff 10 82 bc
       -0.03679741 -0.01863198 -0.0101254545 -0.015877245
000340 0a cb 1f bc 59 6c d6 ba 95 04 98 bc 88 21 3c bd
       -0.009752998 -0.0016359194 -0.018556872 -0.045930415
000350 e5 ae 84 3c ea c3 65 3d f1 bb 9f bc 14 01 6b bd
       0.016196677 0.05609504 -0.019498797 -0.057374075
000360 b5 f0 cd 3c 5a 8f f7 3c d2 6d a7 bc bc 92 8c bc
       0.025139192 0.030219723 -0.020438109 -0.017159812
000370 e2 f3 db 3c 84 93 1e 3d 33 b5 c6 bb 45 8a 3e 3d
       0.02684969 0.0387149 -0.006064081 0.046518583
000380 5f 07 ee bb dd f2 8b 3c c8 c5 82 3c dc ec 56 3c
       -0.0072640623 0.01708358 0.01596345 0.013117995
000390 dd 83 76 3a 91 af f2 3c 40 f9 89 ba d9 54 1c 3d
       0.00094038044 0.029624732 -0.0010526553 0.038166855
0003a0 e1 3e 06 3c da b4 36 bd 9c d3 71 bd 06 70 ee 3a
       0.008193702 -0.044606067 -0.059039697 0.0018191345
0003b0 9e 7a 36 3c 48 85 0e 3d fd 96 8a 3d 08 eb 9f bc
       0.011137633 0.034795076 0.0676708 -0.019521251
0003c0 44 70 1c 3c 82 7b d3 bc 69 aa bc 3b 64 a3 3f 3b
       0.009548251 -0.025815729 0.005757619 0.0029241676
0003d0 44 3f f4 bc 02 2f f5 3a 6b a5 d0 3c 02 97 5e bb
       -0.029815324 0.0018706026 0.025469502 -0.003396452
0003e0 c8 6a 82 3d 55 f8 0e bc 95 9a 38 bd 3a 8b ce 3c
       0.06368023 -0.008726199 -0.045069296 0.025212873
0003f0 77 21 de bd d9 23 42 bd 98 b4 24 3d f7 2d 74 3d
       -0.10846227 -0.04739747 0.04021129 0.059614148
