image_classification/weights/mobilenet_nchw/conv_44_weight.npy (npy, 98384 bytes, 1 tensors)

array f4 [384, 64, 1, 1]
-0.0004899684 -0.021227734 -0.030042296 0.012153023 0.029379433 0.04763106 0.047135282 -0.024402125
0.0281961 -0.013689856 0.01604233 -0.009777771 0.0022508893 0.006708536 0.015343373 0.010055334
0.011695222 -0.041334715 -0.0072137453 0.0016692842 0.02162789 0.0062364894 0.0038456619 -0.0017601653
0.012433266 0.0032825451 -0.011593591 -0.0064211604 0.0131599335 0.0507994 0.07280829 0.0065308795
-0.0072405697 0.0022605078 0.012842539 -0.030613912 0.01623697 0.02200042 -0.019835828 -0.00090939377
-0.007041677 0.045488503 -0.026299328 -0.015455733 -0.0070876605 -0.0071283313 -0.00679307 0.020966984
-0.0017871688 -0.041438002 -0.012620317 -0.004525371 -0.006475811 0.0022444443 -0.010374249 -0.019465793
0.05369967 0.011861654 -0.023364708 0.037520926 -0.009959403 -0.011689173 0.0077229207 -0.023078019
0.00783246 -0.02698584 0.0003527192 0.014594999 -0.0016664716 0.00786041 0.013594841 0.039408483
0.014038959 -0.0014479265 -0.02871508 -0.008554983 0.014306637 -0.027695054 -0.021380495 0.004398308
0.00038422632 0.03421064 -0.014142085 0.0043497737 0.03439856 -0.00020296164 0.01645509 -0.00064188224
-0.012709416 0.0023194323 -0.02247573 0.023278667 0.020492611 -0.00720739 -0.011750668 0.017975742
-0.01764829 0.023988713 0.0035343498 -0.013883919 0.00073200103 -0.0034611758 -0.022953423 -0.009257719
-0.0030235553 0.020750143 -0.007341182 -0.009472499 0.0022031737 0.031699672 -0.003969515 0.016247854
0.0027282196 -0.014439087 0.013816521 0.004446316 -0.033620074 -0.04541267 0.028322417 -0.010494558
0.0024665908 0.009600315 0.023599628 0.0065396735 -0.0068003843 -0.0012449257 0.015355403 -0.01998455
0.01257598 -0.010599188 0.027269216 -0.0074305204 0.021083552 0.011746122 -0.013453677 -0.0069224364
-0.009217899 0.004084675 0.0016982856 0.0029451812 -0.060412977 -0.02024968 0.029794274 0.017887773
0.008717646 -0.021219203 -0.01559188 0.028507996 -0.0059396685 0.0071975584 0.011568987 -0.032559924
0.021635588 -0.022520635 0.029505687 -0.007550871 -0.008310967 0.005102568 0.014553839 0.010636048
0.0068934625 0.003057229 -0.005160029 -0.003480124 -0.017628808 0.0038416053 0.013438915 -0.019520659
-0.016606007 0.0071132234 0.009790989 -0.012089469 -0.016828045 0.0075637065 -0.013295634 -0.025584167
-0.022884773 -0.018966125 0.01157069 -0.0017296644 0.0010620662 0.032087244 0.01693629 -0.005562881
-0.008013512 -0.023951273 0.0016001273 0.0049235187 0.010616235 0.004429491 0.031801566 -0.0030091607
0.010847965 -0.044578314 -0.0018565173 -0.017124446 0.0033846283 0.013851931 0.055734 0.009261125
0.018248161 -0.0007674315 -0.019318558 0.0009218967 -0.0024597952 0.026137438 -0.014504894 0.045011654
0.030908387 -0.032698963 0.03415626 -0.04814012 -0.05257938 -0.049408156 0.049078252 -0.0032244585
-0.02921278 0.03372378 -0.018901989 0.01642314 0.032373387 0.03513765 0.036204696 0.049229782
-0.0011955022 0.0015215715 -0.032107446 -0.026891746 -0.03368851 0.042513162 0.016056294 -0.00016298504
0.016624589 0.017700057 0.035255622 -0.023404846 0.010390181 -0.0031763064 0.01734343 -0.0006432815
-0.034273565 -0.04389655 0.031936646 -0.061976433 0.008739613 -0.031792466 0.03471445 0.012152326
0.007835803 0.024723262 0.022469036 0.0078027905 -0.044591483 0.029396601 -0.0061098407 0.012710312
00000000: 3971 00ba c9e5 adbc 431b f6bc 791d 473c
00000010: 23ad f03c c918 433d ed10 413d f7e6 c7bc
00000020: 82fb e63c 6b4b 60bc 346b 833c f232 20bc
00000030: a883 133b 47d3 db3b c562 7b3c 21bf 243c
00000040: 519d 3f3c 974e 29bd 4861 ecbb e2cb da3a
00000050: f92c b13c 775b cc3b 8007 7c3b 59b5 e6ba
00000060: e6b4 4b3c f81f 573b 0cf3 3dbc 9968 d2bb
00000070: c39c 573c 0813 503d 831c 953d fd00 d63b
00000080: 4d42 edbb 0725 143b 8369 523c 07ca fabc
00000090: 6503 853c 3a3a b43c bf7e a2bc 6264 6eba
000000a0: debd e6bb 2752 3a3d b071 d7bc 0b3a 7dbc
000000b0: 9b3f e8bb c794 e9bb 6798 debb f4c2 ab3c
000000c0: 6f3f eaba e5ba 29bd 72c5 4ebc 9049 94bb
000000d0: 0a33 d4bb 8717 133b c1f8 29bc ba76 9fbc
000000e0: 2ff4 5b3d 6257 423c 5867 bfbc 8baf 193d
000000f0: c42c 23bc f283 3fbc 8e10 fd3b 1d0e bdbc
00000100: b853 003c 6911 ddbc 2bed b839 dd1f 6f3c
00000110: 826d daba f3c8 003c e5bc 5e3c ca6a 213d
00000120: a903 663c 5ac8 bdba e33b ebbc 332a 0cbc
00000130: 6366 6a3c bde0 e2bc 2626 afbc af1f 903b
00000140: fc71 c939 7520 0c3d 34b4 67bc 8c88 8e3b
00000150: 81e5 0c3d 1ad2 54b9 d3cc 863c fd43 28ba
00000160: 283b 50bc 9e01 183b 061f b8bc e7b2 be3c
00000170: 1fe0 a73c f82b ecbb e085 40bc dd41 933c
00000180: 2693 90bc fa83 c43c 8da0 673b 6179 63bc
00000190: c2e3 3f3a e5d4 62bb d108 bcbc b0ad 17bc
000001a0: d726 46bb 34fc a93c 4c8e f0bb 8a32 1bbc
000001b0: 1f63 103b 84d7 013d b512 82bb 381a 853c
000001c0: eecb 323b ec91 6cbc b05e 623c 67b2 913b
000001d0: 34b5 09bd a302 3abd 6a04 e83c 5ef1 2bbc
000001e0: 87a6 213b a44a 1d3c 0254 c13c c24a d63b
000001f0: c2d5 debb c62c a3ba 3a95 7b3c a4b6 a3bc
00000200: 7c0b 4e3c 37a8 2dbc b163 df3c b97b f3bb
00000210: 6ab7 ac3c ce72 403c d06c 5cbc 9bd5 e2bb
00000220: ac06 17bc bdd8 853b 0299 de3a f103 413b
00000230: 9973 77bd a8e2 a5bc 1f13 f43c 6189 923c
00000240: 75d4 0e3c e5d3 adbc 1675 7fbc 9a89 e93c
00000250: 8da1 c2bb 7fd9 eb3b d98b 3d3c 8e5d 05bd
00000260: 1e3d b13c 327d b8bc e9b5 f13c 4c6d f7bb
00000270: b92a 08bc 7133 a73b 3a73 6e3c d242 2e3c
00000280: 8ee2 e13b cb5b 483b 7615 a9bb cb12 64bb
00000290: 4a6a 90bc 71c3 7b3b e52e 5c3c cae9 9fbc
000002a0: 5209 88bc 0b16 e93b 626a 203c e812 46bc
000002b0: f8da 89bc f8d8 f73b eed5 59bc e395 d1bc
000002c0: d978 bbbc d95e 9bbc fe92 3d3c e8b5 e2ba
000002d0: 0735 8b3a ea6d 033d f9bd 8a3c d448 b6bb
000002e0: 1b4b 03bc 7635 c4bc 5dbb d13a 7855 a13b
000002f0: b8ef 2d3c 4325 913b 5c42 023d 5735 45bb
00000300: aabb 313c c097 36bd 6256 f3ba 9148 8cbc
00000310: a4d0 5d3b 36f3 623c 5649 643d f9bb 173c
00000320: 2b7d 953c 752d 49ba f441 9ebc 71ab 713a
00000330: 8434 21bb 2e1e d63c efa5 6dbc 245e 383d
00000340: 9633 fd3c 59ef 05bd 6fe7 0b3d 932e 45bd
00000350: 7a5d 57bd 3560 4abd 4706 493d 7051 53bb
00000360: a44f efbc f221 0a3d 58d8 9abc d289 863c
00000370: f599 043d 7fec 0f3d 604b 143d 2ba5 493d
00000380: 66b2 9cba 786f c73a 1983 03bd 144c dcbc
00000390: f7fc 09bd 4822 2e3d 7d88 833c f7e6 2ab9
000003a0: 4a30 883c b6ff 903c 3368 103d 85bb bfbc
000003b0: 943b 2a3c 9429 50bb cf13 8e3c e4a1 28ba
000003c0: 7062 0cbd decc 33bd 00d0 023d 00db 7dbd
000003d0: 9830 0f3c d138 02bd bd30 0e3d 8d1a 473c
000003e0: bd61 003c 7088 ca3c fc10 b83c 8dae ff3b
000003f0: 8fa5 36bd 24d1 f03c 0f35 c8bb ea3e 503c
