image_classification/weights/mobilenet_nchw/conv_65_bias.npy (npy, 464 bytes, 1 tensors)

array f4 [96]
0	0x3e83770e	0.2567677
1	0xbcf1ffb9	-0.029540883
2	0xbeb0162e	-0.34391922
3	0xbe0ec680	-0.13942909
4	0x3e9f8c32	0.31161648
5	0x3d49938f	0.04921299
6	0x3def25d8	0.1167714
7	0x3f052360	0.520071
8	0x3e121405	0.1426545
9	0x3e3813c6	0.17976293
10	0x3e2ac9cd	0.16678543
11	0x3f32829d	0.6973055
12	0xbdc21bbe	-0.09477948
13	0x3e494f8b	0.1965925
14	0x3ebad626	0.36491507
15	0xbe915a9f	-0.2838945
16	0x3ed094af	0.40738437
17	0x3c988a8d	0.018620754
18	0x3cc98fa5	0.024604628
19	0xbd1f2cf6	-0.038861237
20	0x3f2cf0cb	0.6755492
21	0xbdd8f443	-0.10593464
22	0xbd24a494	-0.040196016
23	0xbf1359bc	-0.575588
24	0xba9cd6d4	-0.0011965879
25	0xbf042ca5	-0.5163062
26	0x3e162586	0.14662752
27	0x3e2b0cb8	0.1670407
28	0xbe224cd6	-0.15849623
29	0x3e4002bc	0.18751043
30	0x3f257add	0.646406
31	0xbcf14480	-0.029451609
32	0x3db1eecb	0.08688124
33	0xbe4257c1	-0.18978788
34	0x3ee307cf	0.44341895
35	0xbdcdca86	-0.10048394
36	0x3ef82537	0.48465893
37	0x3ed16c9e	0.4090318
38	0x3e2925d7	0.16518341
39	0xbdd1f627	-0.10252028
40	0x3c97ec63	0.018545335
41	0xbccc51a5	-0.024941275
42	0x3c84dde8	0.016219094
43	0xbf0af097	-0.5427336
44	0xbe2afc62	-0.16697839
45	0xbc918d3e	-0.017767545
46	0xbe8a02c5	-0.26955238
47	0x3d3d093c	0.046151385
48	0x3e256d2c	0.16154927
49	0x3ee4b570	0.44669676
50	0x3e50b381	0.20380975
51	0xbd985257	-0.0743758
52	0xbf1ee4a3	-0.6206762
53	0xb81df1ab	-3.7656788e-05
54	0xbdc22a74	-0.094807535
55	0x3f476135	0.778827
56	0x3efa3991	0.48872045
57	0xbdbd9a16	-0.09257905
58	0x3df04c23	0.11733272
59	0x3e10f70d	0.14156742
60	0x3f14ebd6	0.5817236
61	0xbef2999d	-0.47382823
62	0xbe5679c6	-0.2094489
63	0x3eb3d28b	0.3512157
64	0xbdb8e2a2	-0.09027602
65	0x3e504ab0	0.20340991
66	0x3e093781	0.1340008
67	0x3dda81dd	0.10669301
68	0xbe033ab1	-0.12815358
69	0x3e4bb12b	0.19891803
70	0xbe4895c2	-0.19588378
71	0x3e64fc51	0.22361876
72	0x3dfe302f	0.12411534
73	0xbf2c4a5d	-0.6730097
74	0xbd9106e0	-0.070813894
75	0xbd73fdbe	-0.05956816
76	0x3eb091af	0.34486148
77	0xbe58b783	-0.21163754
78	0x3c95261a	0.018206645
79	0x3e7c1918	0.24618948
80	0xbe430995	-0.19046624
81	0x3e672f7e	0.2257671
82	0xbea391ff	-0.31947324
83	0xbe12c0fb	-0.14331429
84	0x3f074448	0.52838564
85	0xbba975d3	-0.0051715164
86	0xbe0518ee	-0.12997791
87	0x3e2dda88	0.16977894
88	0xbc567206	-0.013088709
89	0xbef04eae	-0.46935028
90	0xbea4d978	-0.32197165
91	0x3d7b53a4	0.061359063
92	0xbeb5a9d8	-0.35481143
93	0x3d4488fd	0.047982205
94	0x3f2ee288	0.6831441
95	0x3f1bb652	0.60825074
