image_classification/weights/mobilenet_nchw/conv_86_bias.npy (npy, 3920 bytes, 1 tensors)

array f4 [960]
-0.09194039 -0.24009402 -0.04753214 0.21298748 -0.113632336 -0.13448624 -0.25300288 -0.08650632
0.5797674 0.25500324 0.4224798 0.2682088 0.0066648647 -0.2683764 0.28445607 0.020381033
0.7873767 0.2278155 -0.08341368 0.24534282 0.23463802 -0.054203045 -0.17932573 -0.01581855
0.13891234 0.0044107325 0.31495297 0.5529366 -0.1971783 0.17136684 -0.07155671 -0.06032616
-0.024822623 -0.17006622 -0.047023512 -0.54905975 -0.38444322 -0.123079404 -0.008723093 0.1731785
-0.12681782 0.32758516 -0.043748796 -0.21479061 -0.08509451 -0.117753685 -0.18614326 0.19772054
0.2163882 -0.08986363 0.2554936 0.20470858 -0.10167649 0.2735857 -0.105160475 -0.0045175143
-0.020193715 0.24475792 0.6847395 -0.050646022 -0.10896142 -0.038973488 -0.28015557 -0.13518775
-0.057990666 -0.05711026 -0.12343191 0.011161892 0.35749733 0.22517458 0.2896048 -0.00501558
0.22535262 -0.07788532 -0.19924055 0.21511069 -0.060931 0.0020817071 -0.03867554 -0.06361123
-0.00211479 -0.12300877 -0.18420672 -0.085334435 0.30569443 -0.23221388 -0.21635617 -0.094782196
0.30522826 -0.057765864 0.32697526 0.36495146 -0.29570544 0.2684791 0.35708204 -0.43680874
-0.08613226 0.01598502 -0.12516199 -0.05006319 0.30719632 -0.043008134 0.24145441 0.39935866
0.26043135 0.2541411 0.3570119 0.22713733 -0.027025465 -0.2828073 -0.03431785 0.2809564
-0.11206071 -0.1418193 0.82294285 0.4228559 -0.006115828 0.09706067 -0.14890948 -0.08135356
0.20438951 -0.014399724 0.09939107 -0.21898629 0.043727767 -0.14234865 0.2601968 0.010737121
-0.043785524 0.6030278 0.34755534 -0.4358568 0.6266923 -0.027676392 0.11553046 0.21379843
0.003880444 -0.19752654 0.25075427 -0.090821505 -0.12040633 -0.1450502 0.26792702 0.31852862
0.23154192 -0.059906036 0.6860249 0.4046188 0.5413256 -0.04996399 -0.014107045 0.01408758
-0.00782677 -0.42328906 -0.105531484 0.21872362 0.25646955 0.22862084 -0.13280602 -0.10601379
0.24321242 -0.24643871 0.31833416 0.25765717 -0.08829792 0.2515824 -0.0626298 -0.27050334
0.22368994 -0.034059145 0.2598944 0.25392896 -0.18902384 0.24158332 -0.056484617 -0.19777493
-0.014186783 0.30044866 0.22287796 -0.14548723 -0.03532696 0.004853189 0.30519974 0.2964006
0.23859826 0.24287495 0.24475044 0.8448843 -0.04680202 0.2222592 -0.16781472 0.25454596
0.2707452 0.25208387 0.25026223 -0.059618928 0.33404636 -0.040532447 -0.082295656 0.2890783
-2.7215108e-05 -0.11085415 -0.11623885 -0.20092228 0.0024133362 -0.11874071 -0.39080787 -0.17553389
-0.09083283 -0.06278147 -0.2331821 -0.17066863 0.23963784 0.36960447 -0.06702924 0.3259751
0.2390536 -0.05349505 0.03263757 -0.03940922 -0.043566637 -0.015975174 0.5189408 0.2177963
-0.020900542 0.24801242 0.19601771 -0.124420814 0.43542394 -0.098974265 0.22442897 -0.06293378
-0.036820587 0.12887636 0.30250093 0.2709593 0.22989115 0.017156709 -0.47110885 -0.13578297
-0.12567213 0.23664339 0.3575626 0.48734894 0.63268846 -0.16136247 -0.04441821 0.25473186
0.25156462 0.03743719 0.29165962 -0.0925809 -0.36309054 0.22847077 0.26847935 0.32271948
00000000: 3e4b bcbd 35db 75be 10b1 42bd 6419 5a3e
00000010: 12b8 e8bd c3b6 09be 9889 81be 3a2a b1bd
00000020: a36b 143f c98f 823e 464f d83e aa52 893e
00000030: f064 da3b a268 89be 3aa4 913e 20f6 a63c
00000040: 8591 493f 7748 693e cbd4 aabd 263b 7b3e
00000050: f344 703e 0304 5ebd 2aa1 37be e795 81bc
00000060: 093f 0e3e e887 903b 8441 a13e 418d 0d3f
00000070: 1ce9 49be ca7a 2f3e 538c 92bd 9018 77bd
00000080: d058 cbbc d725 2ebe ba9b 40bd 2e8f 0cbf
00000090: bed5 c4be 0e11 fcbd 4eeb 0ebc b455 313e
000000a0: 88dc 01be 3eb9 a73e f031 33bd 12f2 5bbe
000000b0: 0846 aebd d828 f1bd 579c 3ebe 4177 4a3e
000000c0: de94 5d3e 6c0a b8bd 0fd0 823e 209f 513e
000000d0: c33b d0bd 6d13 8c3e 605e d7bd a807 94bb
000000e0: 4a6d a5bc d2a1 7a3e 164b 2f3f 3472 4fbd
000000f0: 2a27 dfbd aaa2 1fbd 8d70 8fbe a86e 0abe
00000100: 9f87 6dbd 73ec 69bd dfc9 fcbd 5ee0 363c
00000110: e409 b73e 2a94 663e 1547 943e bc59 a4bb
00000120: d6c2 663e 5782 9fbd b705 4cbe fa45 5c3e
00000130: c992 79bd 406d 083b 3e6a 1ebd 9b46 82bd
00000140: 4a98 0abb 06ec fbbd b0a0 3cbe d2c3 aebd
00000150: fb83 9c3e 7ac9 6dbe 798c 5dbe 2b1d c2bd
00000160: e146 9c3e e69b 6cbd 4d69 a73e ebda ba3e
00000170: b466 97be 1876 893e 75d3 b63e 65a5 dfbe
00000180: 1c66 b0bd 04f3 823c 772a 00be 0f0f 4dbd
00000190: d648 9d3e 4c29 30bd d33f 773e bd78 cc3e
000001a0: 4257 853e c81e 823e 44ca b63e b096 683e
000001b0: 8264 ddbc 1ecc 90be e090 0cbd 84d9 8f3e
000001c0: 1680 e5bd 1439 11be 62ac 523f 9280 d83e
000001d0: 4967 c8bb bfc7 c63d ba7b 18be b29c a6bd
000001e0: 7c4b 513e d2ec 6bbc 8c8d cb3d f13d 60be
000001f0: e31b 333d d8c3 11be 8438 853e c0ea 2f3c
00000200: 7358 33bd 0860 1a3f c6f2 b13e 9f28 dfbe
00000210: e86e 203f 9ab9 e2bc 3c9b ec3d faed 5a3e
00000220: 0c4f 7e3b 6644 4abe dd62 803e a000 babd
00000230: 9897 f6bd 0a88 14be bb2d 893e 2f16 a33e
00000240: 5319 6d3e 0860 75bd 549f 2f3f 322a cf3e
00000250: 5194 0a3f 0aa7 4cbd 3c21 67bc 98cf 663c
00000260: da3b 00bc 58b9 d8be e420 d8bd 16f9 5f3e
00000270: fa4f 833e 951b 6a3e 4dfe 07be c21d d9bd
00000280: ad0c 793e 6e5a 7cbe b2fc a23e a4eb 833e
00000290: 8ad5 b4bd 69cf 803e 0d44 80bd 6a7f 8abe
000002a0: fa0e 653e 9a81 0bbd e110 853e fa02 823e
000002b0: 778f 41be 9e61 773e 6a5c 67bd 8385 4abe
000002c0: ae6f 68bc 68d4 993e 1f3a 643e 9bfa 14be
000002d0: 01b3 10bd 8007 9f3b 2443 9c3e d2c1 973e
000002e0: 1a53 743e 36b4 783e dc9f 7a3e 564a 583f
000002f0: 7ab3 3fbd ea97 633e 9fd7 2bbe d953 823e
00000300: 1d9f 8a3e 2311 813e 5f22 803e fa32 74bd
00000310: 2008 ab3e 5a05 26bd a08a a8bd 1202 943e
00000320: 004c e4b7 8007 e3bd a20e eebd 92be 4dbe
00000330: 1029 1e3b 542e f3bd f817 c8be 28bf 33be
00000340: 9006 babd 9293 80bd 4ac7 6ebe c2c3 2ebe
00000350: 9f63 753e cc3c bd3e a046 89bd 35e6 a63e
00000360: 78ca 743e a01d 5bbd f9ae 053d 906b 21bd
00000370: ee72 32bd 5ede 82bc 4ed9 043f fe05 5f3e
00000380: 9d37 abbc f8f6 7d3e deb8 483e 57d0 febd
00000390: e3ef de3e 05b3 cabd b5d0 653e 6de3 80bd
000003a0: 2fd1 16bd 2af8 033e 67e1 9a3e 2dbb 8a3e
000003b0: 9668 6b3e 3a8c 8c3c 2e35 f1be b10a 0bbe
000003c0: 32b0 00be a552 723e 7212 b73e cd85 f93e
000003d0: dff7 213f 343c 25be deef 35bd 376c 823e
000003e0: 14cd 803e bd57 193d 6954 953e 0e9b bdbd
000003f0: 01e7 b9be 3ef4 693e 2076 893e 7d3b a53e
