image_classification/weights/mobilenet_nchw/gemm_104_bias.npy (npy, 4080 bytes, 1 tensors)

array f4 [1000]
000000 3b 48 41 3d bc 02 23 3c 53 c9 08 bd e7 48 52 bd
       0.047188025 0.009949382 -0.033395123 -0.051339056
000010 bf 5a 43 3c 58 0c b7 3c 7a 69 8e bc c3 0d 43 bc
       0.011923491 0.022344753 -0.01738428 -0.0119051365
000020 34 d1 64 3c d0 ab b3 bb 6e bf 5c bc a8 e5 29 bd
       0.013965894 -0.005483128 -0.013473375 -0.041478783
000030 a2 d2 d9 bc af 79 84 bc ba a9 01 3c d3 68 33 bb
       -0.026589695 -0.016171305 0.007914001 -0.0027375713
000040 26 d9 19 bd 2a 66 46 bd 6a 3e 71 3c bf 2f f3 3b
       -0.037560605 -0.048437275 0.014724353 0.0074214633
000050 a2 f4 a9 3c 86 88 a1 3d 43 10 50 3d 20 c0 57 bc
       0.020746533 0.07887368 0.05079676 -0.013168365
000060 b4 77 88 3c 63 9a 00 bc d8 c2 d8 3c 10 5d 07 3c
       0.016658641 -0.007849309 0.026460096 0.008261934
000070 a2 74 ba 3c 00 ce a2 bb 20 7f cc 3c 68 ea 80 3b
       0.022760693 -0.004968405 0.024962962 0.0039341934
000080 cf 6f 1a bc 31 34 ef bb 25 5f b6 3c 27 8a 35 bd
       -0.009426071 -0.007299923 0.022262165 -0.044321205
000090 1b b7 a4 3c 70 3f 33 bc 16 f2 10 bb e2 3e fb bb
       0.020106843 -0.010940418 -0.002211695 -0.0076674083
0000a0 1d 02 72 bb 66 81 20 3d b0 f3 15 3c 6d 2e 26 bd
       -0.003692753 0.039185904 0.009152338 -0.04057162
0000b0 d0 ee 63 bc 27 f3 3c bb 8f aa 28 3d d5 b8 41 bc
       -0.013911918 -0.0028831454 0.041178282 -0.011823853
0000c0 91 ab ed bc 5f 72 8a bc 28 5d 16 3d 6c 95 9a bc
       -0.029012473 -0.01690024 0.036709934 -0.018870078
0000d0 45 d3 ac 3c ca 0d 5f 3d 55 21 fe bc 7d 51 90 bc
       0.021096835 0.05445651 -0.031021753 -0.017616982
0000e0 e9 8d 2f bc fd 5e eb ba 5c b0 43 3d 9d ba 50 3d
       -0.010714986 -0.0017957386 0.04777561 0.05095922
0000f0 1d 21 59 bd ae 14 38 bc eb 9b e6 bc fa 98 5e 3d
       -0.053010095 -0.011235399 -0.02815052 0.05434511
000100 50 e3 72 3d 27 6f cc 3c b2 1f 14 bd 19 55 24 bd
       0.059298813 0.024955345 -0.03616304 -0.040120218
000110 1c a6 6c 3c cf 9a 94 3c e9 ae 09 bd 61 4f 8e 3c
       0.0144439 0.018140225 -0.033614073 0.017371835
000120 58 ce e4 3b 61 fb 5d bb f4 4a 5e bd ee 4e 4e 3d
       0.006982606 -0.0033871757 -0.0542707 0.050368242
000130 e1 c1 c6 bb 7b 61 9c 3c 76 ae 7b 3d 8a 77 ef 3c
       -0.0060655926 0.019089451 0.061445676 0.029231805
000140 a0 36 55 bc 5e c6 9c 3c dc 42 b8 3c a8 1f c0 bd
       -0.013013512 0.019137558 0.022492819 -0.09381038
000150 d1 d6 72 bd 5d 30 a8 39 d8 57 03 bd 0b 89 93 3c
       -0.059286896 0.0003207949 -0.032066196 0.018009683
000160 12 ce fc bb 7e 4b 72 3d 05 cc 0a bc 8f c9 18 bd
       -0.007714995 0.059154026 -0.008471494 -0.037301596
000170 84 61 e3 3c 69 44 22 bd 76 da 42 bd 1f 35 59 bd
       0.02775646 -0.039616022 -0.04757162 -0.053029176
000180 c1 eb a8 3c 04 a5 45 bd 07 0a 25 bd 47 d3 17 bd
       0.020620229 -0.048253074 -0.040292766 -0.037066724
000190 10 48 01 bd a0 16 3f bb 12 f7 15 3c 4a f5 a0 3d
       -0.031562865 -0.0029157773 0.009153144 0.07859285
0001a0 e7 1f be 3c b4 ee ae bc 1c 1f 10 bc 0c 36 2c 3b
       0.023208572 -0.021354057 -0.00879648 0.0026277332
0001b0 6b ae 24 bd 62 02 6e bd 69 d7 88 bd cb ae 06 3e
       -0.0402054 -0.05810774 -0.06681711 0.13152616
0001c0 19 6f 31 3c 5c 35 08 bd db 66 3f bc ef 44 d2 bd
       0.01082971 -0.033254012 -0.0116822375 -0.10267054
0001d0 45 52 c4 3b 32 f5 41 bc fe 8c 07 3c 0a 6b 0e bd
       0.0059912526 -0.011838244 0.008273361 -0.03477005
0001e0 44 bb 73 3c 5b 8f 30 bd 34 fa 0a bd e7 be 46 bd
       0.014876191 -0.043105464 -0.03393002 -0.048521902
0001f0 3f 81 d6 bc 45 b1 da bc 71 af f4 bc 6a 0e 45 bc
       -0.026184676 -0.026695857 -0.029868813 -0.012027362
000200 2d 5a 39 bc ec 89 bc bb 41 b8 1d bd df fb 28 3b
       -0.0113130035 -0.0057537463 -0.038505796 0.0025784892
000210 c7 5c ea 3c 53 ab 48 3c fe 44 be bd d2 86 79 bd
       0.028608693 0.012247878 -0.09290503 -0.06091959
000220 87 2b c4 bc 9e 39 c7 bc 55 be 87 bc e6 4f 42 bd
       -0.023946537 -0.024319466 -0.01657025 -0.04743948
000230 83 59 17 bd a7 be a3 bb b4 f0 27 bd e4 53 43 3c
       -0.0369506 -0.0049970928 -0.041001037 0.011921857
000240 a7 82 7d bd e0 55 9b bc 7c 64 57 3b 8d 02 0b bd
       -0.061892178 -0.018961847 0.003286629 -0.03393798
000250 55 f4 0b bc fe 14 f6 3c fb 65 33 bd 61 e9 26 bd
       -0.00854214 0.030039307 -0.043798428 -0.04074991
000260 48 cf 87 bd 40 89 bf 3d 8e 51 41 bd 3d 4d 02 bc
       -0.06631333 0.0935235 -0.047196917 -0.007952985
000270 1e 07 d9 3b 08 b5 b1 bc e3 2f 54 bd 25 07 b0 bc
       0.006623163 -0.021692768 -0.05180348 -0.021487782
000280 e9 dd 18 bb 9e d3 99 3c f2 bc 7f 3d 62 fc 6b 3c
       -0.0023325628 0.018777665 0.06243605 0.0144034345
000290 92 6b 83 bc 5f 4b bf bc 21 37 e6 3b cf 30 9e bd
       -0.016042504 -0.02335137 0.007025615 -0.07724153
0002a0 4d 6f b8 3c f2 4e e7 bb 60 7e 62 3b 06 2c 2e 3d
       0.02251401 -0.0070589716 0.0034560189 0.042522453
0002b0 7e 6f 2c 3c d4 a7 56 bb c8 5e 91 3c 89 15 12 bd
       0.010524629 -0.0032753842 0.01774539 -0.03566507
0002c0 9e 25 a5 bc 1a 7e 23 bd e5 1a 97 3d a6 86 36 3c
       -0.020159539 -0.03991518 0.073781766 0.011140501
0002d0 0f b8 43 3b 5f e5 d0 bc 85 10 ae bb f3 08 20 bd
       0.0029864346 -0.025499998 -0.005312028 -0.039071035
0002e0 85 c1 1a bc 2d ed 7f 3c 2f 18 e4 bc a3 19 f9 bb
       -0.009445553 0.015620512 -0.027843563 -0.007601933
0002f0 33 4d 0f bd d5 b0 8d bc 3b 71 3f bb 06 4e 06 3d
       -0.034985732 -0.017296234 -0.0029211778 0.032789253
000300 45 17 d2 3c 86 82 52 bd 5e 0c 6f 3c 78 01 91 3d
       0.025645861 -0.051394008 0.014590351 0.07080358
000310 00 4c be 3c 98 96 ce 3b 3c 7a 3e bd 3c e1 54 3d
       0.023229599 0.0063045733 -0.04650329 0.051972613
000320 a4 60 c8 bd 76 4a 83 bb 67 d8 0c 3d 5a a1 52 3d
       -0.09784058 -0.004006679 0.034386065 0.051423408
000330 67 43 0f 3d 2c 42 f9 bb f0 ec 72 bd f9 a7 e2 b7
       0.03497639 -0.0076067653 -0.059307992 -2.7019518e-05
000340 52 67 0f bd 80 fb 99 3c f7 2e cd bc 34 fe 30 3b
       -0.035010643 0.018796682 -0.025046809 0.0027006986
000350 aa ef 0b bd fd 8e ad bc 67 1f c5 bc 4e a6 84 bc
       -0.03416411 -0.021186346 -0.024062825 -0.016192582
000360 c9 24 67 ba 73 83 81 3d 32 11 02 3d 77 32 d5 bc
       -0.0008817432 0.063239 0.03175468 -0.02602504
000370 66 63 25 bd 28 c7 34 bd b1 6d 63 bc 54 54 c3 3d
       -0.040377997 -0.044135243 -0.013881133 0.09537569
000380 0e a3 83 bd 1f 6e 1f 3d cb 21 eb bc b5 88 5d bc
       -0.064275846 0.03892338 -0.028702637 -0.013521363
000390 a2 97 84 bd 38 e5 a2 3c 42 48 9b 3c ac 97 28 bd
       -0.06474234 0.01988469 0.018955354 -0.04116027
0003a0 a5 06 d2 3c 7f 59 c4 bb 99 79 c5 3c 1f 73 b9 bc
       0.025637934 -0.005992114 0.024105834 -0.022637902
0003b0 0e cb 9c 3d c4 29 7c 3d 73 9a 50 bc a1 bf 85 3d
       0.07655917 0.06156327 -0.012732136 0.06530691
0003c0 e8 78 28 bd 2a 36 87 bc 41 6e 9d 3b c5 a7 77 bc
       -0.04113093 -0.01650532 0.004804403 -0.015115683
0003d0 00 aa c6 bc 9f a0 0a 3d 5f e0 42 bd 27 57 60 3c
       -0.024250984 0.033844586 -0.04757726 0.013692654
0003e0 bf 25 21 bd 82 19 32 bd 9a 07 11 bd 69 49 37 3d
       -0.039342638 -0.043481357 -0.03540764 0.044747744
0003f0 90 1a e3 3c aa 92 74 bd 00 8c 26 3d 8a f0 cb bc
       0.027722627 -0.059710182 0.04066086 -0.024894971
