image_classification/weights/squeezenet_nchw/squeezenet0_conv3_weight.npy (npy, 36944 bytes, 1 tensors)

array f4 [64, 16, 3, 3]
0.065775424 -0.06456901 0.07755991 -0.027232032 -0.30184853 -0.04200292 0.15862368 0.11678839
0.14776938 -0.0490126 -0.15027058 -0.07569805 -0.061612893 -0.14815299 -0.060160853 0.0030223038
-0.018966304 0.021956867 0.12429493 -0.017913532 0.08842595 0.081911035 0.0049720625 0.10680902
0.105281465 0.13775924 0.12967919 -0.08789166 -0.07977813 -0.07999322 0.028186798 0.09636833
-0.043556135 -0.03183914 -0.06740941 -0.047799367 -0.011078298 0.025995033 -0.00047870848 -0.0075779622
0.17415713 -0.012326468 0.0035288038 0.0724875 -0.016497787 0.02444588 0.023766395 -0.043567583
0.17412336 -0.027584631 -0.17065458 -0.029019503 0.027538612 -0.027519166 -0.089398615 -0.27166742
-0.15858592 -0.059556898 -0.26319212 -0.14151132 -0.026248312 0.000825772 -0.05566741 -0.081575714
-0.0874121 -0.10174579 -0.09076368 -0.19320263 -0.1222758 -0.11884518 -0.18646984 -0.17455351
-0.043289617 -0.092675105 -0.039395243 -0.048139438 -0.14386296 0.0041017435 -0.00067167357 -0.007907523
-0.010649373 0.07399249 -0.05762115 0.078962564 0.07842238 -0.20731479 0.07879221 0.0404917
0.09107977 0.07305701 -0.0041123116 0.219182 -0.0070275683 0.059860844 -0.010095141 0.029881528
-0.08258915 -0.17330112 -0.070802204 0.09682093 0.049272403 0.07004602 0.06765484 -0.08264254
0.11217961 0.11095216 0.17384754 0.102394 0.10091459 0.06251301 0.042881917 0.14468251
0.08964929 0.015540813 0.014197918 -0.018106883 0.023548704 0.03136392 0.17014469 0.045311715
0.117087886 0.39547935 0.13406746 -0.065807104 0.17716688 -0.03896531 -0.04319026 0.07273505
0.0034762153 -0.06417569 0.0845029 0.17351486 -0.045953855 -0.031265426 -0.042886153 -0.095448114
-0.118752584 -0.08861285 -0.12714879 -0.24113469 -0.103445984 -0.120068304 -0.08944612 -0.1107747
-0.050509956 -0.032876834 -0.007934331 -0.05965845 -0.11374564 0.03700271 0.04424596 0.23945363
0.004416826 0.08918331 0.10806504 -0.08006641 0.015080689 0.07319969 0.056398273 -0.033142965
0.12921306 0.03889445 -0.09331219 -0.0036172832 -0.030429572 0.13948771 -0.013689993 0.025494521
-0.02235607 0.042260256 -0.10966369 0.029482115 0.06837889 -0.0050284388 -0.06634723 -0.05940735
0.035523944 -0.015885485 0.040682014 0.006023445 0.063957706 0.0060944124 0.07319674 -0.02003078
-0.1260486 0.0060037267 -0.0087602185 -0.1084497 4.876526e-05 -0.029361183 -0.010385136 -0.01186257
-0.10189208 -0.021357588 0.040051732 0.058197904 -0.056565978 0.006124144 0.048793968 -0.05026806
-0.015272134 0.031407416 -0.10597809 0.043588102 0.047204755 -0.065552585 -0.009871161 -0.06741896
0.19942135 -0.03792765 0.068548515 0.28877404 0.099402845 -0.17937008 0.11185414 -0.17720622
-0.09776219 0.002197428 0.134799 0.18200351 -0.0756938 -0.11781501 0.085367724 -0.045110222
-0.04402166 -0.12258327 -0.0036733383 -0.22303545 -0.0033756748 0.056306545 -0.07784439 -0.0028329908
0.13240127 0.04631571 -0.008555198 -0.1605442 -0.005237759 0.08606972 -0.03015665 0.009683274
-0.04078764 0.02948022 -0.02038272 0.09977554 -0.0573498 0.059686735 0.055544525 -0.08717635
0.05413119 -0.037480436 -0.08465396 0.033010654 -0.06295018 -0.031022642 -0.06296223 -0.04668225
00000000: 44b5 863d c23c 84bd bbd7 9e3d b615 dfbc
00000010: e48b 9abe 410b 2cbd 3f6e 223e c02e ef3d
00000020: db50 173e 70c1 48bd 88e0 19be 9407 9bbd
00000030: cd5d 7cbd 6bb5 17be 3a6b 76bd d811 463b
00000040: 395f 9bbc e3de b33c 578e fe3d 66bf 92bc
00000050: aa18 b53d f9c0 a73d afec a23b b0be da3d
00000060: cf9d d73d c210 0d3e 9fca 043e 8b00 b4bd
00000070: b762 a3bd 7cd3 a3bd 00e8 e63c c25c c53d
00000080: eb67 32bd c269 02bd f20d 8abd 45c9 43bd
00000090: c081 35bc 89f3 d43c 2afb fab9 8e50 f8bb
000000a0: 3f56 323e f4f4 49bc 8143 673b 5474 943d
000000b0: 5e26 87bc ba42 c83c beb1 c23c ec73 32bd
000000c0: 654d 323e 2af9 e1bc 13c0 2ebe 4fba edbc
000000d0: a898 e13c e06f e1bc 9f16 b7bd fe17 8bbe
000000e0: 5964 22be eff1 73bd 1ec1 86be 58e8 10be
000000f0: b306 d7bc 9f78 583a 8303 64bd 2b11 a7bd
00000100: 1d05 b3bd 1960 d0bd 4fe2 b9bd e9d6 45be
00000110: bc6b fabd 1a65 f3bd f3f1 3ebe 28be 32be
00000120: 7450 31bd 72cc bdbd e85c 21bd dc2d 45bd
00000130: d050 13be eb67 863b 4013 30ba 8e8e 01bc
00000140: b57a 2ebc 6089 973d 2804 6cbd 20b7 a13d
00000150: ea9b a03d 544a 54be cf5d a13d a0da 253d
00000160: 0888 ba3d ea9e 953d 92c0 86bb 3f71 603e
00000170: 8447 e6bb a530 753d 1766 25bc 1bca f43c
00000180: 8024 a9bd d975 31be bf00 91bd 0d4a c63d
00000190: dcd1 493d 4a74 8f3d 9f8e 8a3d 7e40 a9bd
000001a0: 6cbe e53d e33a e33d 1705 323e f2b3 d13d
000001b0: 4fac ce3d d206 803d f3a4 2f3d a727 143e
000001c0: 0c9a b73d e59e 7e3c 629e 683c e354 94bc
000001d0: 36e9 c03c 7477 003d 693a 2e3e c798 393d
000001e0: c6cb ef3d 457c ca3e fb48 093e e0c5 86bd
000001f0: 3c6b 353e 179a 1fbd 45e8 30bd 1df6 943d
00000200: 37d1 633b 8b6e 83bd db0f ad3d e1ad 313e
00000210: 1c3a 3cbd 2d10 00bd 64a9 2fbd 4d7a c3bd
00000220: 8e34 f3bd a77a b5bd 4b33 02be 03ec 76be
00000230: 7ddb d3bd 5fe6 f5bd 872f b7bd d9dd e2bd
00000240: 87e3 4ebd dca9 06bd fffe 01bc 6b5c 74bd
00000250: 79f3 e8bd 2790 173d 403b 353d 5533 753e
00000260: 06bb 903b bda5 b63d 3451 dd3d dcf9 a3bd
00000270: ff14 773c b8e9 953d e001 673d ebc0 07bd
00000280: 6e50 043e c94f 1f3d 761a bfbd f10f 6dbb
00000290: 7047 f9bc ded5 0e3e fe4b 60bc e3d9 d03c
000002a0: 1424 b7bc 1719 2d3d 5b97 e0bd 7a84 f13c
000002b0: 3b0a 8c3d 9ac5 a4bb 0ee1 87bd 1f55 73bd
000002c0: 8e81 113d 4722 82bc 2fa2 263d 5260 c53b
000002d0: 42fc 823d a3b3 c73b 2ce8 953d 9717 a4bc
000002e0: e212 01be e9ba c43b 0587 0fbc e01a debd
000002f0: 4d89 4c38 dd86 f0bc 6b26 2abc 3a5b 42bc
00000300: cbac d0bd 1cf6 aebc 490d 243d ed60 6e3d
00000310: bab1 67bd 0bad c83b 2fdc 473d e2e5 4dbd
00000320: f937 7abc 10a5 003d 0a0b d9bd 7089 323d
00000330: c659 413d 6f40 86bd a6ba 21bc f412 8abd
00000340: 1c35 4c3e 065a 1bbd 2a63 8c3d 31da 933e
00000350: b893 cb3d caac 37be c913 e53d 8c75 35be
00000360: 8b37 c8bd b902 103b c008 0a3e 215f 3a3e
00000370: 5a05 9bbd ff48 f1bd 46d5 ae3d 7fc5 38bd
00000380: 0e50 34bd f00c fbbd 64bc 70bb 6863 64be
00000390: 6d3a 5dbb b1a1 663d e16c 9fbd b3a9 39bb
000003a0: 3394 073e 8bb5 3d3d 1a2b 0cbc b365 24be
000003b0: 82a1 abbb 5245 b03d 140b f7bc 98a6 1e3c
000003c0: f110 27bd 8180 f13c a9f9 a6bc 1e57 cc3d
000003d0: a0e7 6abd 147a 743d a882 633d 8489 b2bd
000003e0: abb8 5d3d 1685 19bd 0e5f adbd 2e36 073d
000003f0: 06ec 80bd 3223 febc 57f2 80bd e335 3fbd
