image_classification/weights/squeezenet_nchw/squeezenet0_conv22_weight.npy (npy, 131152 bytes, 1 tensors)

array f4 [64, 512, 1, 1]
0	0xbdd90a6b	-0.1059769
1	0x3dbd7617	0.092510395
2	0xbdb04cc5	-0.086083926
3	0xbb9d0720	-0.004792109
4	0xbd2afd15	-0.041745264
5	0x3d76d799	0.060264204
6	0x3d9b05e4	0.07569483
7	0x3d461abb	0.048365336
8	0xbc102d89	-0.008799919
9	0x3e0817b9	0.132903
10	0x3c56682b	0.013086359
11	0xbd822c3e	-0.06356095
12	0xbdb73a35	-0.08946649
13	0x3c85f91e	0.01635414
14	0x3cbf38ee	0.023342576
15	0xbd6c3c85	-0.057674903
16	0x3d59a572	0.053136297
17	0x3d9eaa77	0.07747357
18	0x3dc0123c	0.09378478
19	0x3dd2bc5a	0.102898315
20	0xbd2206bb	-0.0395572
21	0xbdaae522	-0.08344485
22	0xbbc9697c	-0.006146608
23	0x3ce28401	0.027650835
24	0xbc0bf397	-0.008541963
25	0x3db601a9	0.088870354
26	0x3dcb69e9	0.0993231
27	0xbd264a8c	-0.040598437
28	0x3c78887c	0.015169259
29	0x3d7fe604	0.06247522
30	0x3d01f818	0.03173074
31	0x3d3b5802	0.045738228
32	0xbdd08cb0	-0.10183084
33	0x3db18ac8	0.086690485
34	0x3d1d8bac	0.03846328
35	0x3d2dc612	0.042425223
36	0x3c89ae4e	0.016806748
37	0x3c8e4950	0.017368942
38	0xbcb9e795	-0.022693435
39	0xbd117921	-0.03551591
40	0xbcb75366	-0.022378635
41	0xbd985d96	-0.07439725
42	0xbd9d748e	-0.07688247
43	0x3d94bf73	0.072630785
44	0xbcf7f8f3	-0.030270075
45	0x3e13c8c8	0.1443206
46	0x3d244aeb	0.04011051
47	0xbbad2080	-0.0052834153
48	0xb9a1154f	-0.0003072419
49	0xbdba7107	-0.091035895
50	0x3d352708	0.044226676
51	0x3d0f3982	0.034966953
52	0xbc860436	-0.01635943
53	0xbdf1c5db	-0.11805316
54	0x3c51265d	0.012765494
55	0x3bf8ac4b	0.0075888983
56	0xbd871467	-0.06595688
57	0x3baa6154	0.0051995907
58	0xbd1b8a6f	-0.037973817
59	0x3c99e528	0.018786028
60	0x3cdd2e9a	0.02699976
61	0x3c539f23	0.012916359
62	0x3bc00911	0.005860456
63	0x3c81183c	0.015758626
64	0x3bf8c697	0.007592033
65	0xbd4c1710	-0.04982668
66	0xbbd487d3	-0.006485918
67	0x3d0d6600	0.034521103
68	0xbc754d57	-0.014972053
69	0xb9cc41e2	-0.00038959
70	0x3dd78d88	0.10525042
71	0x3e11678d	0.14199658
72	0xbce99cf0	-0.028517216
73	0xbcf7b28b	-0.030236503
74	0xbd0bc4bd	-0.03412317
75	0xbb22549f	-0.0024769676
76	0x3c40c71f	0.011766224
77	0xbc7f69c7	-0.015589184
78	0xbd463c53	-0.048397373
79	0xbd442151	-0.047883336
80	0xbcf70c19	-0.030157136
81	0xbd41dbc7	-0.047328737
82	0xbd272467	-0.0408062
83	0x3d455c7f	0.048183914
84	0x3d0bfae3	0.03417481
85	0xbc141a17	-0.009039423
86	0x3d13d839	0.036094878
87	0x3df0c916	0.11757104
88	0x3cc6135d	0.024179155
89	0xbd145b63	-0.036219966
90	0xbdb3f644	-0.08787206
91	0x3d101479	0.035175774
92	0xbda6cb96	-0.081443
93	0x3e8445e1	0.25834563
94	0x3e2ca6ca	0.168605
95	0xbc76489c	-0.01503196
96	0xbb9d494d	-0.004799998
97	0xbb9dd0c2	-0.0048161456
98	0xbd6c1d85	-0.05764534
99	0x3df07678	0.11741346
100	0x3d54c9a2	0.051950105
101	0xbd13a43c	-0.036045298
102	0x3d21c1b9	0.03949139
103	0xbcbb1477	-0.022836907
104	0xbd1e1aaa	-0.038599648
105	0xbd0bf81d	-0.034172166
106	0xbaf02024	-0.0018320126
107	0xbc06bdca	-0.00822396
108	0xbd555524	-0.05208315
109	0x3ca43edf	0.02004951
110	0x3de72630	0.112865806
111	0xbcb14d6a	-0.02164336
112	0x3d8b6928	0.06807166
113	0xbcca88e2	-0.024723474
114	0x3c2c7eb7	0.010528258
115	0xbdb112b8	-0.086461484
116	0xbcd86292	-0.02641419
117	0x3d6c8b0e	0.0577498
118	0x3d99af03	0.07504084
119	0x3d917fd4	0.071044594
120	0x3dad25c2	0.08454467
121	0x3c2ca3c7	0.010537094
122	0xbdb41427	-0.08792906
123	0x3c0bfa5a	0.008543575
124	0xbdb0bfdd	-0.08630345
125	0x3d47ed37	0.04881021
126	0xbd04da19	-0.032434557
127	0x3e052a5b	0.13004439
128	0xbd2c16e1	-0.042014007
129	0x3d10f8ca	0.035393514
130	0xbd8deda2	-0.069300905
131	0x3b69cd44	0.0035675326
132	0xbd56741e	-0.05235683
133	0x3d5a2429	0.05325714
134	0x3d25750d	0.04039483
135	0xbd5c24e6	-0.053746127
136	0xbde445b1	-0.11146105
137	0x3b047ff5	0.002021787
138	0x3d45fb25	0.048335213
139	0xbcff66f5	-0.031177023
140	0x3e5a2143	0.21301751
141	0xbdbaedb3	-0.09127369
142	0x3dbe93a5	0.09305505
143	0x3ba8733e	0.005140691
144	0x3d6f64bd	0.05844568
145	0xbbcc9ff8	-0.0062446557
146	0xbe2da015	-0.16955598
147	0xbbb39663	-0.005480574
148	0x3c96bb3e	0.01839983
149	0x3d882c55	0.06649081
150	0x3e25f81f	0.16207932
151	0x3d68d340	0.05684209
152	0x3dc0284a	0.093826845
153	0xbca5bb54	-0.020230927
154	0xbe2eccbc	-0.17070287
155	0xbdd7865d	-0.10523675
156	0x3d061825	0.03273787
157	0xbca962e5	-0.02067704
158	0xbbdd8253	-0.0067599206
159	0xbe488824	-0.19583184
160	0xbb45f947	-0.0030208395
161	0x3c752cce	0.014964296
162	0x3de162b4	0.11005154
163	0x3d495e82	0.049162395
164	0xbd755511	-0.05989558
165	0xbcc4b120	-0.024010241
166	0x3d410f5e	0.047133796
167	0x3d39711c	0.045273885
168	0xbba3f029	-0.0050029946
169	0xbb3c2441	-0.0028708132
170	0x3ca76641	0.0204345
171	0x3cedeae0	0.029042661
172	0x3e0cf5a6	0.13765582
173	0x3d8e0233	0.06934013
174	0x3cd8b10c	0.02645161
175	0x3dc6d3ae	0.097083434
176	0x3e5b7ad7	0.21433578
177	0x3d6fd4f9	0.058552716
178	0xbd81476b	-0.0631245
179	0xbd3309c8	-0.0437105
180	0x3ced087e	0.028934713
181	0x3d7cd1b9	0.061723445
182	0xbcf56422	-0.029954974
183	0xbdb4b939	-0.08824391
184	0x3d1c62ee	0.038180284
185	0x3bfc5161	0.007700131
186	0xbd48a6a6	-0.048987053
187	0xbc15adcf	-0.0091356775
188	0x3d52cc74	0.051464513
189	0x3cba9de6	0.02278037
190	0x3ce0da8f	0.027447967
191	0x3c521644	0.012822691
192	0xbd4dd181	-0.050248627
193	0x3daadf03	0.08343317
194	0x3c5592d8	0.013035499
195	0xbcc37b15	-0.023862401
196	0x3c87719b	0.016533663
197	0x3cf9ac24	0.03047759
198	0x3d60c7a2	0.054877885
199	0xbc8a791b	-0.01690345
200	0xbda06874	-0.07832423
201	0xbc079ba7	-0.0082768565
202	0xbc5523c8	-0.013009019
203	0x3d2704ee	0.040776186
204	0xbc4a69d7	-0.012354336
205	0xbc5439d8	-0.012953244
206	0xbe2ed703	-0.17074208
207	0x3dce6a5e	0.10078882
208	0x3d828301	0.06372643
209	0x3d8e8428	0.069588006
210	0xbc6559d6	-0.013998469
211	0x3b4674ed	0.0030282096
212	0x3c936256	0.017991226
213	0x3dbdb791	0.09263528
214	0xbd85b3ff	-0.06528472
215	0xbc815621	-0.01578814
216	0x3d0e6b0c	0.034770057
217	0x3d362b2a	0.04447476
218	0x3e0e927d	0.13923068
219	0x3e1e05ac	0.15431851
220	0x3d2385bc	0.03992246
221	0x3d0ead09	0.034832988
222	0xbda1c189	-0.07898242
223	0x3d44986f	0.047996935
224	0xbdb7e08e	-0.08978377
225	0xbd64ca98	-0.05585727
226	0x3c030e40	0.007999003
227	0x3d3c7610	0.04601103
228	0x3c836c85	0.016042957
229	0xbd390ac0	-0.045176268
230	0xbdc5519b	-0.09634706
231	0x3e0b2d75	0.13591559
232	0x3dc12c0c	0.094322294
233	0xbd1070d2	-0.035263844
234	0x3d9233f1	0.07138813
235	0x3de77835	0.113022245
236	0x3a81a170	0.0009890031
237	0x3ca5ceab	0.020240149
238	0x3c4807c8	0.012208886
239	0xbd811fa7	-0.06304865
240	0xbb4769f9	-0.0030428155
241	0xbd9f67e4	-0.077834874
242	0xbdb25073	-0.08706751
243	0x3d409a4a	0.04702214
244	0x3da5c407	0.0809403
245	0x3c7ba6a9	0.015359559
246	0x3dd8e14a	0.105898455
247	0x3d474af4	0.048655465
248	0xbc87b153	-0.016564047
249	0xbdfefab1	-0.12450159
250	0xbd0f5100	-0.034989357
251	0xbdc4a392	-0.09601511
252	0x3dcbfe45	0.099606074
253	0x3cb8e982	0.022572283
254	0x3bd51dc9	0.006503795
255	0x3c5b2f0f	0.013377919
