image_classification/weights/squeezenet_nchw/squeezenet0_conv10_weight.npy (npy, 32848 bytes, 1 tensors)

array f4 [32, 256, 1, 1]
-0.08059144 0.10669213 -0.047448106 -0.03555323 -0.10202515 0.13606378 0.187225 -0.029431788
-0.05699276 -0.094543725 0.07592158 0.05177812 0.082344964 0.19775312 0.13249113 -0.24263799
-0.08022518 -0.033245202 0.0019958536 -0.09925059 0.16085815 -0.018021166 0.041394338 0.0012601524
0.04246828 0.10793605 -0.021774339 0.25541908 -0.019960767 0.22460017 0.13875946 0.011657279
0.13902012 0.02517756 -0.04331034 -0.023885814 0.14319465 0.04055179 0.0023956406 -0.089878514
0.022562368 -0.02925331 0.028986081 -0.0024143679 -0.016213425 -0.07801309 -0.09697461 -0.04993299
-0.005801666 0.27436334 0.08415843 0.21266368 0.0032105464 0.094495974 -0.1037057 -0.04819759
-0.016175218 -0.032521565 -0.0022457927 -0.08818682 0.23381557 -0.0013088211 0.2892927 -0.06602174
-0.0036114592 -0.17781425 -0.078860454 -0.12676916 -0.13775586 0.0073247286 -0.04797314 0.0031666292
-0.011083289 0.39673775 -0.054617755 0.1765893 0.01742653 -0.026542682 -0.0015779283 0.059198577
0.04133965 -0.010799575 0.21313547 0.0959197 0.16328204 -0.0022179706 0.002457167 -0.09880827
-0.0058083334 -0.08547189 0.14724422 0.10973151 0.121554 -0.07124831 -0.10825367 -0.14021942
0.0071269264 0.009212524 0.069340065 -0.033501383 0.13496524 0.12240618 -0.11144135 0.19571614
0.13190591 0.10170198 0.05505404 0.040152352 0.059080955 0.13108246 0.0018998532 0.09049929
0.11075717 -0.0012065313 0.02970379 -0.012439689 -0.0001998482 -0.12854771 -0.054835424 0.064959675
-0.037859406 -0.02917346 0.004956424 0.021951485 0.02071917 -0.14185649 0.11015217 0.046797868
-0.10034587 0.0740653 -0.09393503 0.17351663 0.08137198 -0.12103653 0.0502988 -0.00059749704
-0.19675054 0.12568565 0.0031156708 -0.042463195 -0.07011978 0.062561244 -0.11071339 0.050904974
-0.15291984 -0.19108897 0.09005898 -0.093224436 0.07400677 0.040734626 0.023276262 -0.00862522
0.10333941 -0.16673407 -0.15843512 0.08783782 -0.008449767 0.13974681 0.03222669 -0.18768704
-0.15528406 -0.09389301 0.026372042 0.01724148 0.036715597 -0.19372411 -0.15276581 0.13884726
-0.009799661 0.1183475 0.045770403 -0.21237001 0.11417193 -0.0410485 -0.09658106 0.0059513217
-0.016933452 0.02406097 0.025091782 0.26058853 -0.06620654 -0.11279924 0.0054694517 0.03519488
0.047450747 -0.061871015 0.08935276 0.09123871 -0.17662114 0.01872889 0.074688956 -0.013847422
0.060547438 0.11392617 -0.118151225 -0.2918933 -0.11812635 0.11573249 -0.08194767 -0.094641715
-0.020512005 -0.017741198 0.13735016 -0.02438472 -0.22326061 0.10770606 -0.12287619 0.21892594
0.07912254 -0.14774993 -0.12873925 -0.23399843 0.075996414 0.13497753 0.03260075 -0.058531173
-0.21222053 -0.008911177 -0.1385616 0.113937825 0.13650073 0.017604506 -0.050837055 -0.032252982
0.13641122 0.24464734 -0.001484643 -0.0027098977 0.012837613 0.23728906 0.16317886 0.0062619615
-0.12337208 0.07047448 0.03407423 0.015432329 -0.08470236 -0.06648857 -0.04357827 0.033047255
0.15301399 -0.06287764 -0.019110292 -0.09885484 0.10687623 0.010227186 -0.004260103 -0.08047316
0.015812702 0.16420771 0.039564226 0.07184252 -0.116751984 0.04667434 -0.005959277 0.10905532
00000000: 200d a5bd 6781 da3d f258 42bd 44a0 11bd
00000010: 90f2 d0bd 4e54 0b3e e9b7 3f3e ef1a f1bc
00000020: 3e71 69bd 24a0 c1bd c67c 9b3d 4b15 543d
00000030: 7aa4 a83d cb7f 4a3e c1ab 073e 1876 78be
00000040: 194d a4bd 1f2c 08bd decc 023b e543 cbbd
00000050: 00b8 243e 20a1 93bc 1c8d 293d b32b a53a
00000060: 38f3 2d3d 930d dd3d 1960 b2bc 4ac6 823e
00000070: c384 a3bc 96fd 653e f616 0e3e 2cfe 3e3c
00000080: 4a5b 0e3e 2c41 ce3c 2f66 31bd 2fac c3bc
00000090: 9ea1 123e a219 263d 2e00 1d3b 3a12 b8bd
000000a0: b7d4 b83c a3a4 efbc 3874 ed3c 5f3a 1ebb
000000b0: 04d2 84bc 54c5 9fbd a09a c6bd 8986 4cbd
000000c0: e71b bebb 5a79 8c3e 415b ac3d 82c4 593e
000000d0: 0868 523b 1b87 c13d a763 d4bd d66a 45bd
000000e0: e481 84bc 5535 05bd 262e 13bb 4b9b b4bd
000000f0: 596d 6f3e c08c abba 2c1e 943e 6836 87bd
00000100: 3bae 6cbb f014 36be 9781 a1bd c6cf 01be
00000110: df0f 0dbe 4704 f03b 7c7f 44bd 3987 4f3b
00000120: af96 35bc 3621 cb3e deb6 5fbd d3d3 343e
00000130: 15c2 8e3c 0a70 d9bc 7dd2 ceba 357a 723d
00000140: c453 293d b3f0 30bc 2f40 5a3e 8c71 c43d
00000150: 6833 273e 5f5b 11bb 6c08 213b fe5b cabd
00000160: d553 bebb e30b afbd 30c7 163e eaba e03d
00000170: 4ef1 f83d a2ea 91bd 1ab4 ddbd ae95 0fbe
00000180: fe88 e93b 20f0 163c 2a02 8e3d bf38 09bd
00000190: 5434 0a3e 17b0 fa3d 5d3b e4bd d069 483e
000001a0: 5812 073e 2149 d03d 5880 613d cb76 243d
000001b0: dffe 713d 7b3a 063e 7f04 f93a b157 b93d
000001c0: a8d4 e23d 7924 9eba 5d55 f33c d6cf 4bbc
000001d0: 588e 51b9 03a2 03be 1c9b 60bd 9409 853d
000001e0: 7712 1bbd 2efd eebc 7f69 a23b 9ad3 b33c
000001f0: 40bb a93c d442 11be 7697 e13d 1faf 3f3d
00000200: 2382 cdbd 8caf 973d 0261 c0bd 58ae 313e
00000210: 5aa6 a63d 00e2 f7bd 1d06 4e3d 59a1 1cba
00000220: f978 49be bdb3 003e 4830 4c3b e3ed 2dbd
00000230: f69a 8fbd 1c20 803d b4bd e2bd bc81 503d
00000240: 0597 1cbe d4ac 43be d870 b83d 74ec bebd
00000250: dd90 973d 5ad9 263d dcad be3c cb50 0dbc
00000260: 9da3 d33d 56bc 2abe d13c 22be 51e4 b33d
00000270: e470 0abc ca19 0f3e 2200 043d 0831 40be
00000280: c902 1fbe fa4a c0bd 2e0a d83c 013e 8d3c
00000290: 1863 163d 9d5f 46be a46e 1cbe fa2d 0e3e
000002a0: c28e 20bc 2d60 f23d bf79 3b3d 8677 59be
000002b0: f9d2 e93d 7922 28bd 4acc c5bd 4e03 c33b
000002c0: 06b8 8abc 831b c53c 488d cd3c dc6b 853e
000002d0: 4b97 87bd 4a03 e7bd 1639 b33b 8228 103d
000002e0: b75b 423d 766c 7dbd 94fe b63d 5cdb ba3d
000002f0: 2cdc 34be 546d 993c 86f6 983d 4ce0 62bc
00000300: 9700 783d 2052 e93d 45f9 f1bd 0a73 95be
00000310: 3aec f1bd 2805 ed3d 2ed4 a7bd 84d3 c1bd
00000320: cb08 a8bc fd55 91bc 85a5 0c3e 77c2 c7bc
00000330: 6e9e 64be ff94 dc3d 83a6 fbbd 1f2e 603e
00000340: 000b a23d c24b 17be 39d4 03be 499d 6fbe
00000350: 02a4 9b3d 8d37 0a3e 5d88 053d 62be 6fbd
00000360: 5750 59be 2f00 12bc 18e3 0dbe 3c58 e93d
00000370: d9c6 0b3e 5337 903c 843a 50bd b41b 04bd
00000380: 62af 0b3e d584 7a3e 5a98 c2ba 8a98 31bb
00000390: da54 523c e7fb 723e 5c18 273e 2431 cd3b
000003a0: 80aa fcbd ed54 903d 6b91 0b3d e1d7 7c3c
000003b0: 6e78 adbd 292b 88bd 217f 32bd 8f5c 073d
000003c0: b3af 1c3e fec5 80bd 308d 9cbc 6874 cabd
000003d0: ede1 da3d ed8f 273c 5698 8bbb 1dcf a4bd
000003e0: a489 813c 1126 283e 190e 223d 2c22 933d
000003f0: aa1b efbd 982d 3f3d 0a46 c3bb 6558 df3d
