image_classification/weights/squeezenet_nchw/squeezenet0_conv24_bias.npy (npy, 1104 bytes, 1 tensors)

array f4 [256]
0	0x3a49b6f8	0.0007694806
1	0x3bc1fd4d	0.0059200884
2	0xbb2d392c	-0.0026431782
3	0x3c3680f5	0.011139144
4	0x3bfcc2f1	0.0077136685
5	0xbb9be6dd	-0.0047577457
6	0x3c180d6e	0.009280546
7	0x3b10432d	0.0022012696
8	0x374afaa1	1.2098492e-05
9	0x3b747277	0.0037299672
10	0x3bdce242	0.006740839
11	0x3c775f6a	0.015098432
12	0x3c05a0a0	0.008155972
13	0x3a618b79	0.0008603852
14	0x3bece76d	0.0072297365
15	0xbb341fa9	-0.0027484691
16	0x3b3685d9	0.0027850776
17	0xbb314971	-0.002705183
18	0xbaa7d9d7	-0.001280601
19	0xba1c4c98	-0.0005962341
20	0x399ddee3	0.00030111437
21	0x3b80f818	0.003935825
22	0x3a9ba45a	0.0011874542
23	0x3bffec97	0.007810186
24	0xba97c45d	-0.0011578907
25	0x3ad012dc	0.0015874761
26	0x3b20bd43	0.0024526871
27	0x3b49472e	0.0030712592
28	0x3b41d098	0.0029573794
29	0x3aeb3ce0	0.0017947219
30	0x3b26e76c	0.0025467528
31	0x3b12a921	0.002237864
32	0x3b96932b	0.0045951805
33	0xba201404	-0.0006106498
34	0xbb824a3b	-0.003976134
35	0xb9cc7725	-0.00038998682
36	0x3bb7d9aa	0.0056106644
37	0xbaa4de05	-0.0012578374
38	0xbb1e8ebc	-0.0024193963
39	0x3a4a23b9	0.00077110116
40	0x3b9a6421	0.0047116433
41	0x3ba32969	0.0049793017
42	0x3b0eb8e9	0.0021777696
43	0x3c65fdc3	0.014037552
44	0x3b33dbae	0.0027444172
45	0x3bb79f4a	0.0056037055
46	0x3b9a7576	0.0047137095
47	0xb9337a2f	-0.00017116287
48	0x3adb5082	0.0016732367
49	0x3af896ab	0.0018965801
50	0x3bcc76c3	0.0062397434
51	0x3b1bc157	0.0023766363
52	0x3b291836	0.0025801784
53	0x3d0a0175	0.033692796
54	0x381c0886	3.7201236e-05
55	0x39175882	0.00014433454
56	0x3aca5837	0.0015437667
57	0x3b5dc514	0.0033839392
58	0x3cebda71	0.028790684
59	0x3b0b44ab	0.0021250646
60	0x3ab60e0f	0.0013889688
61	0x3b21fc92	0.0024717194
62	0x3b7a440d	0.0038187534
63	0xbae03604	-0.0017105942
64	0x3adbe58b	0.0016776783
65	0x3c9e2b33	0.019307708
66	0x3ace55b2	0.0015742092
67	0x3bf7fc25	0.0075679
68	0x3c468396	0.0121163335
69	0x3ae4c8e7	0.0017454893
70	0xbb25f188	-0.0025320966
71	0x3c61cf7d	0.013782379
72	0x3b074655	0.0020641286
73	0x3b49fcaa	0.0030820766
74	0x3c45c09b	0.0120698465
75	0x3bb65fe8	0.005565632
76	0x3c9dd187	0.01926495
77	0x369b01ac	4.6195546e-06
78	0x3bc8f974	0.0061332528
79	0x3b9f00f0	0.0048524067
80	0x3b211e95	0.0024584879
81	0x3c6e858f	0.01455821
82	0x3b50665c	0.0031799292
83	0x3b8a38d5	0.0042182007
84	0x3b8836b4	0.0041569117
85	0x3c7a98ac	0.015295189
86	0xbb0e2fdb	-0.0021696005
87	0x3bba55e0	0.0056865066
88	0x3b7caf0b	0.0038556482
89	0x3b32d0a6	0.0027285009
90	0x3b01291b	0.0019708339
91	0x3b6d715e	0.0036230902
92	0x3a8f8622	0.0010950009
93	0x3ae422af	0.0017405356
94	0x3bd66451	0.0065427204
95	0xba70b46c	-0.00091821584
96	0x3a7bd093	0.000960597
97	0x3be3fa3c	0.0069573205
98	0xbaa2677d	-0.0012390461
99	0x3c09917b	0.008396502
100	0x3aa5504b	0.001261243
101	0x3b9616f7	0.0045803743
102	0x3aed5333	0.001810646
103	0x3c14f8b3	0.009092498
104	0x3c563976	0.013075223
105	0x3ba0935e	0.00490038
106	0x3c039396	0.008030793
107	0x3b5133a6	0.0031921654
108	0x3ae50c8a	0.001747505
109	0xbb931048	-0.004488025
110	0xbabab396	-0.0014244195
111	0x3af83917	0.0018937913
112	0xbb7bdfd7	-0.003843298
113	0x3c1bffab	0.009521405
114	0x3c1770bb	0.009243186
115	0x3badae51	0.005300321
116	0x3c5671b4	0.013088632
117	0x3c4e0b6f	0.012575968
118	0x3c174437	0.009232572
119	0x3b6ef0da	0.0036459477
120	0xba5ebc80	-0.00084967166
121	0x3b15dd13	0.0022867366
122	0x3c050c63	0.008120629
123	0x3a445f1e	0.000749098
124	0x3af6448b	0.0018788738
125	0xbb26e077	-0.0025463381
126	0xba967eeb	-0.0011481916
127	0xbae3e2b3	-0.0017386287
128	0x3b21974c	0.002465683
129	0x3b389aa4	0.0028168345
130	0x3ba8fcee	0.0051571047
131	0x3b8d0714	0.0043038223
132	0xbb376600	-0.002798438
133	0x3b1589eb	0.0022817801
134	0x3b8745d3	0.0041281967
135	0x3bdb1431	0.0066857566
136	0x3c20ce13	0.009814757
137	0x3b953326	0.0045532165
138	0x3c36f7e7	0.011167503
139	0x3c2c563b	0.010518606
140	0x3aebc9e7	0.0017989249
141	0xba2abc5d	-0.00065130537
142	0x3ac1e4df	0.001479294
143	0x3c198c9c	0.009371903
144	0x37fab5b6	2.9886938e-05
145	0x3bf2772d	0.0073994608
146	0x3b266ac8	0.0025393236
147	0x3bc355f2	0.005961173
148	0xbae8ec9d	-0.0017770712
149	0xb9a2cbc2	-0.0003105086
150	0x398c7eae	0.00026797265
151	0x3a5c6e5e	0.000840878
152	0x3aa2647a	0.0012389563
153	0x3aac1ed2	0.0013131744
154	0x3b00f325	0.0019676175
155	0x3b90b0c3	0.004415603
156	0xbaa5c48e	-0.0012647079
157	0x3c17f5b6	0.009274891
158	0x3a8c5c7b	0.0010708714
159	0x39a167ea	0.00030785735
160	0xbb259369	-0.0025264865
161	0x3c0741da	0.008255446
162	0xbb19d87c	-0.0023474982
163	0x3b0b6a06	0.0021272912
164	0x394ec9d1	0.00019720873
165	0x3b751cbb	0.0037401158
166	0xbb20ba68	-0.002452517
167	0x3b22c357	0.002483567
168	0x3bb16d65	0.005414652
169	0x3b11e2c4	0.0022260407
170	0x3b6042e3	0.0034219555
171	0xba1d4699	-0.00059995946
172	0x3c2e5277	0.010639778
173	0x3b64ae2f	0.003489386
174	0x3ba1074c	0.0049142
175	0xbb11444e	-0.0022165957
176	0x3b9769ba	0.004620758
177	0xba0982a4	-0.0005245602
178	0xba52fc45	-0.00080484553
179	0xba0773e7	-0.0005167112
180	0x3a8cb184	0.0010734056
181	0x3b888ebe	0.004167407
182	0x3b562b3d	0.003267958
183	0x3bc37719	0.0059651253
184	0xb9b4154e	-0.0003434815
185	0xb9f35d52	-0.000464181
186	0xb9dd4a37	-0.000422077
187	0x3bb581e0	0.005539164
188	0x3c954247	0.01822008
189	0x3c20a417	0.009804747
190	0xbac8ef4f	-0.0015330109
191	0x3c53f579	0.012936943
192	0x3ac81961	0.0015266353
193	0x3b93a9a8	0.0045063086
194	0xbb60e606	-0.0034316792
195	0x3b0e0f28	0.0021676514
196	0x3b6d8c04	0.0036246786
197	0x3ae81ea4	0.0017709327
198	0x3bc6f724	0.006071942
199	0x3beecb25	0.0072874003
200	0x3bc99998	0.006152343
201	0x3b16cde9	0.0023010916
202	0xb9c7d01b	-0.00038111288
203	0x3b9f9552	0.0048700953
204	0x3b962d24	0.004583018
205	0x3b5a68c1	0.0033326598
206	0x3aeb5d4c	0.0017956882
207	0xba65a2e6	-0.00087599305
208	0x3c056847	0.008142537
209	0x3b05ce33	0.0020417094
210	0x3b9b94e3	0.0047479733
211	0x3b3bb82e	0.0028643715
212	0x3aa5a99d	0.001263905
213	0x3a81f8af	0.0009916032
214	0x3a7abc98	0.0009564846
215	0xb98a1d4f	-0.00026343248
216	0xb97501e2	-0.00023365722
217	0x389b88ce	7.416458e-05
218	0x3b87e5f4	0.0041472856
219	0x3b0d9a7f	0.002160698
220	0x3a69e520	0.0008922387
221	0x3ba6a768	0.0050858743
222	0x3b05ab02	0.0020396118
223	0xba367a1e	-0.0006960946
224	0xba6c0339	-0.0009003166
225	0x3b6f5ab1	0.0036522562
226	0x3b428e72	0.0029686955
227	0x3c53450c	0.01289488
228	0xbb2716a5	-0.0025495675
229	0x3c946933	0.01811657
230	0x3aa6ef8b	0.0012736184
231	0x382b62ec	4.0861705e-05
232	0xb97d1d1b	-0.00024138803
233	0xb89fb5cb	-7.6155724e-05
234	0x3a976121	0.0011549332
235	0x39f440b6	0.0004658752
236	0xb9feba96	-0.00048585673
237	0x3c81d97c	0.015850775
238	0x3c46c3d7	0.012131653
239	0x3ba138d6	0.0049201054
240	0x398b1cd1	0.00026533616
241	0x3bb09586	0.0053889183
242	0xbb98bb57	-0.0046610045
243	0x3b333901	0.002734721
244	0x3acd7f83	0.001567826
245	0x38d03988	9.928929e-05
246	0x3c540ecf	0.012942984
247	0x3c1c7de2	0.009551497
248	0x3bc45d78	0.0059925877
249	0x3c8f1525	0.017466137
250	0x3a5fd1b9	0.0008538026
251	0x3c6ae866	0.014337635
252	0x3c0517fd	0.008123395
253	0x3b240a79	0.0025030656
254	0xba6b1fe6	-0.0008969292
255	0x3b547283	0.0032416887
